models/UniNet_CASIA_FeatNet.pth (torch_old, 220792 bytes, 4 tensors)

conv1.conv1_a.weight f8 [16, 1, 3, 7]
0	0xbfe8e749e0000000	-0.7782334685325623
1	0xbfe3afb080000000	-0.6151964664459229
2	0x3f7ab97ba0000000	0.006524546537548304
3	0x3fcc625b00000000	0.22175157070159912
4	0xbfadd7c760000000	-0.0582868866622448
5	0x3fcdb9d300000000	0.23223340511322021
6	0x3fea689ae0000000	0.8252691626548767
7	0xbfda31dd40000000	-0.4092934727668762
8	0xbfc52908c0000000	-0.16531476378440857
9	0xbfd8cc6100000000	-0.38747429847717285
10	0xbfd3dad820000000	-0.3102321922779083
11	0x3fb3373ee0000000	0.07506173104047775
12	0x3fdef0b260000000	0.48344096541404724
13	0x3fe00d2400000000	0.5016040802001953
14	0xbfe9b340e0000000	-0.8031315207481384
15	0xbfd2229840000000	-0.2833614945411682
16	0xbfcae76080000000	-0.21018606424331665
17	0xbfd9e3dc00000000	-0.40453243255615234
18	0x3fd902c9c0000000	0.39079517126083374
19	0x3fd9d33380000000	0.40351569652557373
20	0x3fe329c2e0000000	0.5988478064537048
21	0x3fb861de80000000	0.09524336457252502
22	0x3fd0163680000000	0.25135576725006104
23	0xbfb87a05a0000000	-0.09561190754175186
24	0x3fca1b1f40000000	0.20395269989967346
25	0xbfd7ea7160000000	-0.37368425726890564
26	0xbfd47b8600000000	-0.3200392723083496
27	0xbfe10e4bc0000000	-0.5329951047897339
28	0x3fc37316e0000000	0.15194974839687347
29	0x3fcb799b40000000	0.21464863419532776
30	0x3fd40728c0000000	0.3129369616508484
31	0x3fc2b479e0000000	0.146132692694664
32	0xbfd3cff8e0000000	-0.3095686137676239
33	0xbfd1da1c20000000	-0.27893736958503723
34	0x3f9d947700000000	0.028886660933494568
35	0xbfcb350080000000	-0.21255499124526978
36	0x3fc1ce39e0000000	0.13910602033138275
37	0x3fc4a8cd00000000	0.1614013910293579
38	0xbfc203ea80000000	-0.14074450731277466
39	0x3fcb1e96c0000000	0.21187099814414978
40	0xbfd3abd520000000	-0.307362824678421
41	0xbfd5ca4040000000	-0.3404694199562073
42	0x3fc167e700000000	0.13598334789276123
43	0xbfc7c5a180000000	-0.18571871519088745
44	0xbfd9435bc0000000	-0.39473623037338257
45	0xbfd40d23e0000000	-0.31330201029777527
46	0xbfae7c2be0000000	-0.05954110249876976
47	0xbfd5e9b0e0000000	-0.3423883616924286
48	0x3fc8532cc0000000	0.1900382936000824
49	0xbfcd2ed4a0000000	-0.22799165546894073
50	0x3fd0bbf500000000	0.2614719867706299
51	0xbfcfeeaf60000000	-0.24947158992290497
52	0x3fd06178a0000000	0.2559491693973541
53	0x3fbb25cb40000000	0.1060454398393631
54	0xbfd5509040000000	-0.3330422043800354
55	0x3fd843ba60000000	0.37913379073143005
56	0xbfca5774e0000000	-0.20579396188259125
57	0xbfca9d5e60000000	-0.20792751014232635
58	0x3fd243e1e0000000	0.28539320826530457
59	0x3fa3b818e0000000	0.038513924926519394
60	0x3fd4e76020000000	0.32662203907966614
61	0xbfcf230320000000	-0.24325598776340485
62	0xbfc3ab36a0000000	-0.1536625176668167
63	0x3fcb445ae0000000	0.21302352845668793
64	0x3fd52c52c0000000	0.33083027601242065
65	0xbf81181360000000	-0.008346701972186565
66	0xbfd618f420000000	-0.34527304768562317
67	0xbfd2464620000000	-0.2855391800403595
68	0xbfd105da20000000	-0.26598218083381653
69	0xbfd7300060000000	-0.36230477690696716
70	0xbfb95df580000000	-0.09908995032310486
71	0xbfca48e4e0000000	-0.20534954965114594
72	0xbfab4f5420000000	-0.053339604288339615
73	0xbfac8ca080000000	-0.055760398507118225
74	0xbfa3a45de0000000	-0.038363393396139145
75	0x3fcaf80220000000	0.2106936126947403
76	0xbfc8cae960000000	-0.1936923712491989
77	0xbfd5a9a940000000	-0.33848029375076294
78	0xbfd1f66940000000	-0.28066474199295044
79	0xbfd2751ae0000000	-0.28839752078056335
80	0x3fda02bb60000000	0.40641674399375916
81	0x3f92f257c0000000	0.01850258931517601
82	0xbfd5d42a20000000	-0.34107449650764465
83	0xbf7bcb8c20000000	-0.006785914767533541
84	0x3fe01f50e0000000	0.5038227438926697
85	0x3fe07bafe0000000	0.515098512172699
86	0x3fbdbcf920000000	0.11616475135087967
87	0xbfc10601a0000000	-0.13299579918384552
88	0xbfca372f60000000	-0.20480911433696747
89	0xbfe37a2be0000000	-0.6086634993553162
90	0xbfd969e900000000	-0.39708924293518066
91	0x3fe70b5be0000000	0.7201365828514099
92	0x3fd4f84ec0000000	0.32765549421310425
93	0xbfc4c987e0000000	-0.1624002307653427
94	0x3fd11e86e0000000	0.2674882113933563
95	0xbfbcf93480000000	-0.11317756772041321
96	0xbfd3cd4520000000	-0.3094036877155304
97	0xbfe2a6ffc0000000	-0.5828856229782104
98	0x3fea3695c0000000	0.8191632032394409
99	0x3fe4908d20000000	0.6426454186439514
100	0x3fe1496b60000000	0.5402123332023621
101	0xbfc17ea2e0000000	-0.13667713105678558
102	0xbfde9e9ba0000000	-0.4784306585788727
103	0xbf935cbe40000000	-0.01890847459435463
104	0xbfe3777b40000000	-0.6083351373672485
105	0x3fd118aea0000000	0.2671314775943756
106	0xbfc9eb8d80000000	-0.20250099897384644
107	0xbfda1576c0000000	-0.4075600504875183
108	0x3fd389cd80000000	0.30528581142425537
109	0xbfc78903e0000000	-0.183868870139122
110	0xbfd12bac00000000	-0.26829051971435547
111	0xbfc6d86680000000	-0.17847901582717896
112	0xbfd0f99e60000000	-0.2652355134487152
113	0xbfc5866660000000	-0.16816405951976776
114	0xbfd5020160000000	-0.32824739813804626
115	0x3fc58f8500000000	0.16844236850738525
116	0x3fd6ec8540000000	0.3581860661506653
117	0xbf9b7fa100000000	-0.026854053139686584
118	0xbfd69214a0000000	-0.35266605019569397
119	0x3fc1279ac0000000	0.13402113318443298
120	0xbfafc18ec0000000	-0.062023602426052094
121	0x3fd4453fc0000000	0.3167266249656677
122	0x3fa7f2cf80000000	0.04677437245845795
123	0x3fc79b9200000000	0.18443512916564941
124	0x3fce018cc0000000	0.23442229628562927
125	0xbfaf7e0760000000	-0.06150839850306511
126	0x3fb9f5f540000000	0.10140927135944366
127	0xbfc1af6980000000	-0.1381656527519226
128	0xbfb05a0e20000000	-0.06387413293123245
129	0x3f8335fec0000000	0.009380331262946129
130	0x3fd29fc5e0000000	0.2910017669200897
131	0x3fd613acc0000000	0.3449508547782898
132	0x3fd94638c0000000	0.394910991191864
133	0xbfc278f1e0000000	-0.1443159431219101
134	0x3fb830dd60000000	0.09449561685323715
135	0x3fb66a03e0000000	0.0875551626086235
136	0x3fbc6c0e20000000	0.11102379113435745
137	0x3fd4fc5a00000000	0.32790231704711914
138	0x3fc4b4eee0000000	0.16177164018154144
139	0x3fbc13eaa0000000	0.10967890173196793
140	0xbfc16b7a00000000	-0.1360924243927002
141	0x3fa6a2bbc0000000	0.04421030730009079
142	0x3fd7744fc0000000	0.36647409200668335
143	0x3fd68f9ba0000000	0.3525151312351227
144	0xbfbc043340000000	-0.10943908989429474
145	0xbfbf4c03e0000000	-0.1222536489367485
146	0x3f6e4d46a0000000	0.003698957385495305
147	0x3fc82f0680000000	0.18893510103225708
148	0x3fc9757860000000	0.19889740645885468
149	0x3fcd9a3500000000	0.2312685251235962
150	0xbfc7c642e0000000	-0.1857379525899887
151	0x3fb91d53e0000000	0.09810375422239304
152	0xbfdc90a500000000	-0.44632840156555176
153	0xbfe15b5020000000	-0.542396605014801
154	0x3fd9caedc0000000	0.4030107855796814
155	0x3fe0351de0000000	0.5064839720726013
156	0xbfbaa0e1a0000000	-0.10401735454797745
157	0xbfc8b24380000000	-0.19294017553329468
158	0x3fd1671980000000	0.2719177007675171
159	0xbfd73163e0000000	-0.36238953471183777
160	0xbfda438e20000000	-0.4103732407093048
161	0xbfbc27aaa0000000	-0.1099802628159523
162	0xbf8122d200000000	-0.008367195725440979
163	0x3fd0eeb800000000	0.2645702362060547
164	0x3fce810300000000	0.23831212520599365
165	0xbfd62013e0000000	-0.34570786356925964
166	0xbfcbfe5100000000	-0.2186986207962036
167	0xbfd75a6460000000	-0.3648920953273773
168	0x3f75252a80000000	0.005162397399544716
169	0xbfd5bfa8a0000000	-0.339822918176651
170	0xbfc8790ee0000000	-0.19119440019130707
171	0x3fa90b93a0000000	0.048916447907686234
172	0x3f5ce5cdc0000000	0.001763773849233985
173	0x3fac7c3680000000	0.05563516914844513
174	0xbfc8303160000000	-0.18897072970867157
175	0xbf591d4920000000	-0.001532861148007214
176	0xbfd9057100000000	-0.3909571170806885
177	0x3f987ee8e0000000	0.023921621963381767
178	0x3fcce22600000000	0.22565150260925293
179	0xbfb61b1e80000000	-0.08635130524635315
180	0x3fd8dc49a0000000	0.38844528794288635
181	0x3fca3afcc0000000	0.20492514967918396
182	0xbfbb96aa80000000	-0.1077677309513092
183	0xbfdf235a00000000	-0.48653268814086914
184	0xbfd26c0920000000	-0.2878439724445343
185	0xbfc1a55520000000	-0.137858048081398
186	0x3fc9218de0000000	0.19633649289608002
187	0x3fad2b4a60000000	0.056970905512571335
188	0x3fd75b94a0000000	0.36496463418006897
189	0x3fca631b00000000	0.20614945888519287
190	0x3fe03c6a80000000	0.5073750019073486
191	0xbfd088ff20000000	-0.2583616077899933
192	0x3fb01a9080000000	0.06290534138679504
193	0xbfd025c9a0000000	-0.25230637192726135
194	0xbfb91f3a40000000	-0.09813274443149567
195	0xbfe0f56d00000000	-0.5299592018127441
196	0x3fe4f1b000000000	0.6545028686523438
197	0x3fda4c0720000000	0.4108903706073761
198	0x3fd38eefa0000000	0.3055991232395172
199	0x3fc24823c0000000	0.14282652735710144
200	0x3f749597a0000000	0.0050254748202860355
201	0xbfd8909c80000000	-0.3838263750076294
202	0xbfe05e55c0000000	-0.5115154981613159
203	0x3fe37afd20000000	0.6087632775306702
204	0x3fca6ae480000000	0.20638710260391235
205	0x3fb358a400000000	0.07557129859924316
206	0xbfd34bca80000000	-0.30150091648101807
207	0xbfa8a623c0000000	-0.04814254492521286
208	0x3fc23c4560000000	0.14246432483196259
209	0x3f7c8f35e0000000	0.006972513627260923
210	0x3fc9259120000000	0.19645895063877106
211	0x3fb1074220000000	0.06651700288057327
212	0xbfb6f471c0000000	-0.0896674245595932
213	0x3fd1ada9c0000000	0.2762245535850525
214	0xbfc2a09a20000000	-0.14552618563175201
215	0x3fb684d480000000	0.08796432614326477
216	0x3fc8cb6300000000	0.19370687007904053
217	0x3fbc243c20000000	0.10992790013551712
218	0xbfd8d7ce60000000	-0.3881717622280121
219	0x3fd2339ee0000000	0.28440067172050476
220	0x3fd0bf4840000000	0.2616749405860901
221	0xbfc84fbe00000000	-0.18993353843688965
222	0x3fa6b80920000000	0.04437283053994179
223	0x3fd8588ee0000000	0.38040515780448914
224	0xbfd99a0960000000	-0.4000266492366791
225	0xbf9a21d5a0000000	-0.02551969327032566
226	0xbfd816aae0000000	-0.376383513212204
227	0x3fd249e9c0000000	0.285761296749115
228	0x3fc343b880000000	0.15050417184829712
229	0x3fb4a80b00000000	0.08068913221359253
230	0x3fc2d47420000000	0.14710856974124908
231	0x3fe6085120000000	0.6885152459144592
232	0xbfc66a0100000000	-0.17510998249053955
233	0x3fc26b1020000000	0.143892303109169
234	0xbfd7559920000000	-0.3645994961261749
235	0xbfda0ca280000000	-0.407021164894104
236	0xbfdb0af400000000	-0.4225435256958008
237	0xbfe5b54cc0000000	-0.6783813238143921
238	0x3fda14b220000000	0.40751317143440247
239	0x3fde23bb80000000	0.47093093395233154
240	0xbfcff8e700000000	-0.24978339672088623
241	0x3fd308bb00000000	0.297407865524292
242	0xbfc7f3f660000000	-0.18713264167308807
243	0xbfdc5a1e40000000	-0.4430003762245178
244	0xbfa5819d20000000	-0.04200449958443642
245	0x3fe00aca40000000	0.5013171434402466
246	0x3fd2c103e0000000	0.293030709028244
247	0x3fd8398a20000000	0.3785119354724884
248	0xbfaa112f80000000	-0.050912365317344666
249	0x3fcfcdb6a0000000	0.2484653741121292
250	0xbfdc0854c0000000	-0.43800848722457886
251	0xbfe1ae1e20000000	-0.5525045990943909
252	0xbfd8d8ba80000000	-0.38822805881500244
253	0xbfe2d7c120000000	-0.588837206363678
254	0x3fc347b4c0000000	0.1506257951259613
255	0x3fb2e7b540000000	0.07384808361530304

conv2.conv2_a.weight f8 [32, 16, 3, 5]
0	0x3fb9020ec0000000	0.09768764674663544
1	0x3f961075e0000000	0.021547166630625725
2	0x3fbe9affe0000000	0.1195526048541069
3	0x3fb8899700000000	0.09584945440292358
4	0x3fc33ea320000000	0.15034903585910797
5	0x3fca92b840000000	0.20760253071784973
6	0x3fc1fdc5c0000000	0.14055702090263367
7	0xbfb2783180000000	-0.07214650511741638
8	0x3fc0ad2be0000000	0.13028477132320404
9	0x3fc4130840000000	0.1568308174610138
10	0x3fb66268e0000000	0.08743911236524582
11	0x3fbdb820a0000000	0.1160908117890358
12	0x3fb2797e40000000	0.0721663385629654
13	0xbfb1cbcc00000000	-0.06951594352722168
14	0x3fbf8770a0000000	0.12316039949655533
15	0xbfb331e980000000	-0.07498034834861755
16	0x3fbbfc36c0000000	0.10931722819805145
17	0xbfa5457e40000000	-0.0415458157658577
18	0xbfbf649f00000000	-0.12262910604476929
19	0xbfbbadd3c0000000	-0.10812114179134369
20	0xbfb6c43c20000000	-0.08893180638551712
21	0x3fb9bf5ec0000000	0.10057632625102997
22	0x3f846e3f00000000	0.009975902736186981
23	0xbfa744a500000000	-0.04544559121131897
24	0xbfb3f2a600000000	-0.07792127132415771
25	0x3fafa95780000000	0.06183885037899017
26	0xbf95167fc0000000	-0.020593639463186264
27	0x3fa1901880000000	0.0343024879693985
28	0xbfbcb0c700000000	-0.1120724081993103
29	0xbfc5baaa20000000	-0.16975905001163483
30	0xbfa7ebc5c0000000	-0.04672067612409592
31	0x3fb65cec20000000	0.08735538274049759
32	0x3fa01e22e0000000	0.03147992119193077
33	0x3fb68c4f40000000	0.08807845413684845
34	0x3fa51f17c0000000	0.04125284403562546
35	0xbfabd53da0000000	-0.05436127260327339
36	0x3fb1f61d80000000	0.07016167044639587
37	0x3fb57001a0000000	0.08374033123254776
38	0xbfb44536c0000000	-0.07918111979961395
39	0xbfb5c913a0000000	-0.08509943634271622
40	0x3fa9db28c0000000	0.05050017684698105
41	0x3f7a3739e0000000	0.006400323938578367
42	0xbfb028f540000000	-0.06312496960163116
43	0x3fa162ad20000000	0.03395596519112587
44	0x3f876962e0000000	0.011431477032601833
45	0xbfaac26f00000000	-0.052264660596847534
46	0x3fac65a620000000	0.055463019758462906
47	0x3fa41543c0000000	0.039224736392498016
48	0x3f9d7396a0000000	0.0287612471729517
49	0xbfb2170000000000	-0.0706634521484375
50	0x3fbd728860000000	0.11502888053655624
51	0x3fa047a720000000	0.031796667724847794
52	0xbfbaaf4820000000	-0.10423708707094193
53	0x3f8125e120000000	0.008373030461370945
54	0xbf429269e0000000	-0.0005667702644132078
55	0xbf9736f200000000	-0.02267053723335266
56	0x3faeb82400000000	0.05999863147735596
57	0xbf834598c0000000	-0.009410088881850243
58	0x3fa5a10660000000	0.04224414750933647
59	0x3f949e31e0000000	0.020134715363383293
60	0xbfb2ff96a0000000	-0.0742124691605568
61	0x3f8a732360000000	0.012914921157062054
62	0xbf926d8580000000	-0.017995916306972504
63	0xbfba27c900000000	-0.10216957330703735
64	0xbfb1110580000000	-0.06666597723960876
65	0xbfb2ea0b20000000	-0.07388371974229813
66	0x3f957fc420000000	0.02099520154297352
67	0x3fa69319c0000000	0.04409103840589523
68	0x3fac0d1fc0000000	0.05478762835264206
69	0xbfc5b1c780000000	-0.16948789358139038
70	0xbfc090b000000000	-0.12941551208496094
71	0xbfb4ebf740000000	-0.08172555267810822
72	0xbfb0282e80000000	-0.06311312317848206
73	0xbfb043e6c0000000	-0.06353609263896942
74	0xbfa992aaa0000000	-0.0499471016228199
75	0xbfb7907e40000000	-0.0920485407114029
76	0xbf6fa69820000000	-0.0038636180106550455
77	0xbf83023fe0000000	-0.009281634353101254
78	0xbfb7fc7b40000000	-0.09369631111621857
79	0x3fb84d07e0000000	0.0949253961443901
80	0x3fab0a2540000000	0.05281177908182144
81	0x3f8029eaa0000000	0.007892449386417866
82	0x3fa2d10c60000000	0.0367511622607708
83	0x3f9d204cc0000000	0.028443526476621628
84	0xbfa204fb60000000	-0.03519425913691521
85	0x3f8c700060000000	0.013885500840842724
86	0xbf851ac7a0000000	-0.010304984636604786
87	0xbfbb09e2e0000000	-0.10561960190534592
88	0x3fb5203ce0000000	0.0825231596827507
89	0xbfb7da6e20000000	-0.09317672997713089
90	0x3f7da3dea0000000	0.007236356381326914
91	0x3fa1509c80000000	0.033818140625953674
92	0x3f7d5ef720000000	0.007170644123107195
93	0x3fbb422100000000	0.10647779703140259
94	0x3fc19b87c0000000	0.13755890727043152
95	0x3fb5499da0000000	0.08315453678369522
96	0xbfad362a80000000	-0.05705387890338898
97	0xbfb3519ea0000000	-0.07546416670084
98	0x3fbd8a79e0000000	0.115394227206707
99	0xbfa0eddb40000000	-0.03306470066308975
100	0xbfc25b29e0000000	-0.14340709149837494
101	0x3fa34a4680000000	0.03767605125904083
102	0x3f5ef7c520000000	0.001890127663500607
103	0x3fbb92f820000000	0.1077113226056099
104	0xbf4c5e6200000000	-0.0008657434955239296
105	0x3f9b6c05a0000000	0.026779258623719215
106	0x3fba17d2e0000000	0.10192602127790451
107	0xbf97770860000000	-0.022915011271834373
108	0xbfb4ee3a80000000	-0.08176007866859436
109	0xbfca685f80000000	-0.2063102126121521
110	0xbf85878b80000000	-0.010512437671422958
111	0x3f950256a0000000	0.020516732707619667
112	0xbfb5173f40000000	-0.08238597214221954
113	0x3f9d42bbe0000000	0.028574882075190544
114	0xbfb930e780000000	-0.0984024703502655
115	0x3fa6fc5660000000	0.04489393159747124
116	0x3fac80fb60000000	0.05567155405879021
117	0xbfb8a11fc0000000	-0.09620855748653412
118	0xbfb232a5c0000000	-0.07108531892299652
119	0xbfc4dd8500000000	-0.16301023960113525
120	0x3fc00d6a60000000	0.12540940940380096
121	0x3fb4a0eb60000000	0.08058043569326401
122	0x3fb66f7240000000	0.08763803541660309
123	0xbfb17eb160000000	-0.06833942979574203
124	0x3fbe98c0e0000000	0.11951833218336105
125	0x3fbc288b20000000	0.10999364405870438
126	0x3fb87b5be0000000	0.09563230723142624
127	0x3f94aee5c0000000	0.020198430866003036
128	0xbfa41c1200000000	-0.03927665948867798
129	0x3fba5382a0000000	0.10283676534891129
130	0xbfb48d5b60000000	-0.08028193563222885
131	0xbf3929dbe0000000	-0.0003839647106360644
132	0xbfa7d079e0000000	-0.046512421220541
133	0x3fa6ff7000000000	0.04491758346557617
134	0x3fba471b60000000	0.10264750570058823
135	0xbf93bee5a0000000	-0.019282901659607887
136	0xbfc24ef1a0000000	-0.1430341750383377
137	0x3fabf9fda0000000	0.05464165285229683
138	0xbf918abb40000000	-0.017130780965089798
139	0x3f8c313380000000	0.013765718787908554
140	0xbf84ec1b60000000	-0.01021596323698759
141	0x3fa6412fe0000000	0.04346608743071556
142	0xbfb2ea2e40000000	-0.07388581335544586
143	0xbfa3e4c2e0000000	-0.0388546846807003
144	0x3fae50ae20000000	0.05920929089188576
145	0xbfc8a14540000000	-0.1924215853214264
146	0xbf83749b40000000	-0.009499752894043922
147	0xbfb6068060000000	-0.08603670448064804
148	0x3f734c8a20000000	0.00471166567876935
149	0x3f81aef340000000	0.008634472265839577
150	0xbf69df4080000000	-0.0031582126393914223
151	0xbfc0707ae0000000	-0.12843261659145355
152	0x3fb404e000000000	0.07819938659667969
153	0x3fc2101ae0000000	0.14111648499965668
154	0x3fc5130240000000	0.1646426022052765
155	0x3fa9c7bf60000000	0.050352077931165695
156	0x3fa19576e0000000	0.03434344753623009
157	0x3f8c75fba0000000	0.013896909542381763
158	0x3fb8e5f0a0000000	0.09725860506296158
159	0xbfa12c1560000000	-0.03353945538401604
160	0x3fad8dfc60000000	0.057723890990018845
161	0xbfc11fd060000000	-0.13378338515758514
162	0xbf83452540000000	-0.009409228339791298
163	0x3fb3253be0000000	0.07478689402341843
164	0x3fb938dfa0000000	0.0985240712761879
165	0x3fa22fbe00000000	0.03552049398422241
166	0x3fb08bcfe0000000	0.06463336199522018
167	0xbfbb7d6f00000000	-0.10738271474838257
168	0xbf89f768a0000000	-0.01267892587929964
169	0xbfc3559940000000	-0.15104976296424866
170	0x3f9380fbe0000000	0.0190467219799757
171	0x3f83c81aa0000000	0.009659011848270893
172	0xbfc0820000000000	-0.12896728515625
173	0x3fa1b34d00000000	0.0345710813999176
174	0xbfcde258a0000000	-0.23347003757953644
175	0xbf95aa8c80000000	-0.021158404648303986
176	0xbfb115c5e0000000	-0.06673847883939743
177	0xbfa729d0c0000000	-0.04524090141057968
178	0x3f78c2e380000000	0.006045235320925713
179	0xbfab9113a0000000	-0.05384122207760811
180	0x3fb7c1d440000000	0.09280134737491608
181	0xbf9ead4820000000	-0.02995789237320423
182	0x3fbb693360000000	0.10707398504018784
183	0x3fbb4bf5a0000000	0.10662779957056046
184	0x3fc43eaf20000000	0.15816296637058258
185	0x3fc16e2220000000	0.13617350161075592
186	0x3fb318cb60000000	0.0745970830321312
187	0xbf56ad3f40000000	-0.0013840787578374147
188	0xbfaa4c4a60000000	-0.051363300532102585
189	0x3fc409d400000000	0.15654993057250977
190	0x3fc23c7cc0000000	0.14247092604637146
191	0xbf6a25d6a0000000	-0.0031918708700686693
192	0x3f8ade7920000000	0.013119646348059177
193	0xbf92ac9660000000	-0.018236493691802025
194	0x3faf13d580000000	0.06069819629192352
195	0x3f95b30120000000	0.021190660074353218
196	0x3fc3bd0e60000000	0.1542070358991623
197	0x3fbaa74be0000000	0.10411524027585983
198	0xbfb0a60380000000	-0.06503316760063171
199	0xbfb6f984c0000000	-0.08974485099315643
200	0x3fc487a020000000	0.16038896143436432
201	0x3fb35a25a0000000	0.07559428364038467
202	0x3fb7debec0000000	0.0932425707578659
203	0xbf9d7627a0000000	-0.028771037235856056
204	0xbfb5f8dc80000000	-0.08582857251167297
205	0x3fa90709e0000000	0.04888182505965233
206	0x3fa1fba100000000	0.03512290120124817
207	0xbf8b3e9180000000	-0.013302933424711227
208	0xbfa54a1540000000	-0.04158083349466324
209	0x3fa5621fa0000000	0.04176424816250801
210	0x3fb604f5c0000000	0.08601318299770355
211	0xbfb852e8c0000000	-0.09501509368419647
212	0x3f97112000000000	0.022526264190673828
213	0xbfbae046a0000000	-0.10498467832803726
214	0xbfc4eb4d60000000	-0.163430854678154
215	0x3fb31880a0000000	0.07459262758493423
216	0xbfbbd81540000000	-0.10876591503620148
217	0xbfb84bcca0000000	-0.09490660578012466
218	0xbfbdc463a0000000	-0.11627791076898575
219	0xbfc3134c20000000	-0.14902640879154205
220	0xbfb2982500000000	-0.07263404130935669
221	0x3f96717740000000	0.02191721275448799
222	0x3fb6551240000000	0.08723558485507965
223	0xbfa8d57c80000000	-0.04850377142429352
224	0xbfab7463a0000000	-0.053622353821992874
225	0x3fbc791b20000000	0.11122293025255203
226	0x3f9749df00000000	0.022742733359336853
227	0x3fa14e2240000000	0.03379923850297928
228	0xbf80d34b00000000	-0.008215509355068207
229	0x3fc0cdce40000000	0.13128069043159485
230	0xbf9798c000000000	-0.02304363250732422
231	0xbf9bbd0720000000	-0.02708827145397663
232	0x3fb3461080000000	0.0752878487110138
233	0x3fc0a21020000000	0.129945769906044
234	0x3fbe1be700000000	0.11761325597763062
235	0x3f90922de0000000	0.016182629391551018
236	0xbfb97911e0000000	-0.09950362890958786
237	0x3faf0deea0000000	0.060653168708086014
238	0xbf322c91a0000000	-0.0002773147134575993
239	0xbf203d1600000000	-0.0001238908153027296
240	0x3fb7816100000000	0.09181791543960571
241	0x3fa6d48b40000000	0.04459033161401749
242	0x3f97c234c0000000	0.023201774805784225
243	0x3f93fa8a00000000	0.019510418176651
244	0x3f97085a60000000	0.022492801770567894
245	0x3fb201ab40000000	0.07033796608448029
246	0x3fb1181f20000000	0.06677431613206863
247	0xbf6baef2a0000000	-0.003379320027306676
248	0x3f91879860000000	0.017118817195296288
249	0xbfbbb03820000000	-0.10815764218568802
250	0x3fb6e16d00000000	0.08937722444534302
251	0xbfb76afbe0000000	-0.0914761945605278
252	0x3fa0339680000000	0.0316435843706131
253	0xbfb04125e0000000	-0.06349407881498337
254	0x3f90777920000000	0.01608075387775898
255	0x3f935d0bc0000000	0.018909629434347153

conv3.conv3_a.weight f8 [64, 32, 3, 3]
0	0x3fa3368080000000	0.03752519190311432
1	0xbfba4f1760000000	-0.10276933759450912
2	0x3fb46ffa20000000	0.07983363419771194
3	0x3fb16f3480000000	0.06810310482978821
4	0xbf824130e0000000	-0.008913404308259487
5	0x3fb7a3a440000000	0.09234072268009186
6	0xbfb534eba0000000	-0.0828387513756752
7	0x3fafd00c60000000	0.06213415786623955
8	0xbfb10a0100000000	-0.06655889749526978
9	0xbfa8480f00000000	-0.047424763441085815
10	0x3fb63ff2e0000000	0.08691328018903732
11	0x3fb4cf2280000000	0.08128562569618225
12	0x3fac1781c0000000	0.05486684292554855
13	0xbf68a68260000000	-0.0030090853106230497
14	0xbfaee9b100000000	-0.06037667393684387
15	0xbfb4e4a500000000	-0.08161383867263794
16	0xbf96d415c0000000	-0.022293414920568466
17	0xbf907373e0000000	-0.016065416857600212
18	0xbf7d4c59a0000000	-0.007152891252189875
19	0x3f8c721740000000	0.013889485970139503
20	0x3fa1f70680000000	0.03508777916431427
21	0x3face39300000000	0.05642375349998474
22	0x3f9965e900000000	0.02480281889438629
23	0xbfb40fa500000000	-0.07836371660232544
24	0x3f90140820000000	0.0157014150172472
25	0xbfb5d2c400000000	-0.08524727821350098
26	0x3f9cc68580000000	0.02810104936361313
27	0x3fb0d107a0000000	0.06568954139947891
28	0x3fa322a9a0000000	0.03737382963299751
29	0xbfb33e5e40000000	-0.07517041265964508
30	0x3fb6e48240000000	0.089424267411232
31	0x3f74971da0000000	0.005026927683502436
32	0x3fba9c30c0000000	0.1039457768201828
33	0xbf9aa53820000000	-0.02602088637650013
34	0xbfaa222a00000000	-0.05104190111160278
35	0xbf74cf3600000000	-0.005080424249172211
36	0x3fa64c8c20000000	0.043552760034799576
37	0x3fb0df26c0000000	0.06590501964092255
38	0xbfb2e9b640000000	-0.07387866079807281
39	0xbfae217060000000	-0.05884886905550957
40	0xbfb72c21a0000000	-0.09051714092493057
41	0xbfbb36fa00000000	-0.10630762577056885
42	0x3f9ce21fa0000000	0.028206342831254005
43	0x3f940fdf20000000	0.019591795280575752
44	0x3f9abe0fe0000000	0.026115654036402702
45	0xbfa2db0a00000000	-0.03682738542556763
46	0xbf7e192bc0000000	-0.007348223589360714
47	0x3f927e7020000000	0.01806044764816761
48	0xbf58cf8240000000	-0.001514317700639367
49	0x3f9d0a0f00000000	0.028358682990074158
50	0xbfb47490c0000000	-0.07990364730358124
51	0x3fac5f3400000000	0.05541384220123291
52	0x3fb39f6200000000	0.07665073871612549
53	0x3fa01d13e0000000	0.031471844762563705
54	0x3fb8086f20000000	0.09387869387865067
55	0x3fa8ba52a0000000	0.04829652979969978
56	0xbfaa1d5b40000000	-0.05100522190332413
57	0x3f8c6a3420000000	0.01387444231659174
58	0x3f917c25e0000000	0.017075149342417717
59	0x3f92cf0fe0000000	0.018368003889918327
60	0xbfb22ca620000000	-0.07099378854036331
61	0x3f958fde80000000	0.021056629717350006
62	0x3fb7747dc0000000	0.0916212648153305
63	0xbfb93228c0000000	-0.0984216183423996
64	0xbf82788e20000000	-0.009019003249704838
65	0xbfa67edb20000000	-0.043936584144830704
66	0xbfa0001520000000	-0.03125062957406044
67	0x3fb968e0e0000000	0.09925656765699387
68	0x3fb81b8000000000	0.09416961669921875
69	0x3f9cdea140000000	0.028193015605211258
70	0xbfb7ab54e0000000	-0.09245806187391281
71	0xbfb2602880000000	-0.0717797577381134
72	0xbfb29f5d60000000	-0.0727442130446434
73	0x3fb528c700000000	0.0826534628868103
74	0x3faadca9e0000000	0.05246477946639061
75	0xbfb5636aa0000000	-0.08354822546243668
76	0x3fa4ea6880000000	0.040850892663002014
77	0x3f9adac1a0000000	0.02622511424124241
78	0x3fa60a2040000000	0.0430460050702095
79	0xbfb933bbe0000000	-0.09844564646482468
80	0xbfb4caa9a0000000	-0.08121738582849503
81	0xbfb85a6ec0000000	-0.09512989223003387
82	0x3f91706360000000	0.01703028939664364
83	0x3fa92617e0000000	0.049118753522634506
84	0x3fb3c4d280000000	0.07722201943397522
85	0xbfa40443e0000000	-0.039095040410757065
86	0x3fb57ea120000000	0.08396346122026443
87	0x3fac64fa80000000	0.05545790493488312
88	0x3f7e31ffa0000000	0.007371901068836451
89	0xbfab6e3340000000	-0.05357513576745987
90	0xbfb643f300000000	-0.08697432279586792
91	0x3f8ad68d00000000	0.013104535639286041
92	0x3faf9144c0000000	0.061655186116695404
93	0x3fb1a77d40000000	0.06896193325519562
94	0xbfb86bd3a0000000	-0.09539530426263809
95	0x3fa9f5e700000000	0.05070421099662781
96	0xbf7d01cde0000000	-0.007081798743456602
97	0xbfb88749c0000000	-0.09581433236598969
98	0x3fab8e9820000000	0.05382228270173073
99	0x3f72fcf9a0000000	0.0046357871033251286
100	0xbf75f11e20000000	-0.005356900859624147
101	0xbf9541d740000000	-0.0207589752972126
102	0xbfab862fc0000000	-0.05375813692808151
103	0x3f92dd5ce0000000	0.018422557041049004
104	0xbfa636dc20000000	-0.04338729754090309
105	0xbfa8c71e40000000	-0.04839415103197098
106	0xbfafe44d00000000	-0.06228867173194885
107	0xbfa3846140000000	-0.0381193533539772
108	0xbfa0fa0d20000000	-0.03315773978829384
109	0xbfb9353360000000	-0.09846802800893784
110	0xbfb81029a0000000	-0.09399662166833878
111	0xbf94db1380000000	-0.020366959273815155
112	0xbf5c6d7ca0000000	-0.0017350880661979318
113	0xbf8f0cd4e0000000	-0.01516119297593832
114	0x3fa1802bc0000000	0.03418099135160446
115	0xbf6a466f40000000	-0.0032074139453470707
116	0xbfb3148440000000	-0.07453180849552155
117	0xbf9f342d40000000	-0.03047247603535652
118	0x3f66674560000000	0.0027347903233021498
119	0x3f643f3180000000	0.002471539191901684
120	0xbfb2af7a40000000	-0.07299007475376129
121	0xbfb66bf140000000	-0.08758457005023956
122	0x3fb4c50b80000000	0.08113166689872742
123	0x3f94103c00000000	0.01959317922592163
124	0xbf8e303560000000	-0.01474038790911436
125	0x3fb0dd80e0000000	0.06587987393140793
126	0xbfb93e86a0000000	-0.09861031919717789
127	0xbfab7f4a00000000	-0.05370551347732544
128	0xbfb93c83e0000000	-0.09857963770627975
129	0x3fa68421a0000000	0.043976832181215286
130	0xbf5b3b6840000000	-0.0016621130052953959
131	0xbf8e7d2c40000000	-0.014887185767292976
132	0xbf917afa40000000	-0.01707068458199501
133	0xbf4aacbb60000000	-0.0008140482823364437
134	0xbfb90cedc0000000	-0.09785352647304535
135	0x3f93f66b20000000	0.01949469931423664
136	0xbf9dbd9980000000	-0.02904357761144638
137	0xbfa46c4a80000000	-0.03988869488239288
138	0x3fa3e2ca60000000	0.03883964940905571
139	0x3fb40351a0000000	0.07817564159631729
140	0xbfb330c1e0000000	-0.07496272772550583
141	0xbfb28024c0000000	-0.0722678154706955
142	0xbf5fe9cba0000000	-0.0019478310132399201
143	0x3fb028c9e0000000	0.06312238425016403
144	0x3fb9337c80000000	0.09844186902046204
145	0xbfb2130780000000	-0.07060286402702332
146	0xbf5f8dfde0000000	-0.0019259433029219508
147	0xbfb2195180000000	-0.0706988275051117
148	0xbfa08d2860000000	-0.03232694789767265
149	0xbfa7e782a0000000	-0.04668815806508064
150	0xbfae9250c0000000	-0.059710048139095306
151	0x3fb582fe40000000	0.08403004705905914
152	0x3fb560d360000000	0.0835086926817894
153	0xbfb6fef360000000	-0.08982773870229721
154	0xbfb98a8600000000	-0.0997699499130249
155	0x3fa0aa4140000000	0.0325489416718483
156	0xbfb5936b00000000	-0.08428066968917847
157	0xbf401ecf80000000	-0.0004919541534036398
158	0x3fb69ab340000000	0.08829803764820099
159	0xbf928e82a0000000	-0.018121758475899696
160	0xbf9099f040000000	-0.016212228685617447
161	0x3fb791bf80000000	0.09206768870353699
162	0x3fa20b99e0000000	0.03524475917220116
163	0xbf87108280000000	-0.011261958628892899
164	0xbfaa6b3f60000000	-0.05159948393702507
165	0xbfb30f12c0000000	-0.07444874942302704
166	0xbf2edbfdc0000000	-0.00023543808492831886
167	0xbfa3163880000000	-0.037278905510902405
168	0xbf88e9bbc0000000	-0.012164561077952385
169	0x3fb1690980000000	0.06800898909568787
170	0x3fb00fc160000000	0.06274040788412094
171	0xbfb2242e80000000	-0.07086458802223206
172	0x3fb9562ec0000000	0.09897129237651825
173	0xbfae3a0bc0000000	-0.059036605060100555
174	0x3fb5f12ea0000000	0.08571139723062515
175	0x3fb7afe0e0000000	0.09252744168043137
176	0xbf936afee0000000	-0.018962843343615532
177	0x3f981e68e0000000	0.023553503677248955
178	0x3fbb023440000000	0.10550238192081451
179	0x3fba8b5fa0000000	0.10368917137384415
180	0x3fadad8a80000000	0.057964637875556946
181	0x3f8a2a7c60000000	0.012776347808539867
182	0x3fa359b660000000	0.037793826311826706
183	0xbfb0c09100000000	-0.06543833017349243
184	0xbf92d66760000000	-0.018396010622382164
185	0xbf75d841c0000000	-0.005333191715180874
186	0x3f907312a0000000	0.01606396771967411
187	0xbf9203eb20000000	-0.01759307272732258
188	0x3fb5f543e0000000	0.08577369898557663
189	0x3f595da960000000	0.0015482095768675208
190	0x3fb08a0b60000000	0.06460639089345932
191	0xbfb945c280000000	-0.09872069954872131
192	0xbf958a9a00000000	-0.021036535501480103
193	0x3f8d8324c0000000	0.014410292729735374
194	0xbfba173240000000	-0.10191644728183746
195	0x3f9f2fa600000000	0.030455201864242554
196	0xbfaaeabe20000000	-0.05257219448685646
197	0xbfa3cff0a0000000	-0.03869583085179329
198	0x3fa3ca31c0000000	0.03865199536085129
199	0xbfb2b63740000000	-0.07309289276599884
200	0xbfb682e5c0000000	-0.08793483674526215
201	0x3fb6e60260000000	0.08944716304540634
202	0xbfb1ff8080000000	-0.07030490040779114
203	0xbfa397d180000000	-0.03826765716075897
204	0xbfb2205fc0000000	-0.07080648839473724
205	0x3fab62aa00000000	0.05348712205886841
206	0xbf6a9eade0000000	-0.0032494922634214163
207	0x3fb21783e0000000	0.07067131251096725
208	0xbfb34e5ee0000000	-0.07541459053754807
209	0x3fad632600000000	0.05739706754684448
210	0x3fb75b1320000000	0.09123343974351883
211	0xbfb6c4c800000000	-0.08894014358520508
212	0xbf8ff07e40000000	-0.015595423057675362
213	0x3fa5ef5000000000	0.042841434478759766
214	0xbfa67ddf20000000	-0.043929073959589005
215	0xbfb0fa3380000000	-0.06631776690483093
216	0xbfb39923a0000000	-0.07655546814203262
217	0x3fb79649e0000000	0.09213697165250778
218	0xbfa248ce40000000	-0.03571171313524246
219	0xbfb7f08a60000000	-0.0935141071677208
220	0x3fb08859c0000000	0.06458054482936859
221	0xbfb3b1a9e0000000	-0.07692968100309372
222	0x3f90182540000000	0.01571710780262947
223	0x3fa8c343e0000000	0.048364754766225815
224	0x3fb4635ac0000000	0.07964102923870087
225	0x3fb310e380000000	0.0744764506816864
226	0xbfb4de44e0000000	-0.0815165564417839
227	0x3fb5f413a0000000	0.08575556427240372
228	0xbf6f27f4c0000000	-0.003803232219070196
229	0x3fb49c7720000000	0.08051247149705887
230	0x3fa96e3b80000000	0.04966913163661957
231	0xbfb2156180000000	-0.0706387460231781
232	0x3fb59b4c20000000	0.08440089970827103
233	0xbfa597f980000000	-0.04217509925365448
234	0x3fa8aff0c0000000	0.04821731895208359
235	0x3fa01210a0000000	0.031387824565172195
236	0xbfa8c526c0000000	-0.04837914556264877
237	0x3facf22220000000	0.05653483048081398
238	0xbfb2ae37c0000000	-0.07297085225582123
239	0xbfb3058900000000	-0.07430320978164673
240	0x3f99310b00000000	0.024601146578788757
241	0x3fa3c57260000000	0.03861577436327934
242	0x3fb318afc0000000	0.07459543645381927
243	0xbfb557b700000000	-0.0833696722984314
244	0xbf8f0b5c60000000	-0.015158387832343578
245	0xbf31bdfc80000000	-0.00027072348166257143
246	0xbf94d1ec40000000	-0.02033204212784767
247	0xbfb73cf060000000	-0.09077360481023788
248	0x3f6a8b8d40000000	0.0032403715886175632
249	0x3fb66407a0000000	0.08746383339166641
250	0xbfb44c2c00000000	-0.07928729057312012
251	0xbfb2462580000000	-0.07138285040855408
252	0x3fba30b2e0000000	0.1023055836558342
253	0xbfa05d7060000000	-0.03196288272738457
254	0x3fb8d66700000000	0.09702152013778687
255	0xbfadc0f100000000	-0.058112651109695435

fuse_a.weight f8 [1, 112, 3, 3]
0	0xbf74d3cf80000000	-0.00508481077849865
1	0x3f7ce68f40000000	0.007055816240608692
2	0x3f86402fa0000000	0.010864612646400928
3	0xbf60577120000000	-0.0019948205444961786
4	0x3f82fc7ae0000000	0.009270629845559597
5	0x3f89d63a20000000	0.012615636922419071
6	0xbf69ed4640000000	-0.003164899069815874
7	0x3f81084d00000000	0.008316613733768463
8	0x3f8926e1c0000000	0.01228119246661663
9	0x3f6ee6c440000000	0.0037721474654972553
10	0xbf72cb7500000000	-0.004588562995195389
11	0xbf76d2fa40000000	-0.005572297610342503
12	0x3f68d90080000000	0.0030331620946526527
13	0xbf72313300000000	-0.004441451281309128
14	0xbf73e6a940000000	-0.004858647473156452
15	0x3f72ec0300000000	0.00461960956454277
16	0xbf642c8040000000	-0.0024626259692013264
17	0xbf653b51c0000000	-0.002591762226074934
18	0xbf3af23de0000000	-0.0004111672460567206
19	0xbf3a97d200000000	-0.0004057777114212513
20	0xbf3f8f0380000000	-0.00048154674004763365
21	0xbf4408f800000000	-0.0006114207208156586
22	0xbf46fd5180000000	-0.0007015846204012632
23	0xbf4b76aea0000000	-0.0008381226216442883
24	0x3f71b15940000000	0.004319523461163044
25	0x3f709b5ae0000000	0.0040544080547988415
26	0x3f7139e6e0000000	0.004205610137432814
27	0xbf84fff640000000	-0.01025383360683918
28	0xbf8b663060000000	-0.013378503732383251
29	0xbf8b8f5a40000000	-0.01345701701939106
30	0xbf774296a0000000	-0.005678738001734018
31	0xbf82864420000000	-0.00904515478760004
32	0xbf834f5340000000	-0.009428644552826881
33	0xbf7df99480000000	-0.007318096235394478
34	0xbf85879f40000000	-0.010512584820389748
35	0xbf85b8bda0000000	-0.010606271214783192
36	0x3f78d65e20000000	0.00606381194666028
37	0xbf7cb831a0000000	-0.007011598441749811
38	0xbf872dfe00000000	-0.011318191885948181
39	0x3f6084ac80000000	0.002016388811171055
40	0xbf850bd4c0000000	-0.010276472195982933
41	0xbf8c1d3b00000000	-0.013727627694606781
42	0x3f7e409480000000	0.007385807111859322
43	0xbf75620940000000	-0.005220447666943073
44	0xbf832a4d60000000	-0.009358028881251812
45	0x3f5617cac0000000	0.0013484458904713392
46	0x3f636b18a0000000	0.002370403381064534
47	0x3f51b30600000000	0.0010802801698446274
48	0x3f6c218fa0000000	0.0034339718986302614
49	0x3f71968160000000	0.004293923731893301
50	0x3f671260c0000000	0.0028163804672658443
51	0x3f81eb5440000000	0.008749635890126228
52	0x3f83657d40000000	0.009470919147133827
53	0x3f80587840000000	0.00798124261200428
54	0x3f795ff880000000	0.0061950404196977615
55	0x3f87c93840000000	0.01161426492035389
56	0x3f88b19800000000	0.012057483196258545
57	0x3f62f6a6c0000000	0.002314878161996603
58	0x3f802fad60000000	0.00790343713015318
59	0x3f808d6b20000000	0.008082234300673008
60	0x3f5dc8fb60000000	0.0018179373582825065
61	0x3f7ecad3c0000000	0.007517649792134762
62	0x3f7fe6d9a0000000	0.00778851518407464
63	0x3f741d16a0000000	0.004910553339868784
64	0xbf7547ec00000000	-0.005195543169975281
65	0xbf7d665b60000000	-0.0071776933036744595
66	0x3f71e3fc00000000	0.004367813467979431
67	0xbf73cde3a0000000	-0.004835023079067469
68	0xbf780a6b20000000	-0.005869310814887285
69	0x3f6a812220000000	0.0032354036811739206
70	0xbf77f88c80000000	-0.005852269008755684
71	0xbf7aad3c60000000	-0.006512866821140051
72	0xbf12d56dc0000000	-7.18448864063248e-05
73	0x3f79d30540000000	0.006304760463535786
74	0x3f7bf267e0000000	0.006822973024100065
75	0x3f4ef1e860000000	0.0009443649905733764
76	0x3f7adf5020000000	0.006560624111443758
77	0x3f7aa6fde0000000	0.0065069119445979595
78	0x3f748d1da0000000	0.005017390940338373
79	0x3f85d81e40000000	0.010666118934750557
80	0x3f85ef8a40000000	0.010710792616009712
81	0x3f77218b80000000	0.005647225305438042
82	0xbf6a11ede0000000	-0.0031823774334043264
83	0xbf7aa98080000000	-0.006509305909276009
84	0xbef3ddca80000000	-1.8946047930512577e-05
85	0xbf809ea2e0000000	-0.008115074597299099
86	0xbf863d7480000000	-0.010859403759241104
87	0x3f7cc18580000000	0.007020493969321251
88	0xbf55986960000000	-0.0013180760433897376
89	0xbf728bbee0000000	-0.004527803044766188
90	0x3f702ab060000000	0.003946961369365454
91	0x3f835d5860000000	0.009455385617911816
92	0x3f81fd6ce0000000	0.008784151636064053
93	0x3f6ae61320000000	0.003283536294475198
94	0x3f81a67140000000	0.008618244901299477
95	0x3f7e01e1e0000000	0.007326013874262571
96	0x3f5f910ea0000000	0.0019266741583123803
97	0x3f8006c660000000	0.00782542210072279
98	0x3f7b83e300000000	0.00671757385134697
99	0x3f8a8a2500000000	0.012958802282810211
100	0x3f409d5ca0000000	0.0005070402403362095
101	0xbf70980460000000	-0.004051224794238806
102	0x3f812f86a0000000	0.008391429670155048
103	0xbf674dfd40000000	-0.0028448053635656834
104	0xbf77b15880000000	-0.00578436441719532
105	0x3f8dfab880000000	0.014638368040323257
106	0x3f6d62f220000000	0.003587220096960664
107	0x3f52151de0000000	0.0011036674259230494
108	0xbf74d89020000000	-0.005089343059808016
109	0x3f7f0638a0000000	0.007574292365461588
110	0x3f87b1b340000000	0.011569404974579811
111	0xbf630caf60000000	-0.002325384644791484
112	0x3f83290dc0000000	0.00935564748942852
113	0x3f88e28120000000	0.012150772847235203
114	0xbf72c411c0000000	-0.004581517539918423
115	0x3f7de40e20000000	0.007297568488866091
116	0x3f851f1600000000	0.01031319797039032
117	0xbf82751be0000000	-0.009012429974973202
118	0xbf782a7000000000	-0.00589984655380249
119	0xbf6814b180000000	-0.002939554862678051
120	0xbf73e72f60000000	-0.004859147127717733
121	0xbf6200fde0000000	-0.002197738504037261
122	0x3f31a7ebe0000000	0.0002694083086680621
123	0xbf85973900000000	-0.010542340576648712
124	0xbf80779060000000	-0.008040550164878368
125	0xbf784a88a0000000	-0.00593045586720109
126	0xbed16e61e0000000	-4.155917395110009e-06
127	0xbf74fb13e0000000	-0.005122258793562651
128	0xbf7cd92360000000	-0.007043016608804464
129	0x3f61171ae0000000	0.0020862126257270575
130	0xbf689a7000000000	-0.003003329038619995
131	0xbf72c54720000000	-0.004582670051604509
132	0x3f461aca40000000	0.0006745803402736783
133	0xbf73bae900000000	-0.004816923290491104
134	0xbf7b4a2bc0000000	-0.00666253175586462
135	0xbf6341c0e0000000	-0.002350689610466361
136	0x3f816478e0000000	0.008492416702210903
137	0x3f8b3ca940000000	0.01329929567873478
138	0xbf4966fae0000000	-0.000775215623434633
139	0x3f8331f8e0000000	0.009372658096253872
140	0x3f8b5b9820000000	0.013358295895159245
141	0x3f8062bee0000000	0.008000842295587063
142	0x3f9285e7e0000000	0.01808893494307995
143	0x3f966b91e0000000	0.021894721314311028
144	0x3f71e2f020000000	0.004366815555840731
145	0xbf36450f60000000	-0.00033980965963564813
146	0xbf726033e0000000	-0.004486277233809233
147	0x3f800ee960000000	0.007840941660106182
148	0x3f6aba3a80000000	0.0032626288011670113
149	0xbf561a5740000000	-0.0013490535784512758
150	0x3f7cad6de0000000	0.007001332473009825
151	0x3f6e9c7d40000000	0.0037367292679846287
152	0xbea9bcfd40000000	-7.670593049624586e-07
153	0x3f7ecb85e0000000	0.007518313359469175
154	0x3f5564aba0000000	0.0013057399773970246
155	0xbf68a1e0c0000000	-0.0030068769119679928
156	0x3f815e2be0000000	0.008480398915708065
157	0x3f6e67b700000000	0.003711564466357231
158	0x3f4f2133e0000000	0.0009500029846094549
159	0x3f80a4de80000000	0.008126962929964066
160	0x3f7424c140000000	0.004917864687740803
161	0x3f6e268ce0000000	0.0036804915871471167
162	0xbf85100d60000000	-0.010284523479640484
163	0xbf673106c0000000	-0.0028309947811067104
164	0x3f68334a80000000	0.002954144962131977
165	0xbf86135460000000	-0.010779055766761303
166	0xbf748b0320000000	-0.0050153848715126514
167	0xbf2d517c00000000	-0.00022368086501955986
168	0xbf87c0aa60000000	-0.011597949080169201
169	0xbf7dbb5580000000	-0.007258733734488487
170	0xbf6a0278a0000000	-0.0031750064808875322
171	0xbf8b982080000000	-0.0134737528860569
172	0xbf50c2c080000000	-0.0010229949839413166
173	0x3f85c7dce0000000	0.010635114274919033
174	0xbf8936ba40000000	-0.012311415746808052
175	0xbf60be2cc0000000	-0.002043807413429022
176	0x3f80abef20000000	0.008140438236296177
177	0xbf8347f5c0000000	-0.009414596483111382
178	0xbf5c489560000000	-0.0017262896290048957
179	0x3f7bc0ffe0000000	0.006775855552405119
180	0x3f7fb59ac0000000	0.007741550914943218
181	0x3f61cba3c0000000	0.002172298263758421
182	0xbf720fd1e0000000	-0.0044096182100474834
183	0x3f8733b020000000	0.01132905576378107
184	0x3f7b93ba40000000	0.006732680834829807
185	0x3f4bf88200000000	0.0008535990491509438
186	0x3f82c94de0000000	0.009173019789159298
187	0x3f7af7de40000000	0.006584041751921177
188	0x3f62711e40000000	0.0022512045688927174
189	0xbf7ecd1840000000	-0.007519812323153019
190	0xbf832f5c20000000	-0.009367675520479679
191	0xbf75241bc0000000	-0.005161388777196407
192	0xbf65d32b80000000	-0.002664170227944851
193	0xbf7450e800000000	-0.004959970712661743
194	0xbf57deb8a0000000	-0.0014569094637408853
195	0xbf515514e0000000	-0.001057882676832378
196	0xbf7086c680000000	-0.004034781828522682
197	0xbf56aa2520000000	-0.0013833391712978482
198	0x3f8dd0ee80000000	0.014558661729097366
199	0x3f8a794900000000	0.012926645576953888
200	0x3f82500920000000	0.008941718377172947
201	0x3f9323d840000000	0.018691424280405045
202	0x3f925b0a80000000	0.01792541891336441
203	0x3f8db2c0e0000000	0.014501101337373257
204	0x3f91983c00000000	0.01718229055404663
205	0x3f92018e60000000	0.0175840612500906
206	0x3f8e65e420000000	0.014842779375612736
207	0xbf600b4a40000000	-0.0019585085101425648
208	0x3f75cf85c0000000	0.005324861966073513
209	0x3f89bb4c60000000	0.012564274482429028
210	0xbf69fd3b40000000	-0.0031725079752504826
211	0x3f66bb24c0000000	0.0027747838757932186
212	0x3f82eade60000000	0.009237038902938366
213	0xbf652884a0000000	-0.0025827970821410418
214	0x3f53fe9a40000000	0.0012203699443489313
215	0x3f790d2ae0000000	0.006116073112934828
216	0xbf8d012ae0000000	-0.014162383042275906
217	0xbf7f3fc460000000	-0.007629172410815954
218	0xbf623898a0000000	-0.0022242527920752764
219	0xbf93e36740000000	-0.01942216232419014
220	0xbf8d0f06e0000000	-0.014188817702233791
221	0xbf82f6b6c0000000	-0.009259631857275963
222	0xbf935013c0000000	-0.01886015757918358
223	0xbf8e7a18a0000000	-0.014881317503750324
224	0xbf85833d60000000	-0.010504226200282574
225	0x3f8f347160000000	0.015236745588481426
226	0x3f7de912a0000000	0.007302353624254465
227	0x3f710e5960000000	0.0041640750132501125
228	0x3f8ee4dc00000000	0.015084952116012573
229	0x3f7b3da400000000	0.006650581955909729
230	0x3f6bde7de0000000	0.003401990747079253
231	0x3f8f195fe0000000	0.015185116790235043
232	0x3f78e8fe80000000	0.0060815755277872086
233	0x3f6285f6c0000000	0.0022611445747315884
234	0x3f8f5a2160000000	0.015308628790080547
235	0x3f82483a00000000	0.008926823735237122
236	0x3f66eaabc0000000	0.0027974466793239117
237	0x3f95f56f40000000	0.02144407108426094
238	0x3f8f555200000000	0.01529945433139801
239	0x3f82dc7a20000000	0.00920958910137415
240	0x3f958e2260000000	0.02105001173913479
241	0x3f90493e00000000	0.015904396772384644
242	0x3f8579d9e0000000	0.010486318729817867
243	0xbf60233f20000000	-0.0019699318800121546
244	0x3f6a9011a0000000	0.003242525504902005
245	0x3f82ba93a0000000	0.009144929237663746
246	0xbf69652960000000	-0.003099995432421565
247	0x3f4f0ebb60000000	0.0009478011052124202
248	0x3f7999ac40000000	0.006250069476664066
249	0xbf60133300000000	-0.00196227990090847
250	0x3f390dc880000000	0.0003822912694886327
251	0x3f72a071c0000000	0.00454754289239645
252	0xbf41a13f00000000	-0.0005380208604037762
253	0xbf829fd640000000	-0.009093927219510078
254	0xbf854cbbc0000000	-0.010400263592600822
255	0xbf693daf60000000	-0.003081171540543437
