models/UniNet_WVU_FeatNet.pth (torch_old, 220792 bytes, 4 tensors)

conv1.conv1_a.weight f8 [16, 1, 3, 7]
0	0xbfe60fda60000000	-0.6894351840019226
1	0xbfe1d52f80000000	-0.5572736263275146
2	0x3fa31fdf00000000	0.037352532148361206
3	0x3fcdfcb800000000	0.23427486419677734
4	0xbfaf317a80000000	-0.06092436611652374
5	0x3fcb4ec5e0000000	0.21334145963191986
6	0x3fe90e56e0000000	0.7830004096031189
7	0xbfd46b5120000000	-0.3190501034259796
8	0xbfbb582e80000000	-0.10681429505348206
9	0xbfd6d01d60000000	-0.3564523160457611
10	0xbfd3173260000000	-0.29829081892967224
11	0x3fb22ae9a0000000	0.07096729427576065
12	0x3fdd92ede0000000	0.4620928466320038
13	0x3fdd243160000000	0.45533403754234314
14	0xbfe70f5200000000	-0.7206201553344727
15	0xbfcdc62580000000	-0.23260945081710815
16	0xbfc7e39e20000000	-0.18663384020328522
17	0xbfd9945420000000	-0.3996782600879669
18	0x3fd84e4bc0000000	0.37977880239486694
19	0x3fd7fd7ae0000000	0.3748461902141571
20	0x3fe17080a0000000	0.5449832081794739
21	0x3fb938a480000000	0.09852054715156555
22	0x3fd0181200000000	0.25146913528442383
23	0xbfb86b33a0000000	-0.09538576751947403
24	0x3fcade6940000000	0.20991244912147522
25	0xbfd69df1a0000000	-0.3533901274204254
26	0xbfd1c12ec0000000	-0.277415931224823
27	0xbfdd705020000000	-0.4599800407886505
28	0x3fc3d8e440000000	0.15505650639533997
29	0x3fcb78fe40000000	0.2146299183368683
30	0x3fd40b6e40000000	0.31319767236709595
31	0x3fc386a0a0000000	0.1525460034608841
32	0xbfd275b780000000	-0.28843486309051514
33	0xbfce1eb360000000	-0.23531191051006317
34	0x3fba60af40000000	0.10303778946399689
35	0xbfca2311e0000000	-0.20419524610042572
36	0x3fc2742c60000000	0.14417032897472382
37	0x3fc55415a0000000	0.16662855446338654
38	0xbfc08f9dc0000000	-0.12938281893730164
39	0x3fce777960000000	0.23802106082439423
40	0xbfd0943860000000	-0.25904664397239685
41	0xbfd0c13880000000	-0.26179325580596924
42	0x3fc6ef5fc0000000	0.1791801154613495
43	0xbfc3ef3060000000	-0.15573696792125702
44	0xbfd8121460000000	-0.3761034905910492
45	0xbfd32f6ea0000000	-0.2997700273990631
46	0xbfa6f7fe20000000	-0.04486078396439552
47	0xbfd4aacbe0000000	-0.32292458415031433
48	0x3fcbe73a40000000	0.21799400448799133
49	0xbfc7a36320000000	-0.18467368185520172
50	0x3fd2ad1d40000000	0.2918160557746887
51	0xbfcd782440000000	-0.23022893071174622
52	0x3fd14fa0e0000000	0.27048513293266296
53	0x3fbf4a6400000000	0.12222886085510254
54	0xbfd3f1c0a0000000	-0.31163039803504944
55	0x3fda33b6c0000000	0.4094063639640808
56	0xbfc4c0cac0000000	-0.16213354468345642
57	0xbfc6a5ba00000000	-0.17693257331848145
58	0x3fd38da620000000	0.30552056431770325
59	0x3fabb36d00000000	0.05410328507423401
60	0x3fd6084220000000	0.3442540466785431
61	0xbfcc287dc0000000	-0.219985693693161
62	0xbfbefd4620000000	-0.12105215340852737
63	0x3fd15f01a0000000	0.27142372727394104
64	0x3fd822c680000000	0.37712252140045166
65	0x3f9ea133e0000000	0.029911814257502556
66	0xbfd3a6e4a0000000	-0.3070613443851471
67	0xbfce7b1580000000	-0.23813122510910034
68	0xbfca04a400000000	-0.20326662063598633
69	0xbfd1ca9b20000000	-0.27799108624458313
70	0xbfa4f5a120000000	-0.04093650355935097
71	0xbfc464bd20000000	-0.1593243032693863
72	0xbf8e5e3980000000	-0.014828156679868698
73	0xbf91238f80000000	-0.016737215220928192
74	0x3f849f8300000000	0.010069869458675385
75	0x3fd1953180000000	0.2747310400009155
76	0xbfbb8dba80000000	-0.10763135552406311
77	0xbfd1c1e620000000	-0.27745965123176575
78	0xbfcdaa5b40000000	-0.2317613661289215
79	0xbfcf96ef20000000	-0.24679364264011383
80	0x3fdcbb9c20000000	0.44895079731941223
81	0x3fb21e8dc0000000	0.07077871263027191
82	0xbfd176d5e0000000	-0.27287814021110535
83	0x3fb56af7a0000000	0.0836634412407875
84	0x3fda834ba0000000	0.41426363587379456
85	0x3fdd5667c0000000	0.4583987593650818
86	0x3fb6d61ba0000000	0.08920452743768692
87	0xbfc1d5b680000000	-0.13933449983596802
88	0xbfc91c3840000000	-0.19617369771003723
89	0xbfe2b6c3e0000000	-0.584810197353363
90	0xbfd67b1620000000	-0.3512625992298126
91	0x3fe4174300000000	0.6278395652770996
92	0x3fd1392840000000	0.26911360025405884
93	0xbfc85ab100000000	-0.1902676820755005
94	0x3fd0b7db00000000	0.26122164726257324
95	0xbfba7e68e0000000	-0.10349135845899582
96	0xbfd2271860000000	-0.2836361825466156
97	0xbfe11cab60000000	-0.5347496867179871
98	0x3fe7945320000000	0.7368560433387756
99	0x3fe2f55ac0000000	0.5924504995346069
100	0x3fe09e67c0000000	0.5193365812301636
101	0xbfc1824580000000	-0.13678807020187378
102	0xbfdda24660000000	-0.4630294740200043
103	0x3f89b18420000000	0.012545616365969181
104	0xbfe1c115a0000000	-0.5548198819160461
105	0x3fd2ec2f40000000	0.29566556215286255
106	0xbfc6c326e0000000	-0.1778305619955063
107	0xbfd8b66380000000	-0.3861321210861206
108	0x3fd4caac80000000	0.324870228767395
109	0xbfc4fcde40000000	-0.16396692395210266
110	0xbfcf9b4400000000	-0.24692583084106445
111	0xbfc3c69920000000	-0.15449823439121246
112	0xbfcf076b40000000	-0.24241390824317932
113	0xbfc3280c60000000	-0.1496596783399582
114	0xbfd40a9ac0000000	-0.31314724683761597
115	0x3fc73e1120000000	0.18158163130283356
116	0x3fd7c7ece0000000	0.3715774714946747
117	0xbf88d5b540000000	-0.012126365676522255
118	0xbfd5785c60000000	-0.3354712426662445
119	0x3fc34d0b80000000	0.15078872442245483
120	0xbfa99885a0000000	-0.049991775304079056
121	0x3fd4cef260000000	0.32513102889060974
122	0x3fab1e6c20000000	0.05296647921204567
123	0x3fc871a500000000	0.19096815586090088
124	0x3fcf09ccc0000000	0.24248656630516052
125	0xbfa9e9dd20000000	-0.05061236396431923
126	0x3fa323d300000000	0.037382692098617554
127	0xbfc8b065c0000000	-0.1928832232952118
128	0xbfbcb8d6c0000000	-0.11219541728496552
129	0xbfa3d4b5a0000000	-0.038732219487428665
130	0x3fce2a92e0000000	0.23567424714565277
131	0x3fd1a47e00000000	0.2756648063659668
132	0x3fd3810600000000	0.3047499656677246
133	0xbfcb18ac60000000	-0.21169047057628632
134	0x3fa298f9c0000000	0.03632336109876633
135	0x3fa2203960000000	0.035402100533246994
136	0x3fada02960000000	0.05786256119608879
137	0x3fd10829e0000000	0.2661232650279999
138	0x3fb5b58900000000	0.08480125665664673
139	0x3f86365c00000000	0.010845869779586792
140	0xbfcabfb1c0000000	-0.20897504687309265
141	0xbf941ef3a0000000	-0.0196493212133646
142	0x3fd3bd7d80000000	0.30844056606292725
143	0x3fd2bb4100000000	0.2926790714263916
144	0xbfc6e061e0000000	-0.17872260510921478
145	0xbfca876f60000000	-0.20725814998149872
146	0xbfba8a59c0000000	-0.10367356240749359
147	0x3fc49d1bc0000000	0.16104456782341003
148	0x3fc67cd800000000	0.17568492889404297
149	0x3fcb90fcc0000000	0.21536216139793396
150	0xbfc830e3e0000000	-0.18899200856685638
151	0x3fbd78c260000000	0.11512389034032822
152	0xbfd9adc200000000	-0.4012303352355957
153	0xbfdd4ab8c0000000	-0.457685649394989
154	0x3fd839d6c0000000	0.37853020429611206
155	0x3fdf301860000000	0.4873104989528656
156	0xbfbd84f820000000	-0.1153101995587349
157	0xbfc87254c0000000	-0.19098910689353943
158	0x3fd2d77e40000000	0.2944026589393616
159	0xbfd3f52820000000	-0.31183817982673645
160	0xbfd4834640000000	-0.3205123543739319
161	0xbfc00cb0a0000000	-0.1253872662782669
162	0xbf92d32100000000	-0.018383517861366272
163	0x3fd0cccb00000000	0.2624995708465576
164	0x3fcfed83e0000000	0.2494358867406845
165	0xbfd420b3a0000000	-0.3144959509372711
166	0xbfc489e860000000	-0.16045860946178436
167	0xbfd130d2c0000000	-0.26860493421554565
168	0x3fb01c5da0000000	0.0629328265786171
169	0xbfd2b69c20000000	-0.29239562153816223
170	0xbfc3b49cc0000000	-0.15394935011863708
171	0x3fb40011c0000000	0.07812605798244476
172	0x3f98b126a0000000	0.024113276973366737
173	0x3fb21bc200000000	0.07073605060577393
174	0xbfc751ef60000000	-0.18218795955181122
175	0x3fad317660000000	0.05701799318194389
176	0xbfd5efc340000000	-0.3427589535713196
177	0x3fafbd3ec0000000	0.06199070066213608
178	0x3fd05de4e0000000	0.25573083758354187
179	0xbfb0215c60000000	-0.06300904601812363
180	0x3fd9e4c9a0000000	0.40458908677101135
181	0x3fcb3cab20000000	0.21278895437717438
182	0xbfab08edc0000000	-0.052802495658397675
183	0xbfdc3fc0a0000000	-0.44139114022254944
184	0xbfd024d6c0000000	-0.25224846601486206
185	0xbfbc187d60000000	-0.10974868386983871
186	0x3fcbe97f00000000	0.21806323528289795
187	0x3fb266aba0000000	0.07187912613153458
188	0x3fd7cf6580000000	0.3720334768295288
189	0x3fbd218c40000000	0.11379314959049225
190	0x3fdc7b1b80000000	0.4450138807296753
191	0xbfd2c45cc0000000	-0.29323500394821167
192	0x3fa6d3dca0000000	0.044585127383470535
193	0xbfd0e9b840000000	-0.26426512002944946
194	0xbfbb676a20000000	-0.10704673081636429
195	0xbfe119a3c0000000	-0.5343798398971558
196	0x3fe20ff400000000	0.5644474029541016
197	0x3fd682fd20000000	0.3517449200153351
198	0x3fd19a05a0000000	0.27502575516700745
199	0x3fc09fb280000000	0.12987357378005981
200	0xbf52e821c0000000	-0.0011539773549884558
201	0xbfd8bf9460000000	-0.3866930902004242
202	0xbfe051d040000000	-0.5099869966506958
203	0x3fe0fef220000000	0.5311213135719299
204	0x3fc46ab4a0000000	0.1595063954591751
205	0x3fad259380000000	0.056927308440208435
206	0xbfd36705e0000000	-0.3031630218029022
207	0xbfa65ff880000000	-0.04370094835758209
208	0x3fc32a6da0000000	0.149732306599617
209	0x3f92483bc0000000	0.017853673547506332
210	0x3fc826c760000000	0.1886834353208542
211	0x3fb1820fc0000000	0.06839083135128021
212	0xbfb55a30c0000000	-0.0834074467420578
213	0x3fd1d1efe0000000	0.278438538312912
214	0xbfc40fafc0000000	-0.15672871470451355
215	0x3fac9f7840000000	0.05590415745973587
216	0x3fc0e44b20000000	0.1319669634103775
217	0x3fbb5dacc0000000	0.10689811408519745
218	0xbfd86df280000000	-0.38171064853668213
219	0x3fd2e2fd20000000	0.2951042950153351
220	0x3fd1250ee0000000	0.26788684725761414
221	0xbfc94c4400000000	-0.19763994216918945
222	0x3f8fe39d20000000	0.01557085756212473
223	0x3fd4999140000000	0.3218730092048645
224	0xbfd9ff9ae0000000	-0.40622588992118835
225	0xbf96735e80000000	-0.021924473345279694
226	0xbfd791ed60000000	-0.36828169226646423
227	0x3fd285d540000000	0.2894185185432434
228	0x3fc1f494a0000000	0.14027650654315948
229	0x3fa966a820000000	0.04961133375763893
230	0x3fb634e4a0000000	0.08674458414316177
231	0x3fe4ec3cc0000000	0.6538375616073608
232	0xbfc93cd560000000	-0.1971689909696579
233	0x3fc0f61820000000	0.1325102001428604
234	0xbfd7563120000000	-0.36463573575019836
235	0xbfd8f602e0000000	-0.3900153338909149
236	0xbfd85618c0000000	-0.38025492429733276
237	0xbfe3346880000000	-0.6001474857330322
238	0x3fd7a61460000000	0.3695116937160492
239	0x3fdc89e5e0000000	0.44591662287712097
240	0xbfd0e3ed20000000	-0.26391151547431946
241	0x3fd2e44800000000	0.2951831817626953
242	0xbfc6108700000000	-0.17237937450408936
243	0xbfd9d12960000000	-0.4033912122249603
244	0x3fa131d160000000	0.033583205193281174
245	0x3fde3b0800000000	0.4723529815673828
246	0x3fd1af8440000000	0.2763376832008362
247	0x3fd7cf7da0000000	0.37203922867774963
248	0xbfa7842380000000	-0.04593001306056976
249	0x3fd147a900000000	0.26999878883361816
250	0xbfd921b740000000	-0.39268285036087036
251	0xbfde3a4380000000	-0.47230613231658936
252	0xbfd3573440000000	-0.30219751596450806
253	0xbfe0fab820000000	-0.5306053757667542
254	0x3fc788f1e0000000	0.1838667243719101
255	0x3fb6e9a3a0000000	0.08950255066156387

conv2.conv2_a.weight f8 [32, 16, 3, 5]
0	0x3fb4aca2a0000000	0.0807592049241066
1	0x3f9bb8d720000000	0.027072297409176826
2	0x3fc0698b60000000	0.12822096049785614
3	0x3fb6aeb040000000	0.08860303461551666
4	0x3fbcccd1e0000000	0.11250030249357224
5	0x3fc8154540000000	0.1881491243839264
6	0x3fc2980dc0000000	0.14526531100273132
7	0xbfb0295b20000000	-0.06313104182481766
8	0x3fbfb943e0000000	0.12392067164182663
9	0x3fbea2d5c0000000	0.11967216432094574
10	0x3fb19b0c80000000	0.06877210736274719
11	0x3fbf1ed8e0000000	0.12156444042921066
12	0x3fb5154c00000000	0.08235621452331543
13	0xbfb317b140000000	-0.07458026707172394
14	0x3fb6c05140000000	0.088872030377388
15	0xbfb2398520000000	-0.07119018584489822
16	0x3fbb3cf0e0000000	0.10639863461256027
17	0xbfa681f500000000	-0.043960243463516235
18	0xbfbe245a20000000	-0.11774218827486038
19	0xbfb6730800000000	-0.0876927375793457
20	0xbfb575c2c0000000	-0.08382813632488251
21	0x3fb93e1820000000	0.0986037328839302
22	0x3f7f85d000000000	0.007695972919464111
23	0xbfa4d1bc00000000	-0.04066264629364014
24	0xbfad77ab00000000	-0.057553619146347046
25	0x3fafb68720000000	0.06193945184350014
26	0xbf9c8433c0000000	-0.02784806117415428
27	0x3f9ab12ec0000000	0.026066523045301437
28	0xbfbd2ca520000000	-0.11396247893571854
29	0xbfc42cd7c0000000	-0.15761849284172058
30	0xbfa89c1260000000	-0.048065733164548874
31	0x3fb67f73a0000000	0.08788225799798965
32	0x3fa075f2e0000000	0.03214987739920616
33	0x3fb65d0380000000	0.08735677599906921
34	0x3fa4a0da00000000	0.04028970003128052
35	0xbfac1c95a0000000	-0.05490558221936226
36	0x3fb2798440000000	0.07216669619083405
37	0x3fb606afa0000000	0.08603952080011368
38	0xbfb4181e40000000	-0.07849301397800446
39	0xbfb599d680000000	-0.08437862992286682
40	0x3fa7728c20000000	0.045795802026987076
41	0x3f6f5bb9a0000000	0.0038279176224023104
42	0xbfb0b9bce0000000	-0.06533413380384445
43	0x3f9f095680000000	0.030309058725833893
44	0x3f7ddfb320000000	0.007293414790183306
45	0xbfaad7d080000000	-0.052427783608436584
46	0x3fad179680000000	0.0568205863237381
47	0x3fa53ed780000000	0.04149506986141205
48	0x3fa0c65280000000	0.032763078808784485
49	0xbfaee184c0000000	-0.06031432002782822
50	0x3fbdc81760000000	0.11633440107107162
51	0x3fa1886c60000000	0.034243952482938766
52	0xbfb9fff000000000	-0.1015615463256836
53	0x3f89a8c800000000	0.012528955936431885
54	0x3f845c3760000000	0.009941513650119305
55	0xbf9c955be0000000	-0.02791350893676281
56	0x3fac435640000000	0.05520123988389969
57	0xbf8dc18b40000000	-0.014529312029480934
58	0x3fa3723740000000	0.03798077255487442
59	0x3f9517e7c0000000	0.02059900388121605
60	0xbfaba91dc0000000	-0.054024629294872284
61	0x3f82145820000000	0.008827866055071354
62	0xbf9cd10ea0000000	-0.028141239657998085
63	0xbfb90bd600000000	-0.09783685207366943
64	0xbfa1ccb800000000	-0.034765005111694336
65	0xbfa9a38660000000	-0.0500757209956646
66	0x3f93d19fe0000000	0.01935434155166149
67	0x3fa246c920000000	0.035696301609277725
68	0x3faf0443a0000000	0.06057940796017647
69	0xbfc15f4800000000	-0.13572025299072266
70	0xbfbb669660000000	-0.1070341095328331
71	0xbfb5a807a0000000	-0.08459518104791641
72	0xbfb29f94e0000000	-0.07274752110242844
73	0xbfae47d440000000	-0.05914176255464554
74	0xbf92b01ce0000000	-0.018249941989779472
75	0xbfb8711d00000000	-0.09547597169876099
76	0xbf7aa727a0000000	-0.00650706747546792
77	0xbf8560ac40000000	-0.01043829508125782
78	0xbfb7f82100000000	-0.09362989664077759
79	0x3fb9595dc0000000	0.09901987016201019
80	0x3fab435f80000000	0.053248390555381775
81	0x3f838f0fe0000000	0.009550212882459164
82	0x3fa494dcc0000000	0.040198229253292084
83	0x3fa11824e0000000	0.033387329429388046
84	0xbf9a69d0e0000000	-0.02579428069293499
85	0x3f86a1a400000000	0.011050492525100708
86	0xbf88774620000000	-0.011946246959269047
87	0xbfbaf37ee0000000	-0.10527794808149338
88	0x3fb5a5e5a0000000	0.08456263691186905
89	0xbfb6610120000000	-0.08741766959428787
90	0x3f6e9baaa0000000	0.003736336948350072
91	0x3fa0546a40000000	0.03189403563737869
92	0x3f7ca121c0000000	0.006989604793488979
93	0x3fbab343c0000000	0.10429786145687103
94	0x3fc05179a0000000	0.1274864226579666
95	0x3fb3af0200000000	0.07688915729522705
96	0xbfaf6b1200000000	-0.06136375665664673
97	0xbfb3e86f00000000	-0.07776540517807007
98	0x3fbc6e7be0000000	0.11106085032224655
99	0xbfa7382300000000	-0.04535016417503357
100	0xbfc23434e0000000	-0.142218217253685
101	0x3fa5051ce0000000	0.041054632514715195
102	0x3f7f7d0120000000	0.007687572855502367
103	0x3fbcd2bce0000000	0.11259060353040695
104	0xbf67ba27a0000000	-0.0028963827062398195
105	0x3fa0eb6660000000	0.03304595872759819
106	0x3fb950e8a0000000	0.09889081865549088
107	0xbf9ae93ba0000000	-0.026280337944626808
108	0xbfb34ffd60000000	-0.07543929666280746
109	0xbfc6f8a220000000	-0.17946268618106842
110	0xbf671a75e0000000	-0.002820234512910247
111	0x3f927eb8e0000000	0.018061531707644463
112	0xbfb60dc400000000	-0.08614754676818848
113	0x3fa1749c00000000	0.03409278392791748
114	0xbfb298b9c0000000	-0.07264290750026703
115	0x3fa88d09a0000000	0.04795103147625923
116	0x3fa8a68d00000000	0.048145681619644165
117	0xbfbb15d1e0000000	-0.10580169409513474
118	0xbfb276a920000000	-0.07212311774492264
119	0xbfc2ad2880000000	-0.1459093689918518
120	0x3fbe651e60000000	0.11873044818639755
121	0x3fb51b6120000000	0.08244902640581131
122	0x3fb74c6020000000	0.09100914746522903
123	0xbfb22eaaa0000000	-0.0710245743393898
124	0x3fbb915ba0000000	0.10768673568964005
125	0x3fba649500000000	0.10309725999832153
126	0x3fb8efb0c0000000	0.09740738570690155
127	0x3f986a6f40000000	0.023843515664339066
128	0xbfa52c47c0000000	-0.04135345667600632
129	0x3fb783ac00000000	0.09185290336608887
130	0xbfb6b00800000000	-0.0886235237121582
131	0xbf09d88600000000	-4.929694114252925e-05
132	0xbfa6b1aa60000000	-0.044324230402708054
133	0x3fa5104c20000000	0.04113996401429176
134	0x3fb71c2100000000	0.09027296304702759
135	0xbf78ee1860000000	-0.0060864402912557125
136	0xbfc299a6c0000000	-0.1453140676021576
137	0x3fa8458e40000000	0.0474056676030159
138	0xbf90657860000000	-0.016012078151106834
139	0x3f9ebde500000000	0.030021265149116516
140	0x3f7670a260000000	0.005478510167449713
141	0x3fa5f192a0000000	0.042858678847551346
142	0xbfb461d680000000	-0.07961788773536682
143	0xbfa26e63a0000000	-0.035998452454805374
144	0x3fb3dee1a0000000	0.07761964946985245
145	0xbfc6677860000000	-0.17503266036510468
146	0xbf7f595b80000000	-0.0076535772532224655
147	0xbfb6bc5120000000	-0.0888109877705574
148	0x3f857c17e0000000	0.010490595363080502
149	0x3f9e741440000000	0.029739681631326675
150	0xbf7fde1640000000	-0.007780157960951328
151	0xbfc0a40780000000	-0.13000577688217163
152	0x3fb41befa0000000	0.0785512700676918
153	0x3fc1ab01a0000000	0.13803119957447052
154	0x3fc389d3e0000000	0.15264366567134857
155	0x3fa6af5000000000	0.044306278228759766
156	0x3f9fbe5a00000000	0.030999571084976196
157	0x3f890232e0000000	0.012211224995553493
158	0x3fb7900520000000	0.09204132109880447
159	0xbfa830eb00000000	-0.04724821448326111
160	0x3fad4fc980000000	0.05724935233592987
161	0xbfc0ce5920000000	-0.1312972456216812
162	0xbf73dc8de0000000	-0.004849008750170469
163	0x3fb37bdaa0000000	0.07610861212015152
164	0x3fb794abe0000000	0.09211229532957077
165	0x3fa8aa2240000000	0.04817301779985428
166	0x3faeaeb500000000	0.05992665886878967
167	0xbfbdc43ce0000000	-0.1162756010890007
168	0xbf852a94c0000000	-0.010335123166441917
169	0xbfbf5fb2c0000000	-0.1225539892911911
170	0x3fa27bfb20000000	0.03610214963555336
171	0x3f81f6da20000000	0.008771614171564579
172	0xbfc13c3d40000000	-0.13465085625648499
173	0x3fa4650120000000	0.039833102375268936
174	0xbfc9d34f00000000	-0.2017611265182495
175	0xbf858ff200000000	-0.010528460144996643
176	0xbfb307ee00000000	-0.07433974742889404
177	0xbfadb16060000000	-0.057993900030851364
178	0x3f6fd3f500000000	0.003885248675942421
179	0xbfa00a2320000000	-0.03132734075188637
180	0x3fb3bcb2a0000000	0.077098049223423
181	0xbf9ae98d20000000	-0.026281552389264107
182	0x3fbdb4aa40000000	0.11603797972202301
183	0x3fba1a59c0000000	0.10196457803249359
184	0x3fc0521e40000000	0.1275060474872589
185	0x3fbdbd1be0000000	0.11616682261228561
186	0x3fb3459f80000000	0.07528111338615417
187	0x3f75bc04c0000000	0.005306261591613293
188	0xbfadbc2cc0000000	-0.05807628482580185
189	0x3fbfb5b4a0000000	0.12386635690927505
190	0x3fbfd492c0000000	0.12433736026287079
191	0xbf40d8f120000000	-0.0005141427391208708
192	0x3f964115e0000000	0.02173265628516674
193	0xbf9733b880000000	-0.02265823632478714
194	0x3fa0300d80000000	0.031616613268852234
195	0x3f90a5d680000000	0.016257621347904205
196	0x3fc4292280000000	0.1575053334236145
197	0x3fbc158480000000	0.10970333218574524
198	0xbfb0219dc0000000	-0.06301294267177582
199	0xbfb7ef96c0000000	-0.09349958598613739
200	0x3fc36e2900000000	0.15179932117462158
201	0x3fb3543de0000000	0.07550417631864548
202	0x3fb8687d20000000	0.09534437209367752
203	0xbf9f63d0e0000000	-0.03065420500934124
204	0xbfb822d8e0000000	-0.09428172558546066
205	0x3fa2e01060000000	0.0368657223880291
206	0x3f9f7a1960000000	0.030739208683371544
207	0xbf90d6e000000000	-0.016444683074951172
208	0xbfa9395180000000	-0.04926542937755585
209	0x3f9bf4c400000000	0.027300894260406494
210	0x3fb726a680000000	0.0904335081577301
211	0xbfb814e2c0000000	-0.09406869113445282
212	0x3f96c49e00000000	0.022234410047531128
213	0xbfb9c066e0000000	-0.10059206932783127
214	0xbfc2d87e20000000	-0.1472318321466446
215	0x3fb4a83f60000000	0.08069225400686264
216	0xbfbb4c6c60000000	-0.10663487762212753
217	0xbfb8226e00000000	-0.09427535533905029
218	0xbfbc6ec540000000	-0.11106522381305695
219	0xbfc0f55b20000000	-0.13248766958713531
220	0xbfb25a8660000000	-0.0716938003897667
221	0x3f92d9b3c0000000	0.01840859279036522
222	0x3fb4ee8420000000	0.08176446706056595
223	0xbfa99cd1a0000000	-0.05002455785870552
224	0xbfa725a0a0000000	-0.045208949595689774
225	0x3fb835df40000000	0.0945720225572586
226	0x3f968daf40000000	0.022024858742952347
227	0x3fa3769f20000000	0.03801438584923744
228	0xbf8c4dbea0000000	-0.013820161111652851
229	0x3fbad84380000000	0.10486242175102234
230	0xbfa40359e0000000	-0.039088066667318344
231	0xbf9a1fb640000000	-0.025511596351861954
232	0x3fb54b7300000000	0.08318251371383667
233	0x3fc08cc160000000	0.12929551303386688
234	0x3fb8cc22a0000000	0.09686485677957535
235	0x3f2e859320000000	0.00023286267241928726
236	0xbfb8ea42c0000000	-0.09732453525066376
237	0x3fb1c10ae0000000	0.06935184448957443
238	0x3f3c093560000000	0.00042779496288858354
239	0xbf91e57500000000	-0.017476871609687805
240	0x3fb712c620000000	0.09013021737337112
241	0x3fa87a9c40000000	0.04781044274568558
242	0x3f9bd12000000000	0.027164936065673828
243	0x3f9aa47440000000	0.026017967611551285
244	0x3f93261660000000	0.018699979409575462
245	0x3fb211cb60000000	0.0705840215086937
246	0x3fb289a240000000	0.07241262495517731
247	0x3f58aa1400000000	0.001505393534898758
248	0x3f962f1be0000000	0.021664081141352654
249	0xbfbd9bf380000000	-0.11566087603569031
250	0x3fb9677e40000000	0.0992354303598404
251	0xbfb36d3e00000000	-0.07588565349578857
252	0x3fa6e195a0000000	0.04468982294201851
253	0xbfabcef860000000	-0.054313432425260544
254	0x3f85e16cc0000000	0.010683869943022728
255	0x3f9a35d320000000	0.025595949962735176

conv3.conv3_a.weight f8 [64, 32, 3, 3]
0	0x3fa41c6d60000000	0.039279382675886154
1	0xbfba0a2040000000	-0.101717010140419
2	0x3fb4be2a80000000	0.08102670311927795
3	0x3fb1e3f020000000	0.06988430768251419
4	0xbf7f9b9d00000000	-0.007716763764619827
5	0x3fb7d0f060000000	0.09303190559148788
6	0xbfb4d13a80000000	-0.08131757378578186
7	0x3fb03a72c0000000	0.06339184939861298
8	0xbfb0f550c0000000	-0.06624321639537811
9	0xbfa6dc2860000000	-0.0446484200656414
10	0x3fb6c79780000000	0.08898302912712097
11	0x3fb52c8140000000	0.08271034061908722
12	0x3fad855ca0000000	0.05765809491276741
13	0xbf46165800000000	-0.0006740503013134003
14	0xbfaddcc540000000	-0.05832497030496597
15	0xbfb46b6100000000	-0.07976347208023071
16	0xbf9433cd80000000	-0.01972886174917221
17	0xbf8c9a4a40000000	-0.013966159895062447
18	0xbf7e786760000000	-0.0074390447698533535
19	0x3f8d3341a0000000	0.01425791997462511
20	0x3fa24f4920000000	0.03576115146279335
21	0x3facbe9700000000	0.05614158511161804
22	0x3f9961e2e0000000	0.02478746883571148
23	0xbfb3fc11c0000000	-0.07806502282619476
24	0x3f908af360000000	0.016155054792761803
25	0xbfb5bda400000000	-0.08492493629455566
26	0x3f9d84d4e0000000	0.02882702462375164
27	0x3fb0b532e0000000	0.06526487320661545
28	0x3fa35b2660000000	0.03780479356646538
29	0xbfb2f7ffa0000000	-0.07409665733575821
30	0x3fb6e623c0000000	0.08944915235042572
31	0x3f76f729a0000000	0.005606806371361017
32	0x3fbaf234a0000000	0.1052582636475563
33	0xbf998d0e20000000	-0.024952145293354988
34	0xbfa9b25ac0000000	-0.05018886178731918
35	0xbf6b657a00000000	-0.003344286233186722
36	0x3fa6705880000000	0.04382587969303131
37	0x3fb0bfac80000000	0.06542471051216125
38	0xbfb30f04c0000000	-0.07444791495800018
39	0xbfade09f00000000	-0.058354347944259644
40	0xbfb739e4e0000000	-0.09072714298963547
41	0xbfbb5e47c0000000	-0.10690735280513763
42	0x3f9c614b80000000	0.02771490067243576
43	0x3f92fc09e0000000	0.01853957585990429
44	0x3f98f9c4c0000000	0.024390291422605515
45	0xbfa394d460000000	-0.03824485465884209
46	0xbf827f0260000000	-0.009031313471496105
47	0x3f913e1000000000	0.01683831214904785
48	0xbf669f30c0000000	-0.002761454787105322
49	0x3f9b576c40000000	0.02670067921280861
50	0xbfb4cd95a0000000	-0.08126197010278702
51	0x3faba46b40000000	0.05398879200220108
52	0x3fb33f6280000000	0.07518592476844788
53	0x3f9ee3aae0000000	0.030165357515215874
54	0x3fb8715540000000	0.0954793244600296
55	0x3fa94426c0000000	0.04934807866811752
56	0xbfa9d6d560000000	-0.050467174500226974
57	0x3f8fab8820000000	0.015463889576494694
58	0x3f92b62b60000000	0.018273046240210533
59	0x3f93aa7e20000000	0.019205065444111824
60	0xbfb1d32de0000000	-0.06962858885526657
61	0x3f96a8ab80000000	0.022127799689769745
62	0x3fb77e6f40000000	0.09177298843860626
63	0xbfb97d0800000000	-0.0995640754699707
64	0xbf83335940000000	-0.009375283494591713
65	0xbfa65eb720000000	-0.04369137063622475
66	0xbfa036c6c0000000	-0.031667910516262054
67	0x3fb97389e0000000	0.09941922873258591
68	0x3fb8546200000000	0.09503757953643799
69	0x3f9c657060000000	0.027730708941817284
70	0xbfb7c8b180000000	-0.09290608763694763
71	0xbfb24137c0000000	-0.07130764424800873
72	0xbfb2d90d20000000	-0.07362443953752518
73	0x3fb52def80000000	0.0827321708202362
74	0x3fab39ed00000000	0.053176313638687134
75	0xbfb5933ca0000000	-0.08427790552377701
76	0x3fa4d5dde0000000	0.04069417342543602
77	0x3f9b11b860000000	0.02643478475511074
78	0x3fa5eb9c20000000	0.04281318560242653
79	0xbfb9470d60000000	-0.09874042123556137
80	0xbfb4a93b00000000	-0.08070725202560425
81	0xbfb81dbb80000000	-0.09420368075370789
82	0x3f92cd0cc0000000	0.018360327929258347
83	0x3fa9cd6f00000000	0.050395458936691284
84	0x3fb41a27a0000000	0.07852409034967422
85	0xbfa33211c0000000	-0.03749137371778488
86	0x3fb5ea8600000000	0.0856097936630249
87	0x3facde3dc0000000	0.05638306587934494
88	0x3f83317c60000000	0.009371730498969555
89	0xbfaa562060000000	-0.0514383427798748
90	0xbfb6036880000000	-0.08598950505256653
91	0x3f8b2ae4a0000000	0.013265405781567097
92	0x3faf494fa0000000	0.06110619381070137
93	0x3fb1f6e3a0000000	0.070173479616642
94	0xbfb85484e0000000	-0.09503965824842453
95	0x3fa9a20e40000000	0.050064511597156525
96	0xbf7c7a1ee0000000	-0.0069524007849395275
97	0xbfb8992aa0000000	-0.09608713537454605
98	0x3faaa93500000000	0.0520721971988678
99	0x3f6c9e9260000000	0.0034935816656798124
100	0xbf76fb30a0000000	-0.0056106471456587315
101	0xbf94df1b20000000	-0.020382331684231758
102	0xbfabcedfe0000000	-0.054312702268362045
103	0x3f92e0df80000000	0.018435947597026825
104	0xbfa5d01b20000000	-0.042603347450494766
105	0xbfa9125be0000000	-0.04896819218993187
106	0xbfb00721a0000000	-0.06260881572961807
107	0xbfa32c4400000000	-0.03744709491729736
108	0xbfa18ecf60000000	-0.03429267928004265
109	0xbfb98c30a0000000	-0.0997953787446022
110	0xbfb86643e0000000	-0.09531044214963913
111	0xbf9615e780000000	-0.0215679332613945
112	0xbf6ba4a5a0000000	-0.003374408232048154
113	0xbf9137c9e0000000	-0.016814379021525383
114	0x3fa0a1eb80000000	0.03248535096645355
115	0xbf7457c760000000	-0.0049665248952806
116	0xbfb36e4e40000000	-0.07590188086032867
117	0xbfa0cf6140000000	-0.03283218294382095
118	0x3f3b722e20000000	0.00041879297350533307
119	0x3f4b335580000000	0.0008300940971821547
120	0xbfb3330a80000000	-0.07499757409095764
121	0xbfb7046ba0000000	-0.08991120010614395
122	0x3fb440fa60000000	0.07911648601293564
123	0x3f91d66700000000	0.017419442534446716
124	0xbf917e94c0000000	-0.017084430903196335
125	0x3fb0684700000000	0.06409114599227905
126	0xbfb91d1260000000	-0.09809985011816025
127	0xbfab6e3e20000000	-0.053575459867715836
128	0xbfb94221a0000000	-0.09866533428430557
129	0x3fa6b7ad40000000	0.04437009245157242
130	0xbf58aa5860000000	-0.0015054572140797973
131	0xbf8e777f80000000	-0.014876361936330795
132	0xbf908922a0000000	-0.016148129478096962
133	0xbf381fe040000000	-0.0003681108937598765
134	0xbfb9119d40000000	-0.09792502224445343
135	0x3f93c90f20000000	0.019321667030453682
136	0xbf9dfd2720000000	-0.029286013916134834
137	0xbfa46676e0000000	-0.03984424099326134
138	0x3fa3d45ec0000000	0.038729630410671234
139	0x3fb3eec6a0000000	0.07786218076944351
140	0xbfb3244240000000	-0.07477201521396637
141	0xbfb284b780000000	-0.07233759760856628
142	0xbf61f95ac0000000	-0.002194096799939871
143	0x3fb0407760000000	0.06348367780447006
144	0x3fb907dd60000000	0.09777625650167465
145	0xbfb21bdd20000000	-0.07073766738176346
146	0xbf5961d0c0000000	-0.0015491999220103025
147	0xbfb23a5780000000	-0.07120272517204285
148	0xbfa0afc100000000	-0.032590895891189575
149	0xbfa7e51c80000000	-0.0466698557138443
150	0xbfaeb20180000000	-0.05995182693004608
151	0x3fb588a120000000	0.08411604911088943
152	0x3fb5702000000000	0.08374214172363281
153	0xbfb758fee0000000	-0.09120171517133713
154	0xbfb9aecb20000000	-0.100323386490345
155	0x3fa099f220000000	0.03242451325058937
156	0xbfb5f54040000000	-0.08577348291873932
157	0xbf570439a0000000	-0.0014048159355297685
158	0x3fb697db40000000	0.0882546454668045
159	0xbf92f8e600000000	-0.018527597188949585
160	0xbf90ebcf40000000	-0.0165245421230793
161	0x3fb7d361c0000000	0.0930691808462143
162	0x3fa19d9b60000000	0.03440557047724724
163	0xbf88a12340000000	-0.012026095762848854
164	0xbfaaa92600000000	-0.05207175016403198
165	0xbfb32e7bc0000000	-0.07492803037166595
166	0xbf47aedf20000000	-0.0007227506139315665
167	0xbfa32b5b60000000	-0.037440162152051926
168	0xbf8a25b3c0000000	-0.01276722364127636
169	0x3fb13938c0000000	0.0672793835401535
170	0x3fb00194c0000000	0.06252412497997284
171	0xbfb2d3a900000000	-0.07354217767715454
172	0x3fb8c2f540000000	0.09672482311725616
173	0xbfaefe4740000000	-0.06053373962640762
174	0x3fb55b3520000000	0.08342296630144119
175	0x3fb720ce00000000	0.09034430980682373
176	0xbf95203760000000	-0.02063070796430111
177	0x3f95619540000000	0.020880062133073807
178	0x3fba538560000000	0.10283692926168442
179	0x3fba26f3a0000000	0.1021568551659584
180	0x3fb00d5e80000000	0.06270399689674377
181	0x3f91737ba0000000	0.017042094841599464
182	0x3fa4b00460000000	0.040405403822660446
183	0xbfaf38d720000000	-0.06098053231835365
184	0xbf8d017540000000	-0.014162937179207802
185	0xbf61ddde40000000	-0.002180990297347307
186	0x3f94e4a580000000	0.020403467118740082
187	0xbf8b66a6a0000000	-0.013379384763538837
188	0x3fb69cda40000000	0.08833087980747223
189	0x3f59fdc040000000	0.0015863778535276651
190	0x3fb07e6160000000	0.06442841142416
191	0xbfb94ab760000000	-0.09879633039236069
192	0xbf95aacf80000000	-0.021159403026103973
193	0x3f8d2f1a60000000	0.014249998144805431
194	0xbfba325dc0000000	-0.10233102738857269
195	0x3f9ec998a0000000	0.030065903440117836
196	0xbfab257700000000	-0.053020209074020386
197	0xbfa42ce200000000	-0.03940492868423462
198	0x3fa3486a60000000	0.03766186162829399
199	0xbfb30470a0000000	-0.07428649812936783
200	0xbfb6cc39e0000000	-0.08905374258756638
201	0x3fb697eec0000000	0.08825580775737762
202	0xbfb2648120000000	-0.07184607535600662
203	0xbfa44394e0000000	-0.03957810625433922
204	0xbfb2735d00000000	-0.07207280397415161
205	0x3faaf049a0000000	0.052614498883485794
206	0xbf705ade20000000	-0.003992908168584108
207	0x3fb296e120000000	0.07261473685503006
208	0xbfb2b51b20000000	-0.07307595759630203
209	0x3fae94f2e0000000	0.05973013862967491
210	0x3fb8108b00000000	0.09400242567062378
211	0xbfb6071040000000	-0.0860452800989151
212	0xbf89f71e20000000	-0.01267837081104517
213	0x3fa75ae4a0000000	0.04561533406376839
214	0xbfa4e8bdc0000000	-0.040838174521923065
215	0xbfb02ad5c0000000	-0.06315360963344574
216	0xbfb3773200000000	-0.07603752613067627
217	0x3fb7d48e80000000	0.0930871069431305
218	0xbfa13a0180000000	-0.03364567458629608
219	0xbfb794f7a0000000	-0.0921168103814125
220	0x3fb0d51800000000	0.06575155258178711
221	0xbfb38c46a0000000	-0.07635919004678726
222	0x3f900a9ce0000000	0.015665484592318535
223	0x3fa8d95c00000000	0.04853332042694092
224	0x3fb43bfd80000000	0.07904037833213806
225	0x3fb33f3ce0000000	0.0751836821436882
226	0xbfb4bc3c80000000	-0.08099725842475891
227	0x3fb62a4ba0000000	0.08658287674188614
228	0xbf67fafee0000000	-0.0029273012187331915
229	0x3fb4cd8040000000	0.08126069605350494
230	0x3fa9d85360000000	0.050478558987379074
231	0xbfb1b44020000000	-0.06915665417909622
232	0x3fb5e232a0000000	0.08548275381326675
233	0xbfa56f04c0000000	-0.04186262935400009
234	0x3fa905b660000000	0.048871707171201706
235	0x3fa0184be0000000	0.031435366719961166
236	0xbfa8b68c60000000	-0.04826773330569267
237	0x3fad3d96a0000000	0.0571105070412159
238	0xbfb2a38d80000000	-0.07280811667442322
239	0xbfb30aca20000000	-0.07438338547945023
240	0x3f99b11da0000000	0.025089705362915993
241	0x3fa3aaa0e0000000	0.03841116651892662
242	0x3fb2e8cc60000000	0.07386472076177597
243	0xbfb4fa5e80000000	-0.08194532990455627
244	0xbf8d5552a0000000	-0.014322896488010883
245	0x3f30f8f200000000	0.0002589789219200611
246	0xbf9386fac0000000	-0.019069593399763107
247	0xbfb7119da0000000	-0.09011254459619522
248	0x3f6f4ecf00000000	0.0038217585533857346
249	0x3fb6bce640000000	0.08881987631320953
250	0xbfb3f7b6e0000000	-0.0779985710978508
251	0xbfb20d75a0000000	-0.0705178752541542
252	0x3fb986bd20000000	0.09971220046281815
253	0xbfa16d1460000000	-0.0340353362262249
254	0x3fb86a9a40000000	0.0953766256570816
255	0xbfaed62c60000000	-0.060227762907743454

fuse_a.weight f8 [1, 112, 3, 3]
0	0xbf3d472720000000	-0.0004467459220904857
1	0x3f238ddde0000000	0.0001491864531999454
2	0x3f5a225820000000	0.0015951023669913411
3	0xbf2a184320000000	-0.00019908732792828232
4	0xbf322bad80000000	-0.00027726159896701574
5	0x3f51e249e0000000	0.0010915490565821528
6	0x3f34660b80000000	0.00031125813256949186
7	0xbf43916ac0000000	-0.0005971690407022834
8	0x3f25f701c0000000	0.00016757866251282394
9	0xbf84f74920000000	-0.010237284936010838
10	0xbf814bcc20000000	-0.008445353247225285
11	0xbf828dc5a0000000	-0.00905947107821703
12	0xbf84094d80000000	-0.009783368557691574
13	0xbf7f34afa0000000	-0.007618604693561792
14	0xbf810cdb80000000	-0.008325304836034775
15	0xbf843f52a0000000	-0.009886403568089008
16	0xbf7dd4d200000000	-0.007283039391040802
17	0xbf7fded260000000	-0.007780858781188726
18	0xbf6c794160000000	-0.003475787816569209
19	0xbf6cc71780000000	-0.003512903116643429
20	0xbf716296a0000000	-0.004244411829859018
21	0xbf6c5056c0000000	-0.003456277307122946
22	0xbf6bdde720000000	-0.0034017099533230066
23	0xbf7016d840000000	-0.00392803642898798
24	0xbf70f22dc0000000	-0.004137209616601467
25	0xbf713de9a0000000	-0.004209435079246759
26	0xbf7386b0c0000000	-0.004767122678458691
27	0xbf81071f20000000	-0.008314364589750767
28	0xbf81822480000000	-0.008549008518457413
29	0xbf81894660000000	-0.008562612347304821
30	0xbf810161e0000000	-0.008303417824208736
31	0xbf815dc460000000	-0.008479627780616283
32	0xbf81b90fa0000000	-0.00865375716239214
33	0xbf81d12980000000	-0.008699726313352585
34	0xbf82251800000000	-0.008859813213348389
35	0xbf823f2a20000000	-0.008909539319574833
36	0x3f616e88e0000000	0.0021279023494571447
37	0x3f62ffcc20000000	0.0023192393127828836
38	0x3f4799d360000000	0.0007202417473308742
39	0x3f5b8aeee0000000	0.001681073452346027
40	0x3f6658e460000000	0.0027279339265078306
41	0x3f578fb3e0000000	0.0014380699722096324
42	0x3f4921a760000000	0.0007669512997381389
43	0x3f66934700000000	0.0027557741850614548
44	0x3f61454400000000	0.0021082237362861633
45	0xbf601fbc20000000	-0.001968257362022996
46	0xbf67875040000000	-0.0028721396811306477
47	0xbf58f62ca0000000	-0.0015235362807288766
48	0xbf5b0df1a0000000	-0.0016512736910954118
49	0xbf65a53880000000	-0.002642259933054447
50	0xbf55108860000000	-0.0012856799876317382
51	0xbf5f695dc0000000	-0.0019172111060470343
52	0xbf68819820000000	-0.00299148284830153
53	0xbf5aaf4820000000	-0.0016287044854834676
54	0x3f820cc9a0000000	0.008813452906906605
55	0x3f80ffd9c0000000	0.008300496265292168
56	0x3f807ee040000000	0.008054496720433235
57	0x3f824b82e0000000	0.00893308874219656
58	0x3f80c876e0000000	0.00819485541433096
59	0x3f803a6300000000	0.00792386382818222
60	0x3f8387b020000000	0.00953614804893732
61	0x3f813c0e20000000	0.008415327407419682
62	0x3f7feed000000000	0.007796108722686768
63	0xbf88c98180000000	-0.012103091925382614
64	0xbf848a3460000000	-0.010029229335486889
65	0xbf849863e0000000	-0.010056286118924618
66	0xbf8827b9e0000000	-0.01179452147334814
67	0xbf830b2420000000	-0.009298593737185001
68	0xbf8305a9c0000000	-0.00928814522922039
69	0xbf87a431c0000000	-0.011543644592165947
70	0xbf8164ce40000000	-0.008493052795529366
71	0xbf808834c0000000	-0.008072292432188988
72	0x3f24cb62a0000000	0.00015864924353081733
73	0xbf5e014da0000000	-0.001831365399993956
74	0xbf43947440000000	-0.0005975310923531651
75	0x3f2e1b9fc0000000	0.00022970509598962963
76	0xbf6194ee40000000	-0.0021462109871208668
77	0xbf51e27560000000	-0.0010915895691141486
78	0xbf37a7e180000000	-0.0003609586274251342
79	0xbf69cfabc0000000	-0.0031507830135524273
80	0xbf62a55fe0000000	-0.002276122337207198
81	0x3f7551cee0000000	0.0052049714140594006
82	0x3f76006ae0000000	0.005371491890400648
83	0x3f740888c0000000	0.004890951327979565
84	0x3f761763e0000000	0.005393400322645903
85	0x3f79c41720000000	0.006290521938353777
86	0x3f78a95c80000000	0.006020890548825264
87	0x3f730e2860000000	0.004652173724025488
88	0x3f7a308180000000	0.006393915042281151
89	0x3f7b7ca900000000	0.006710682064294815
90	0x3f864c1e20000000	0.010887370444834232
91	0x3f81dcc300000000	0.00872185081243515
92	0x3f82b882c0000000	0.009140988811850548
93	0x3f876a0e60000000	0.011432754807174206
94	0x3f82a53100000000	0.009104140102863312
95	0x3f830435a0000000	0.00928537268191576
96	0x3f88050a80000000	0.01172836497426033
97	0x3f82c568e0000000	0.009165591560304165
98	0x3f829b8ae0000000	0.009085736237466335
99	0xbf8733f6e0000000	-0.011329582892358303
100	0xbf84c12c80000000	-0.010134074836969376
101	0xbf84618560000000	-0.009951631538569927
102	0xbf86538340000000	-0.010901475325226784
103	0xbf824528c0000000	-0.008920973166823387
104	0xbf813dd640000000	-0.008418725803494453
105	0xbf86fa3b20000000	-0.011219465173780918
106	0xbf814eba80000000	-0.008450943976640701
107	0xbf7e680ee0000000	-0.00742345629259944
108	0x3f71e63ae0000000	0.0043699550442397594
109	0x3f6851bca0000000	0.002968662651255727
110	0x3f65d1f2a0000000	0.0026635874528437853
111	0x3f7229fdc0000000	0.004434577189385891
112	0x3f62ae9bc0000000	0.0022805253975093365
113	0x3f5d242220000000	0.001778634381480515
114	0x3f7368bd20000000	0.004738558549433947
115	0x3f5bac0d00000000	0.0016889693215489388
116	0x3f43c93d60000000	0.0006038236315362155
117	0xbf7a72cbc0000000	-0.006457134149968624
118	0xbf74920f60000000	-0.005022106226533651
119	0xbf7329e5a0000000	-0.004678627941757441
120	0xbf7ca46ec0000000	-0.00699275266379118
121	0xbf78b49020000000	-0.006031573284417391
122	0xbf77e02660000000	-0.0058290003798902035
123	0xbf7b47fb60000000	-0.00666044419631362
124	0xbf791a6260000000	-0.006128677632659674
125	0xbf798d25a0000000	-0.006238123867660761
126	0xbf81bcf2c0000000	-0.008661171421408653
127	0xbf8106a960000000	-0.008313487283885479
128	0xbf7b91cfa0000000	-0.006730853114277124
129	0xbf828a8b80000000	-0.009053315967321396
130	0xbf81423c60000000	-0.008427116088569164
131	0xbf7b69f520000000	-0.006692845840007067
132	0xbf82eae560000000	-0.009237091057002544
133	0xbf80bb6ac0000000	-0.008169969543814659
134	0xbf78c3c260000000	-0.006046065595000982
135	0x3f8062dc40000000	0.008001061156392097
136	0x3f7e775420000000	0.007438019383698702
137	0x3f7be0cdc0000000	0.0068061864003539085
138	0x3f811185e0000000	0.008334203623235226
139	0x3f7ca3b440000000	0.0069920578971505165
140	0x3f787ccb80000000	0.005978388711810112
141	0x3f80272ca0000000	0.007887219078838825
142	0x3f774f36a0000000	0.005690778139978647
143	0x3f70073060000000	0.003913105931133032
144	0x3f73d94e80000000	0.0048459116369485855
145	0xbf8c7ffa20000000	-0.013915971852838993
146	0xbf9d6e8ac0000000	-0.028741996735334396
147	0x3f7ed86d60000000	0.007530619855970144
148	0xbf859416a0000000	-0.010536362417042255
149	0xbf996acae0000000	-0.024821443483233452
150	0x3f7e38ef00000000	0.007378514856100082
151	0xbf83a8b2e0000000	-0.009599111042916775
152	0xbf97a06c40000000	-0.023072902113199234
153	0x3f898ece00000000	0.012479409575462341
154	0x3f83221300000000	0.009342335164546967
155	0x3f80e48920000000	0.008248397149145603
156	0x3f889bad80000000	0.012015681713819504
157	0x3f80707500000000	0.00802699476480484
158	0x3f7aac9460000000	0.006512240972369909
159	0x3f8682c100000000	0.010991580784320831
160	0x3f7a201f80000000	0.0063782911747694016
161	0x3f72a18820000000	0.004548579920083284
162	0xbf7219fe40000000	-0.00441932026296854
163	0x3f834179e0000000	0.009402229450643063
164	0x3f963c6980000000	0.02171482890844345
165	0xbf7bd53140000000	-0.0067951129749417305
166	0x3f7ded3380000000	0.007306290790438652
167	0x3f944a35a0000000	0.01981433667242527
168	0xbf7d418140000000	-0.0071425484493374825
169	0x3f7c8a7460000000	0.006967978086322546
170	0x3f93e66200000000	0.019433528184890747
171	0xbf78a25220000000	-0.006014176178723574
172	0x3f89a09b20000000	0.012513362802565098
173	0x3f9c66dc40000000	0.027736131101846695
174	0xbf82edb780000000	-0.009242471307516098
175	0x3f82b7d540000000	0.009139696136116982
176	0x3f98a4ee80000000	0.024066664278507233
177	0xbf83d83ce0000000	-0.009689784608781338
178	0x3f80c475a0000000	0.008187216706573963
179	0x3f970b68a0000000	0.02250445820391178
180	0xbf5531f4c0000000	-0.0012936487328261137
181	0xbf93c642c0000000	-0.01931099221110344
182	0xbfa122ec20000000	-0.033469561487436295
183	0x3f68b38ca0000000	0.00301530328579247
184	0xbf8d8bbf40000000	-0.0144267026335001
185	0xbf9cffed00000000	-0.028320029377937317
186	0x3f6ffee980000000	0.003905731253325939
187	0xbf8a38a4e0000000	-0.012803352437913418
188	0xbf9ad88ec0000000	-0.026216726750135422
189	0xbf383e5060000000	-0.0003699251392390579
190	0x3f836e8da0000000	0.009488207288086414
191	0x3f936658a0000000	0.018945107236504555
192	0xbf72720400000000	-0.004503265023231506
193	0x3f75f12ec0000000	0.005356962792575359
194	0x3f8e9cff20000000	0.01494788471609354
195	0xbf7d14f400000000	-0.00710006058216095
196	0x3f64fc8f00000000	0.0025618355721235275
197	0x3f88887a00000000	0.011979058384895325
198	0x3f8b6b2500000000	0.013387955725193024
199	0xbf66a483c0000000	-0.0027639935724437237
200	0xbf908423c0000000	-0.01612907275557518
201	0x3f90732320000000	0.01606421358883381
202	0x3f43872640000000	0.000595945050008595
203	0xbf893b7180000000	-0.012320410460233688
204	0x3f90729f40000000	0.01606224849820137
205	0x3f5a38f560000000	0.0016004940262064338
206	0xbf85a32f80000000	-0.010565157979726791
207	0xbf8179fa80000000	-0.008533436805009842
208	0x3f84e0b940000000	0.01019425131380558
209	0x3f991f18a0000000	0.024532685056328773
210	0xbf8a3a06c0000000	-0.012805989012122154
211	0x3f77284820000000	0.0056536500342190266
212	0x3f946878c0000000	0.019929777830839157
213	0xbf8c1a8460000000	-0.013722452335059643
214	0x3f7013e960000000	0.003925239201635122
215	0x3f91fd6d20000000	0.017568306997418404
216	0xbf9bd907a0000000	-0.027195090427994728
217	0xbf94945880000000	-0.020097143948078156
218	0xbf8bdc44a0000000	-0.013603721745312214
219	0xbf9a241360000000	-0.02552824281156063
220	0xbf930a6e00000000	-0.018594473600387573
221	0xbf89974120000000	-0.012495526112616062
222	0xbf96568f80000000	-0.021814577281475067
223	0xbf8f0d03c0000000	-0.015161542221903801
224	0xbf83dbef00000000	-0.009696833789348602
225	0x3f7c6c5ec0000000	0.006939287297427654
226	0x3f8671fc80000000	0.010959599167108536
227	0x3f8d7f2540000000	0.014402667060494423
228	0x3f723930c0000000	0.004449072293937206
229	0x3f80b22c80000000	0.008152339607477188
230	0x3f87529440000000	0.011387975886464119
231	0x3f65296b40000000	0.002583226654678583
232	0x3f7938b860000000	0.006157608237117529
233	0x3f82f38300000000	0.009253524243831635
234	0x3f774e3660000000	0.005689823534339666
235	0xbf860d5600000000	-0.010767623782157898
236	0xbf968c4040000000	-0.022019390016794205
237	0x3f8122d760000000	0.008367235772311687
238	0xbf7e35ade0000000	-0.007375411223620176
239	0xbf92584e00000000	-0.01791498064994812
240	0x3f7f008aa0000000	0.007568875793367624
241	0xbf7e946260000000	-0.007465729024261236
242	0xbf91d0f1e0000000	-0.017398623749613762
243	0xbf64edc1e0000000	-0.0025547777768224478
244	0x3f89e26580000000	0.012638848274946213
245	0x3f99245720000000	0.024552689865231514
246	0xbf7ae7ff00000000	-0.0065689049661159515
247	0x3f814fa5e0000000	0.008452697657048702
248	0x3f94df6d60000000	0.020383557304739952
249	0xbf7ea749e0000000	-0.007483757566660643
250	0x3f7cceb380000000	0.007033063098788261
251	0x3f93070760000000	0.01858150027692318
252	0xbf6a43cb40000000	-0.0032061547972261906
253	0x3f717a8280000000	0.004267225041985512
254	0x3f86808560000000	0.010987321846187115
255	0xbf6d5e6740000000	-0.003585054073482752
