models/UniNet_IITD_FeatNet.pth (torch_old, 220792 bytes, 4 tensors)

conv1.conv1_a.weight f8 [16, 1, 3, 7]
-0.6667922139167786 -0.5357886552810669 0.058057837188243866 0.2536200284957886 -0.0426940843462944 0.23035863041877747 0.799380362033844 -0.303924024105072
-0.09207731485366821 -0.3416396677494049 -0.2841738760471344 0.08448714762926102 0.47473642230033875 0.4675442576408386 -0.7125003337860107 -0.22434495389461517
-0.17766202986240387 -0.3907906413078308 0.38867369294166565 0.3834010660648346 0.5529997944831848 0.09866907447576523 0.25338879227638245 -0.09230051189661026
0.2132706344127655 -0.35084524750709534 -0.2763839066028595 -0.46073833107948303 0.15639346837997437 0.21770858764648438 0.31735244393348694 0.15687237679958344
-0.28484827280044556 -0.2330177128314972 0.10375690460205078 -0.20141634345054626 0.1486113965511322 0.17210182547569275 -0.12364886701107025 0.24325284361839294
-0.2547871172428131 -0.2588321268558502 0.17596542835235596 -0.15815389156341553 -0.37778306007385254 -0.30147862434387207 -0.04645977541804314 -0.32494524121284485
0.21457816660404205 -0.189464271068573 0.28773993253707886 -0.23339486122131348 0.26753121614456177 0.11967552453279495 -0.3142890930175781 0.4056260883808136
-0.16808739304542542 -0.18222980201244354 0.30125391483306885 0.05033225193619728 0.3411828279495239 -0.22282427549362183 -0.12472368776798248 0.27545487880706787
0.3825770616531372 0.036703258752822876 -0.2999649941921234 -0.2308105230331421 -0.19649629294872284 -0.273030161857605 -0.03806596249341965 -0.15514086186885834
-0.009178925305604935 -0.010501733049750328 0.016904903575778008 0.28147926926612854 -0.10232546925544739 -0.2757222354412079 -0.22885042428970337 -0.2423877716064453
0.4541986882686615 0.07705891877412796 -0.2661609947681427 0.08930861949920654 0.39560991525650024 0.440830796957016 0.0721956193447113 -0.15495221316814423
-0.21012723445892334 -0.5969464182853699 -0.3624282777309418 0.6171562671661377 0.25879424810409546 -0.20085948705673218 0.2511986494064331 -0.11253061890602112
-0.29124972224235535 -0.5412244200706482 0.7328389286994934 0.5881746411323547 0.5140032172203064 -0.1422184854745865 -0.46823227405548096 0.008314283564686775
-0.5576269030570984 0.2968994677066803 -0.17614302039146423 -0.38418981432914734 0.3269531726837158 -0.16187413036823273 -0.2450495958328247 -0.1530827134847641
-0.24142491817474365 -0.14813315868377686 -0.31130272150039673 0.18358160555362701 0.3736828863620758 -0.01016876008361578 -0.3338776230812073 0.15143795311450958
-0.04879302904009819 0.3266421854496002 0.05466216430068016 0.19280283153057098 0.24428512156009674 -0.04909035563468933 0.03991524130105972 -0.1923844814300537
-0.11367572844028473 -0.04138718917965889 0.2325126677751541 0.2730315923690796 0.30380111932754517 -0.20926184952259064 0.036972492933273315 0.034130245447158813
0.05537265166640282 0.2629857361316681 0.08196744322776794 0.009421608410775661 -0.20661257207393646 -0.018789326772093773 0.3075715899467468 0.29062560200691223
-0.18160468339920044 -0.2101868987083435 -0.10561642050743103 0.1597827821969986 0.17636831104755402 0.2170267105102539 -0.18718555569648743 0.11631063371896744
-0.40130454301834106 -0.45958930253982544 0.3797292709350586 0.4904073476791382 -0.11133597046136856 -0.187002494931221 0.2977421283721924 -0.3096664845943451
-0.3200932741165161 -0.1217370480298996 -0.01287871040403843 0.26890143752098083 0.25592944025993347 -0.3085036873817444 -0.1553703099489212 -0.26503369212150574
0.05671079456806183 -0.29901430010795593 -0.1604725420475006 0.0718277096748352 0.018275462090969086 0.06527374684810638 -0.18765953183174133 0.04914532229304314
-0.35090282559394836 0.05401252210140228 0.24801817536354065 -0.07028011232614517 0.3975857198238373 0.2056797295808792 -0.06264728307723999 -0.45141977071762085
-0.26199790835380554 -0.11915474385023117 0.20911410450935364 0.06306979060173035 0.36294278502464294 0.11310875415802002 0.44440677762031555 -0.2940278649330139
0.04466935619711876 -0.2632368803024292 -0.10440395772457123 -0.5298271179199219 0.5697379112243652 0.3565174639225006 0.2788794934749603 0.13395953178405762
0.003257967298850417 -0.3810955584049225 -0.5026692152023315 0.5408611297607422 0.16823330521583557 0.06411025673151016 -0.2963564991950989 -0.03710538148880005
0.15708546340465546 0.02689606137573719 0.19073475897312164 0.06875012069940567 -0.08447795361280441 0.2769969403743744 -0.1584409773349762 0.05445167049765587
0.13174599409103394 0.10856948792934418 -0.38152527809143066 0.2940191328525543 0.26646479964256287 -0.19958734512329102 0.013459363952279091 0.3205978274345398
-0.4056890606880188 -0.022714167833328247 -0.3703019618988037 0.2869623899459839 0.13694028556346893 0.04560960456728935 0.08314867317676544 0.6443230509757996
-0.2053975909948349 0.12462680786848068 -0.3722490668296814 -0.3981899321079254 -0.3893726170063019 -0.610544741153717 0.3652413785457611 0.4426935911178589
-0.26722848415374756 0.2916543781757355 -0.17678292095661163 -0.4087637960910797 0.027086248621344566 0.47269004583358765 0.27773764729499817 0.3733274042606354
-0.04507411643862724 0.2698415219783783 -0.3937854766845703 -0.47431638836860657 -0.2926311492919922 -0.5215141177177429 0.19334380328655243 0.09850120544433594
00000000: 0000 00a0 5c56 e5bf 0000 0040 2e25 e1bf
00000010: 0000 00c0 c1b9 ad3f 0000 0080 4f3b d03f
00000020: 0000 00c0 ffdb a5bf 0000 0040 647c cd3f
00000030: 0000 0020 8694 e93f 0000 00c0 7d73 d3bf
00000040: 0000 0000 6192 b7bf 0000 00a0 6cdd d5bf
00000050: 0000 00a0 e72f d2bf 0000 0020 f3a0 b53f
00000060: 0000 00e0 1462 de3f 0000 00c0 3eec dd3f
00000070: 0000 0080 cdcc e6bf 0000 00e0 55b7 ccbf
00000080: 0000 0020 a1bd c6bf 0000 00c0 b602 d9bf
00000090: 0000 00a0 07e0 d83f 0000 00a0 a489 d83f
000000a0: 0000 00a0 2cb2 e13f 0000 0060 6042 b93f
000000b0: 0000 00a0 8537 d03f 0000 00a0 01a1 b7bf
000000c0: 0000 00c0 734c cb3f 0000 00a0 3f74 d6bf
000000d0: 0000 0020 46b0 d1bf 0000 00a0 bc7c ddbf
000000e0: 0000 0080 b304 c43f 0000 0000 e0dd cb3f
000000f0: 0000 00a0 804f d43f 0000 00e0 6414 c43f
00000100: 0000 0040 f43a d2bf 0000 0040 86d3 cdbf
00000110: 0000 0000 d08f ba3f 0000 00c0 02c8 c9bf
00000120: 0000 00c0 b205 c33f 0000 00c0 6e07 c63f
00000130: 0000 00c0 73a7 bfbf 0000 00c0 e822 cf3f
00000140: 0000 00a0 6e4e d0bf 0000 00a0 b490 d0bf
00000150: 0000 0000 0986 c63f 0000 0000 633e c4bf
00000160: 0000 0000 992d d8bf 0000 0000 6d4b d3bf
00000170: 0000 0060 93c9 a7bf 0000 0020 e7cb d4bf
00000180: 0000 0020 4c77 cb3f 0000 0080 5d40 c8bf
00000190: 0000 00c0 546a d23f 0000 0000 e2df cdbf
000001a0: 0000 0040 3b1f d13f 0000 0020 0ea3 be3f
000001b0: 0000 0000 501d d4bf 0000 0020 c7f5 d93f
000001c0: 0000 0040 e383 c5bf 0000 0060 4e53 c7bf
000001d0: 0000 0080 be47 d33f 0000 0020 26c5 a93f
000001e0: 0000 0080 f0d5 d53f 0000 0080 8185 ccbf
000001f0: 0000 0040 e4ed bfbf 0000 0080 0da1 d13f
00000200: 0000 0080 247c d83f 0000 0000 c5ca a23f
00000210: 0000 0060 a032 d3bf 0000 0000 338b cdbf
00000220: 0000 0060 ca26 c9bf 0000 0080 5379 d1bf
00000230: 0000 00c0 617d a3bf 0000 00e0 a7db c3bf
00000240: 0000 0080 66cc 82bf 0000 00c0 ee81 85bf
00000250: 0000 00e0 844f 913f 0000 00a0 c103 d23f
00000260: 0000 0080 0032 babf 0000 00e0 6ea5 d1bf
00000270: 0000 0080 f84a cdbf 0000 0000 9006 cfbf
00000280: 0000 0060 9711 dd3f 0000 0020 22ba b33f
00000290: 0000 0020 c808 d1bf 0000 0000 eedc b63f
000002a0: 0000 0040 ac51 d93f 0000 0060 9236 dc3f
000002b0: 0000 0080 697b b23f 0000 0060 79d5 c3bf
000002c0: 0000 0000 73e5 cabf 0000 0060 2f1a e3bf
000002d0: 0000 0060 0632 d7bf 0000 0080 bebf e33f
000002e0: 0000 00c0 1590 d03f 0000 0080 c3b5 c9bf
000002f0: 0000 0080 a313 d03f 0000 0080 cece bcbf
00000300: 0000 00e0 d5a3 d2bf 0000 00e0 b551 e1bf
00000310: 0000 00a0 6a73 e73f 0000 00a0 53d2 e23f
00000320: 0000 00e0 b672 e03f 0000 0020 3734 c2bf
00000330: 0000 0080 84f7 ddbf 0000 0040 1407 813f
00000340: 0000 0060 14d8 e1bf 0000 00a0 6600 d33f
00000350: 0000 00c0 da8b c6bf 0000 00e0 9096 d8bf
00000360: 0000 0000 cdec d43f 0000 00a0 4ab8 c4bf
00000370: 0000 0000 c95d cfbf 0000 00e0 3698 c3bf
00000380: 0000 0000 03e7 cebf 0000 0000 07f6 c2bf
00000390: 0000 0040 62ec d3bf 0000 0020 9a7f c73f
000003a0: 0000 00a0 6bea d73f 0000 00e0 5bd3 84bf
000003b0: 0000 0040 405e d5bf 0000 00a0 5162 c33f
000003c0: 0000 0060 66fb a8bf 0000 00a0 b4e7 d43f
000003d0: 0000 00e0 adfc ab3f 0000 0060 c3ad c83f
000003e0: 0000 0020 bc44 cf3f 0000 0000 5f22 a9bf
000003f0: 0000 0040 c56f a43f 0000 0000 0ea0 c8bf
00000400: 0000 0040 da19 bdbf 0000 00a0 b330 a5bf
00000410: 0000 00a0 f9c2 cd3f 0000 0080 5979 d13f
00000420: 0000 0040 7a71 d33f 0000 00a0 17c9 cabf
00000430: 0000 0000 0fee a23f 0000 0000 8579 a13f
00000440: 0000 00e0 cd59 ac3f 0000 0020 c2d4 d03f
00000450: 0000 0080 d1fb b43f 0000 00e0 a24b 833f
00000460: 0000 00e0 4772 cabf 0000 0060 823d 93bf
00000470: 0000 00c0 40af d33f 0000 0020 9c99 d23f
00000480: 0000 0080 d23e c7bf 0000 0080 67e7 cabf
00000490: 0000 0080 ad09 bbbf 0000 0020 c373 c43f
000004a0: 0000 00a0 3c93 c63f 0000 0000 88c7 cb3f
000004b0: 0000 0040 b2f5 c7bf 0000 00a0 88c6 bd3f
000004c0: 0000 0040 f9ae d9bf 0000 0040 e969 ddbf
000004d0: 0000 0000 7c4d d83f 0000 0080 d562 df3f
000004e0: 0000 00a0 8380 bcbf 0000 00a0 b2ef c7bf
000004f0: 0000 0000 350e d33f 0000 0060 93d1 d3bf
00000500: 0000 0080 687c d4bf 0000 00c0 282a bfbf
00000510: 0000 0040 2760 8abf 0000 0060 ae35 d13f
00000520: 0000 00e0 2561 d03f 0000 0040 86be d3bf
00000530: 0000 00a0 2ce3 c3bf 0000 00e0 4ff6 d0bf
00000540: 0000 0080 3209 ad3f 0000 00e0 0c23 d3bf
00000550: 0000 0040 5d8a c4bf 0000 0000 4d63 b23f
00000560: 0000 0080 cdb6 923f 0000 00c0 c7b5 b03f
00000570: 0000 0040 3a05 c8bf 0000 0060 9329 a93f
00000580: 0000 0020 3175 d6bf 0000 0080 87a7 ab3f
00000590: 0000 0040 0fbf cf3f 0000 00a0 e0fd b1bf
000005a0: 0000 0060 0b72 d93f 0000 00a0 b653 ca3f
000005b0: 0000 0000 a709 b0bf 0000 00c0 0fe4 dcbf
000005c0: 0000 00e0 92c4 d0bf 0000 00e0 ec80 bebf
000005d0: 0000 0040 40c4 ca3f 0000 0080 5725 b03f
000005e0: 0000 0060 743a d73f 0000 0000 b2f4 bc3f
000005f0: 0000 0020 2971 dc3f 0000 0040 5ad1 d2bf
00000600: 0000 00e0 e6de a63f 0000 0080 dfd8 d0bf
00000610: 0000 00c0 37ba babf 0000 0000 58f4 e0bf
00000620: 0000 0000 4b3b e23f 0000 00a0 2ed1 d63f
00000630: 0000 0060 29d9 d13f 0000 0000 9625 c13f
00000640: 0000 00e0 73b0 6a3f 0000 00a0 de63 d8bf
00000650: 0000 00c0 dd15 e0bf 0000 0000 bc4e e13f
00000660: 0000 0040 ab88 c53f 0000 00a0 8769 b03f
00000670: 0000 0040 81f7 d2bf 0000 0000 7aff a2bf
00000680: 0000 0060 601b c43f 0000 0020 a48a 9b3f
00000690: 0000 0020 ff69 c83f 0000 00a0 9b99 b13f
000006a0: 0000 00e0 58a0 b5bf 0000 0060 51ba d13f
000006b0: 0000 0040 cb47 c4bf 0000 00e0 16e1 ab3f
000006c0: 0000 0080 0ddd c03f 0000 00c0 35cb bb3f
000006d0: 0000 0000 e96a d8bf 0000 00a0 35d1 d23f
000006e0: 0000 0060 c20d d13f 0000 0000 148c c9bf
000006f0: 0000 0040 9590 8b3f 0000 00c0 ac84 d43f
00000700: 0000 0040 cff6 d9bf 0000 0000 6242 97bf
00000710: 0000 0000 07b3 d7bf 0000 0080 975d d23f
00000720: 0000 0060 4287 c13f 0000 0060 245a a73f
00000730: 0000 0040 3b49 b53f 0000 0060 4b9e e43f
00000740: 0000 00e0 774a cabf 0000 00e0 8ae7 bf3f
00000750: 0000 00c0 edd2 d7bf 0000 00a0 f17b d9bf
00000760: 0000 0020 7beb d8bf 0000 0020 9589 e3bf
00000770: 0000 0060 1d60 d73f 0000 0080 1755 dc3f
00000780: 0000 0080 451a d1bf 0000 0020 77aa d23f
00000790: 0000 00a0 d2a0 c6bf 0000 00a0 2f29 dabf
000007a0: 0000 0060 7fbc 9b3f 0000 00c0 8d40 de3f
000007b0: 0000 0020 74c6 d13f 0000 00a0 98e4 d73f
000007c0: 0000 0060 f413 a7bf 0000 0060 1545 d13f
000007d0: 0000 0000 c833 d9bf 0000 0020 335b debf
000007e0: 0000 0000 78ba d2bf 0000 0060 3eb0 e0bf
000007f0: 0000 0060 7dbf c83f 0000 0000 6037 b93f

conv2.conv2_a.weight f8 [32, 16, 3, 5]
0.07846080511808395 0.023631179705262184 0.12491962313652039 0.08758939057588577 0.11543577909469604 0.18800951540470123 0.1425885707139969 -0.06658633798360825
0.12291239947080612 0.12259490042924881 0.06996160000562668 0.11979758739471436 0.07915648072957993 -0.07569492608308792 0.09082967787981033 -0.0712568610906601
0.10662617534399033 -0.04344531148672104 -0.11823971569538116 -0.09037834405899048 -0.08445446938276291 0.09902659058570862 0.008712608367204666 -0.04080936685204506
-0.05986950173974037 0.06082083284854889 -0.02758658118546009 0.027142440900206566 -0.11395701766014099 -0.15923993289470673 -0.04927148297429085 0.08685767650604248
0.03136357665061951 0.08684057742357254 0.03996234014630318 -0.05576201155781746 0.07136562466621399 0.0853622555732727 -0.07885787636041641 -0.08442755043506622
0.045086633414030075 0.0032782163470983505 -0.06577251851558685 0.030118176713585854 0.007414149586111307 -0.05328143760561943 0.05615348741412163 0.04098183289170265
0.03213111683726311 -0.06139080971479416 0.11578615754842758 0.033964477479457855 -0.10172677785158157 0.012303715571761131 0.0092424051836133 -0.028403963893651962
0.055165547877550125 -0.014532421715557575 0.03784697875380516 0.02012307196855545 -0.05214306712150574 0.012072904035449028 -0.024980776011943817 -0.09661415219306946
-0.037295278161764145 -0.0503322035074234 0.02166556380689144 0.039008479565382004 0.061809200793504715 -0.13829994201660156 -0.10847815126180649 -0.08322137594223022
-0.06960975378751755 -0.057768575847148895 -0.019983677193522453 -0.09625707566738129 -0.006922934670001268 -0.010899852029979229 -0.09471669793128967 0.0978679433465004
0.05275561287999153 0.009330714121460915 0.03976064175367355 0.03250964730978012 -0.026809589937329292 0.010827909223735332 -0.011769549921154976 -0.10541915148496628
0.08404260873794556 -0.08800257742404938 0.00496261240914464 0.032575592398643494 0.007370358798652887 0.10466445237398148 0.12878194451332092 0.07801847159862518
-0.06083950027823448 -0.07790055125951767 0.11088842898607254 -0.04440316930413246 -0.14137054979801178 0.04151386022567749 0.007433239370584488 0.11226655542850494
-0.002213177038356662 0.03308987617492676 0.09954226016998291 -0.025436528027057648 -0.07600551098585129 -0.18266066908836365 -0.003550310619175434 0.018765615299344063
-0.0847487822175026 0.034010253846645355 -0.07539112865924835 0.046589456498622894 0.04851498827338219 -0.10442221909761429 -0.07205124199390411 -0.14778479933738708
0.11785315722227097 0.08129800856113434 0.08973802626132965 -0.07150836288928986 0.10904967784881592 0.1029539629817009 0.09632512927055359 0.022266818210482597
-0.04200028255581856 0.09289000183343887 -0.08824694156646729 -0.0008013845654204488 -0.04592592269182205 0.04047669470310211 0.09091822057962418 -0.004358619451522827
-0.14267919957637787 0.04973307624459267 -0.015070408582687378 0.028454817831516266 0.005560289137065411 0.044815871864557266 -0.07711561024188995 -0.03501882031559944
0.07584408670663834 -0.17576272785663605 -0.006461590062826872 -0.08649705350399017 0.011569133028388023 0.028497081249952316 -0.0063261473551392555 -0.12928813695907593
0.07887772470712662 0.1386648714542389 0.15436385571956635 0.04550691321492195 0.031475476920604706 0.01205359771847725 0.09215652942657471 -0.04607855901122093
0.05823348090052605 -0.1308022141456604 -0.00516267167404294 0.07594722509384155 0.09272927790880203 0.047458961606025696 0.06066906452178955 -0.11526636779308319
-0.010746503248810768 -0.12640605866909027 0.03409165143966675 0.00910123996436596 -0.13314571976661682 0.03988875821232796 -0.20522737503051758 -0.013181908056139946
-0.07441484928131104 -0.05624029412865639 0.004428831394761801 -0.033667486160993576 0.0761522501707077 -0.028547372668981552 0.11386992782354355 0.10152164846658707
0.1304456889629364 0.11694610863924026 0.0736956000328064 0.0026662556920200586 -0.05887508764863014 0.12664373219013214 0.1259048879146576 -0.0014389115385711193
0.019119182601571083 -0.02372276410460472 0.03355513885617256 0.015001353807747364 0.1558178812265396 0.10850226134061813 -0.0632411539554596 -0.09250061213970184
0.15148749947547913 0.07423951476812363 0.09414488077163696 -0.030909506604075432 -0.09308110922574997 0.036988742649555206 0.029727283865213394 -0.017712458968162537
-0.04969367757439613 0.02814001776278019 0.08976741135120392 -0.0939764752984047 0.022432386875152588 -0.10109275579452515 -0.14896877110004425 0.07986967265605927
-0.10647278279066086 -0.09367389231920242 -0.11106929928064346 -0.13378463685512543 -0.0725017637014389 0.018438465893268585 0.08234507590532303 -0.04980216547846794
-0.0460284985601902 0.09378284215927124 0.02008199878036976 0.036133311688899994 -0.014608947560191154 0.10698717832565308 -0.038304317742586136 -0.026872463524341583
0.08087629824876785 0.12802499532699585 0.09850580990314484 0.0020546745508909225 -0.09780337661504745 0.06732912361621857 -0.0008183166501112282 -0.016441412270069122
0.09008092433214188 0.04615877568721771 0.024744661524891853 0.025216087698936462 0.018498636782169342 0.07074732333421707 0.07132305949926376 7.527977140853181e-05
0.021843399852514267 -0.11530661582946777 0.09914667904376984 -0.07698845118284225 0.04399612918496132 -0.05295992270112038 0.012312863953411579 0.023228680714964867
00000000: 0000 00e0 0116 b43f 0000 00a0 c532 983f
00000010: 0000 0080 bbfa bf3f 0000 0020 426c b63f
00000020: 0000 0000 338d bd3f 0000 0020 b210 c83f
00000030: 0000 00a0 5740 c23f 0000 0060 cd0b b1bf
00000040: 0000 00e0 2f77 bf3f 0000 0020 6162 bf3f
00000050: 0000 00e0 00e9 b13f 0000 0000 0eab be3f
00000060: 0000 0060 9943 b43f 0000 0020 be60 b3bf
00000070: 0000 0020 9d40 b73f 0000 00c0 e33d b2bf
00000080: 0000 0060 da4b bb3f 0000 00c0 763e a6bf
00000090: 0000 0040 f544 bebf 0000 0000 0923 b7bf
000000a0: 0000 00e0 ce9e b5bf 0000 0080 ce59 b93f
000000b0: 0000 0080 ead7 813f 0000 0020 f7e4 a4bf
000000c0: 0000 0020 37a7 aebf 0000 0080 e823 af3f
000000d0: 0000 0020 a83f 9cbf 0000 0060 3acb 9b3f
000000e0: 0000 0080 492c bdbf 0000 0060 f961 c4bf
000000f0: 0000 00a0 1c3a a9bf 0000 0000 4e3c b63f
00000100: 0000 0000 e30e a03f 0000 0020 2f3b b63f
00000110: 0000 00a0 f175 a43f 0000 00a0 d68c acbf
00000120: 0000 0080 0445 b23f 0000 0000 4dda b53f
00000130: 0000 00a0 0730 b4bf 0000 0040 0b9d b5bf
00000140: 0000 0060 9815 a73f 0000 0000 ebda 6a3f
00000150: 0000 00c0 77d6 b0bf 0000 00a0 4cd7 9e3f
00000160: 0000 00a0 4c5e 7e3f 0000 0060 b447 abbf
00000170: 0000 0060 26c0 ac3f 0000 0020 92fb a43f
00000180: 0000 0060 7d73 a03f 0000 00c0 9d6e afbf
00000190: 0000 0060 29a4 bd3f 0000 00c0 ca63 a13f
000001a0: 0000 0020 c40a babf 0000 00c0 b032 893f
000001b0: 0000 00a0 aeed 823f 0000 00c0 ed15 9dbf
000001c0: 0000 00a0 a83e ac3f 0000 00a0 2cc3 8dbf
000001d0: 0000 00e0 ad60 a33f 0000 0080 249b 943f
000001e0: 0000 0000 7fb2 aabf 0000 00c0 adb9 883f
000001f0: 0000 0080 8f94 99bf 0000 0080 b4bb b8bf
00000200: 0000 00e0 5d18 a3bf 0000 0080 24c5 a9bf
00000210: 0000 0060 7f2f 963f 0000 0060 ebf8 a33f
00000220: 0000 00a0 74a5 af3f 0000 0000 d0b3 c1bf
00000230: 0000 0060 39c5 bbbf 0000 0000 ff4d b5bf
00000240: 0000 00e0 f1d1 b1bf 0000 00c0 d793 adbf
00000250: 0000 00e0 9976 94bf 0000 00c0 4da4 b8bf
00000260: 0000 0020 395b 7cbf 0000 0060 a952 86bf
00000270: 0000 0080 5a3f b8bf 0000 00a0 df0d b93f
00000280: 0000 00a0 c802 ab3f 0000 0040 fb1b 833f
00000290: 0000 00c0 815b a43f 0000 00c0 1aa5 a03f
000002a0: 0000 0020 f973 9bbf 0000 0060 f12c 863f
000002b0: 0000 0040 a21a 88bf 0000 00e0 bffc babf
000002c0: 0000 0000 d183 b53f 0000 0040 5687 b6bf
000002d0: 0000 0020 ad53 743f 0000 0080 bfad a03f
000002e0: 0000 00a0 6130 7e3f 0000 0020 4acb ba3f
000002f0: 0000 0040 ed7b c03f 0000 00c0 04f9 b33f
00000300: 0000 00e0 5a26 afbf 0000 0060 4af1 b3bf
00000310: 0000 0020 2f63 bc3f 0000 0020 03bc a6bf
00000320: 0000 0020 6e18 c2bf 0000 0000 4e41 a53f
00000330: 0000 0000 5172 7e3f 0000 0040 80bd bc3f
00000340: 0000 0060 5e21 62bf 0000 0000 28f1 a03f
00000350: 0000 0000 9a7b b93f 0000 0080 080c 9abf
00000360: 0000 00e0 1875 b3bf 0000 00c0 6c61 c7bf
00000370: 0000 0080 8a15 6dbf 0000 0020 4b37 933f
00000380: 0000 00a0 18b2 b5bf 0000 00c0 ca69 a13f
00000390: 0000 0040 d54c b3bf 0000 00c0 92da a73f
000003a0: 0000 00e0 f4d6 a83f 0000 0020 6abb babf
000003b0: 0000 0040 f371 b2bf 0000 00c0 9cea c2bf
000003c0: 0000 00e0 9f2b be3f 0000 0040 f2cf b43f
000003d0: 0000 0040 12f9 b63f 0000 0040 5f4e b2bf
000003e0: 0000 0000 aeea bb3f 0000 00e0 305b ba3f
000003f0: 0000 0080 c3a8 b83f 0000 00e0 1ccd 963f
00000400: 0000 00a0 0f81 a5bf 0000 00a0 a3c7 b73f
00000410: 0000 0000 5a97 b6bf 0000 0040 8042 4abf
00000420: 0000 0040 9a83 a7bf 0000 0080 5cb9 a43f
00000430: 0000 00a0 6a46 b73f 0000 0000 58da 71bf
00000440: 0000 00e0 4f43 c2bf 0000 0020 9d76 a93f
00000450: 0000 0000 3cdd 8ebf 0000 0080 4223 9d3f
00000460: 0000 00c0 62c6 763f 0000 0020 1bf2 a63f
00000470: 0000 0040 d9bd b3bf 0000 00a0 fced a1bf
00000480: 0000 00a0 846a b33f 0000 00a0 647f c6bf
00000490: 0000 00e0 7777 7abf 0000 00c0 ab24 b6bf
000004a0: 0000 00c0 8eb1 873f 0000 00c0 562e 9d3f
000004b0: 0000 0040 72e9 79bf 0000 0080 838c c0bf
000004c0: 0000 00a0 5431 b43f 0000 0040 c5bf c13f
000004d0: 0000 00e0 31c2 c33f 0000 00a0 ae4c a73f
000004e0: 0000 00c0 8d1d a03f 0000 0080 8eaf 883f
000004f0: 0000 0000 9297 b73f 0000 00e0 9b97 a7bf
00000500: 0000 0060 c7d0 ad3f 0000 0080 20be c0bf
00000510: 0000 0020 7425 75bf 0000 0000 4771 b33f
00000520: 0000 0020 1bbd b73f 0000 0080 8a4c a83f
00000530: 0000 0000 0410 af3f 0000 00c0 1882 bdbf
00000540: 0000 0040 4302 86bf 0000 00e0 122e c0bf
00000550: 0000 0000 7674 a13f 0000 00c0 aba3 823f
00000560: 0000 0040 eb0a c1bf 0000 00a0 4c6c a43f
00000570: 0000 0000 e444 cabf 0000 00c0 1dff 8abf
00000580: 0000 0000 da0c b3bf 0000 0020 87cb acbf
00000590: 0000 0060 f723 723f 0000 0060 dd3c a1bf
000005a0: 0000 00c0 b67e b33f 0000 00c0 853b 9dbf
000005b0: 0000 0060 9426 bd3f 0000 00a0 52fd b93f
000005c0: 0000 00c0 71b2 c03f 0000 0020 2ef0 bd3f
000005d0: 0000 0000 b7dd b23f 0000 0020 8bd7 653f
000005e0: 0000 0020 e024 aebf 0000 00a0 dc35 c03f
000005f0: 0000 00c0 a61d c03f 0000 0080 3b93 57bf
00000600: 0000 00a0 fa93 933f 0000 00c0 c74a 98bf
00000610: 0000 00a0 232e a13f 0000 00a0 07b9 8e3f
00000620: 0000 0020 d7f1 c33f 0000 00e0 cdc6 bb3f
00000630: 0000 0080 9230 b0bf 0000 00c0 1eae b7bf
00000640: 0000 0040 f163 c33f 0000 0060 5c01 b33f
00000650: 0000 0000 e119 b83f 0000 00e0 bda6 9fbf
00000660: 0000 00e0 29d4 b7bf 0000 0040 30f0 a23f
00000670: 0000 0040 d470 9e3f 0000 0000 3723 92bf
00000680: 0000 0020 7371 a9bf 0000 00a0 bcd0 9c3f
00000690: 0000 0040 fffa b63f 0000 00a0 d70e b8bf
000006a0: 0000 0000 84f8 963f 0000 0000 37e1 b9bf
000006b0: 0000 00a0 6811 c3bf 0000 00c0 5672 b43f
000006c0: 0000 00e0 cc41 bbbf 0000 0020 03fb b7bf
000006d0: 0000 00a0 096f bcbf 0000 00e0 da1f c1bf
000006e0: 0000 00c0 798f b2bf 0000 0080 88e1 923f
000006f0: 0000 0020 9114 b53f 0000 0060 ab7f a9bf
00000700: 0000 0020 0c91 a7bf 0000 0000 2702 b83f
00000710: 0000 0020 6090 943f 0000 00c0 1080 a23f
00000720: 0000 00c0 4beb 8dbf 0000 0000 8363 bb3f
00000730: 0000 00a0 9f9c a3bf 0000 0080 7484 9bbf
00000740: 0000 0020 4fb4 b43f 0000 0080 1f63 c03f
00000750: 0000 0040 ad37 b93f 0000 0000 f7d4 603f
00000760: 0000 0060 a409 b9bf 0000 0040 7b3c b13f
00000770: 0000 00a0 89d0 4abf 0000 0080 04d6 90bf
00000780: 0000 0020 8b0f b73f 0000 0080 1fa2 a73f
00000790: 0000 0020 aa56 993f 0000 0000 3fd2 993f
000007a0: 0000 0080 4ef1 923f 0000 0020 7f1c b23f
000007b0: 0000 0060 3a42 b23f 0000 00a0 f0bb 133f
000007c0: 0000 00c0 1d5e 963f 0000 0000 bc84 bdbf
000007d0: 0000 0040 ad61 b93f 0000 00e0 83b5 b3bf
000007e0: 0000 0020 a986 a63f 0000 0020 901d abbf
000007f0: 0000 00a0 7c37 893f 0000 0060 42c9 973f

conv3.conv3_a.weight f8 [64, 32, 3, 3]
0.03970501944422722 -0.10075698792934418 0.08178918808698654 0.07040461897850037 -0.007273221854120493 0.0933808907866478 -0.08122188597917557 0.06306859850883484
-0.06636025756597519 -0.045153193175792694 0.08873077481985092 0.08294904232025146 0.057610634714365005 -0.0007179826498031616 -0.05830603092908859 -0.07947053760290146
-0.01970054768025875 -0.014315549284219742 -0.00767142791301012 0.013921626843512058 0.03548619523644447 0.05587188899517059 0.02462846226990223 -0.07805061340332031
0.016133377328515053 -0.08477170765399933 0.029071463271975517 0.06527814269065857 0.03750760853290558 -0.07452046126127243 0.08918796479701996 0.005482293199747801
0.10518129169940948 -0.02508673258125782 -0.04997454211115837 -0.003010268323123455 0.04390972852706909 0.06592241674661636 -0.0739872083067894 -0.05819755047559738
-0.09066273272037506 -0.10680941492319107 0.027587546035647392 0.018052391707897186 0.02415313571691513 -0.03868391364812851 -0.009448290802538395 0.016641808673739433
-0.00307247182354331 0.02646743878722191 -0.08137888461351395 0.053945355117321014 0.07517547160387039 0.030083803460001945 0.09553567320108414 0.049708008766174316
-0.05001102387905121 0.015740415081381798 0.018369708210229874 0.019331147894263268 -0.0693938285112381 0.02191406674683094 0.0915854349732399 -0.09958628565073013
-0.009860498830676079 -0.04439440742135048 -0.03206520527601242 0.09914647787809372 0.0947289764881134 0.027339544147253036 -0.09278064966201782 -0.07113759964704514
-0.07345792651176453 0.08259325474500656 0.052555713802576065 -0.08453081548213959 0.04054940864443779 0.026249805465340614 0.04237431287765503 -0.09870324283838272
-0.08037988841533661 -0.0944616049528122 0.018056323751807213 0.050389792770147324 0.07847950607538223 -0.0375976599752903 0.08555179834365845 0.05649795010685921
0.009509965777397156 -0.051642175763845444 -0.08639219403266907 0.013617688789963722 0.06188550591468811 0.07032658904790878 -0.09496545046567917 0.050325050950050354
-0.0066078947857022285 -0.09649074077606201 0.05162258446216583 0.003525792621076107 -0.006127116270363331 -0.02099924348294735 -0.05453396216034889 0.018169712275266647
-0.04285616800189018 -0.04919855296611786 -0.06241926923394203 -0.03732592612504959 -0.03448983654379845 -0.10007242113351822 -0.09544612467288971 -0.02179345302283764
-0.003408808261156082 -0.01678934320807457 0.032421864569187164 -0.0047447863034904 -0.07584796100854874 -0.03318965435028076 -0.0001962093374459073 0.00036102411104366183
-0.07539736479520798 -0.09021888673305511 0.07893048971891403 0.01735793426632881 -0.0169113390147686 0.0641755536198616 -0.0979057252407074 -0.053285643458366394
-0.0984945297241211 0.04457564651966095 -0.001423332840204239 -0.014815596863627434 -0.016050148755311966 -0.0005190566298551857 -0.09792082756757736 0.01901458017528057
-0.029452430084347725 -0.03982371464371681 0.038513269275426865 0.07782848924398422 -0.07467401027679443 -0.07230311632156372 -0.002193332416936755 0.06355239450931549
0.09774225205183029 -0.07085803896188736 -0.0015362192643806338 -0.07118036597967148 -0.032634370028972626 -0.04663676396012306 -0.059873636811971664 0.0842072069644928
0.08374152332544327 -0.09067805856466293 -0.10058818757534027 0.03173981234431267 -0.0858772024512291 -0.0014217561110854149 0.08809350430965424 -0.0188361257314682
-0.01606997847557068 0.09352045506238937 0.03416893631219864 -0.012257111258804798 -0.05219266936182976 -0.07521306723356247 -0.0007888372056186199 -0.03747538477182388
-0.012814691290259361 0.0673520416021347 0.06257093697786331 -0.07373790442943573 0.09631338715553284 -0.06093033775687218 0.08302520215511322 0.09015592187643051
-0.020726419985294342 0.020634911954402924 0.10296577215194702 0.10233834385871887 0.06252662092447281 0.017559582367539406 0.041298285126686096 -0.060755543410778046
-0.013897251337766647 -0.001756729674525559 0.020831424742937088 -0.01359256450086832 0.08809590339660645 0.002028503455221653 0.06479988247156143 -0.09880310297012329
-0.02084042690694332 0.014408917166292667 -0.10237408429384232 0.03004012629389763 -0.053024765104055405 -0.03940455615520477 0.03710912540555 -0.07491343468427658
-0.0890863686800003 0.08801910281181335 -0.07215063273906708 -0.03961885720491409 -0.07189835608005524 0.05266588553786278 -0.004172847140580416 0.07247106730937958
-0.07311643660068512 0.05982423201203346 0.09391097724437714 -0.08602859824895859 -0.012602739036083221 0.04563939571380615 -0.040807127952575684 -0.06318612396717072
-0.07591649144887924 0.09420036524534225 -0.0321091003715992 -0.09147115051746368 0.06620104610919952 -0.07562191784381866 0.016227077692747116 0.04797399789094925
0.07862270623445511 0.07529543340206146 -0.08075731247663498 0.08668167144060135 -0.002702193334698677 0.0812801942229271 0.05042805150151253 -0.06906795501708984
0.08524376899003983 -0.04196058213710785 0.049194227904081345 0.03189757093787193 -0.04803198575973511 0.05735301598906517 -0.07269375026226044 -0.07435983419418335
0.024974973872303963 0.038139622658491135 0.0738295316696167 -0.08243148028850555 -0.014568823389708996 0.0005077609093859792 -0.019219886511564255 -0.09019757062196732
0.0039313314482569695 0.08902869373559952 -0.07800070196390152 -0.07065554708242416 0.10008368641138077 -0.03396708890795708 0.09495335072278976 -0.060248296707868576
00000000: 0000 0060 3754 a43f 0000 00c0 35cb b9bf
00000010: 0000 00e0 22f0 b43f 0000 0080 0906 b23f
00000020: 0000 00a0 86ca 7dbf 0000 0060 cfe7 b73f
00000030: 0000 0020 f5ca b4bf 0000 0080 4325 b03f
00000040: 0000 0060 fcfc b0bf 0000 00c0 511e a7bf
00000050: 0000 0060 0fb7 b63f 0000 0000 263c b53f
00000060: 0000 0020 247f ad3f 0000 0000 e086 47bf
00000070: 0000 00c0 49da adbf 0000 0060 2e58 b4bf
00000080: 0000 0060 612c 94bf 0000 0080 7851 8dbf
00000090: 0000 0040 136c 7fbf 0000 0020 f182 8c3f
000000a0: 0000 0020 3f2b a23f 0000 0080 3d9b ac3f
000000b0: 0000 0020 3438 993f 0000 0000 20fb b3bf
000000c0: 0000 00a0 4485 903f 0000 0040 99b3 b5bf
000000d0: 0000 00e0 e8c4 9d3f 0000 0080 11b6 b03f
000000e0: 0000 0080 3234 a33f 0000 00e0 c513 b3bf
000000f0: 0000 00c0 05d5 b63f 0000 00e0 9974 763f
00000100: 0000 0040 29ed ba3f 0000 0020 56b0 99bf
00000110: 0000 0060 4396 a9bf 0000 0080 fda8 68bf
00000120: 0000 0000 567b a63f 0000 00a0 4ae0 b03f
00000130: 0000 0060 d3f0 b2bf 0000 00c0 11cc adbf
00000140: 0000 0040 ac35 b7bf 0000 00a0 dc57 bbbf
00000150: 0000 00e0 e83f 9c3f 0000 0080 537c 923f
00000160: 0000 0080 99bb 983f 0000 00c0 60ce a3bf
00000170: 0000 0020 a059 83bf 0000 00e0 8c0a 913f
00000180: 0000 00c0 702b 69bf 0000 00c0 471a 9b3f
00000190: 0000 0020 3fd5 b4bf 0000 00c0 b99e ab3f
000001a0: 0000 0020 b33e b33f 0000 00e0 49ce 9e3f
000001b0: 0000 00a0 0675 b83f 0000 0000 5473 a93f
000001c0: 0000 0080 0b9b a9bf 0000 0060 411e 903f
000001d0: 0000 0040 82cf 923f 0000 0060 8bcb 933f
000001e0: 0000 0040 cbc3 b1bf 0000 0020 a470 963f
000001f0: 0000 00a0 2472 b73f 0000 00a0 7c7e b9bf
00000200: 0000 00c0 bd31 84bf 0000 0020 ddba a6bf
00000210: 0000 00c0 d96a a0bf 0000 00e0 a961 b93f
00000220: 0000 0080 2840 b83f 0000 00c0 e5fe 9b3f
00000230: 0000 0000 79c0 b7bf 0000 00e0 1236 b2bf
00000240: 0000 0080 23ce b2bf 0000 00e0 d424 b53f
00000250: 0000 0020 95e8 aa3f 0000 00c0 cfa3 b5bf
00000260: 0000 0060 e4c2 a43f 0000 00a0 3ae1 9a3f
00000270: 0000 0000 16b2 a53f 0000 00a0 9d44 b9bf
00000280: 0000 00c0 c693 b4bf 0000 00c0 a22e b8bf
00000290: 0000 0060 5b7d 923f 0000 00e0 b0cc a93f
000002a0: 0000 00a0 3b17 b43f 0000 0020 0040 a3bf
000002b0: 0000 0000 b9e6 b53f 0000 00a0 4ced ac3f
000002c0: 0000 0000 f679 833f 0000 00e0 d770 aabf
000002d0: 0000 0080 cc1d b6bf 0000 0040 97e3 8b3f
000002e0: 0000 0000 75af af3f 0000 0060 ec00 b23f
000002f0: 0000 00e0 a74f b8bf 0000 0080 34c4 a93f
00000300: 0000 0040 e110 7bbf 0000 0000 9eb3 b8bf
00000310: 0000 0080 466e aa3f 0000 0080 1fe2 6c3f
00000320: 0000 0040 bf18 79bf 0000 0060 d380 95bf
00000330: 0000 0020 e0eb abbf 0000 00c0 149b 923f
00000340: 0000 0060 3ef1 a5bf 0000 0080 8d30 a9bf
00000350: 0000 0020 6bf5 afbf 0000 0040 621c a3bf
00000360: 0000 00e0 a6a8 a1bf 0000 00a0 589e b9bf
00000370: 0000 0040 286f b8bf 0000 00e0 0551 96bf
00000380: 0000 0000 caec 6bbf 0000 00c0 3931 91bf
00000390: 0000 0040 9999 a03f 0000 00e0 446f 73bf
000003a0: 0000 00a0 c56a b3bf 0000 0000 3cfe a0bf
000003b0: 0000 0060 b1b7 29bf 0000 00c0 faa8 373f
000003c0: 0000 00e0 3d4d b3bf 0000 00c0 9518 b7bf
000003d0: 0000 00e0 c934 b43f 0000 0040 47c6 913f
000003e0: 0000 00c0 3451 91bf 0000 0020 cf6d b03f
000003f0: 0000 0080 5910 b9bf 0000 0080 4148 abbf
00000400: 0000 0000 f036 b9bf 0000 0080 9ed2 a63f
00000410: 0000 0000 e451 57bf 0000 00c0 a357 8ebf
00000420: 0000 0040 736f 90bf 0000 00a0 2902 41bf
00000430: 0000 00e0 5611 b9bf 0000 00e0 8e78 933f
00000440: 0000 0020 c728 9ebf 0000 0020 c663 a4bf
00000450: 0000 00e0 02b8 a33f 0000 0060 91ec b33f
00000460: 0000 0000 d61d b3bf 0000 0000 7582 b2bf
00000470: 0000 0060 c0f7 61bf 0000 0040 f844 b03f
00000480: 0000 00e0 a205 b93f 0000 00a0 c023 b2bf
00000490: 0000 00e0 5e2b 59bf 0000 0060 e038 b2bf
000004a0: 0000 00c0 73b5 a0bf 0000 0020 c6e0 a7bf
000004b0: 0000 00e0 c1a7 aebf 0000 0080 9a8e b53f
000004c0: 0000 00a0 1570 b53f 0000 0060 ad36 b7bf
000004d0: 0000 00c0 25c0 b9bf 0000 0060 3340 a03f
000004e0: 0000 0060 0cfc b5bf 0000 0000 474b 57bf
000004f0: 0000 00c0 4b8d b63f 0000 0000 c749 93bf
00000500: 0000 0000 a674 90bf 0000 00e0 f4f0 b73f
00000510: 0000 0040 977e a13f 0000 00a0 411a 89bf
00000520: 0000 0060 ffb8 aabf 0000 00e0 2941 b3bf
00000530: 0000 0000 3fd9 49bf 0000 0040 f92f a3bf
00000540: 0000 00c0 963e 8abf 0000 00c0 fb3d b13f
00000550: 0000 0020 a604 b03f 0000 00c0 7ce0 b2bf
00000560: 0000 0080 fea7 b83f 0000 00e0 4232 afbf
00000570: 0000 00c0 2341 b53f 0000 0060 7514 b73f
00000580: 0000 0080 4e39 95bf 0000 0080 5121 953f
00000590: 0000 0000 f75b ba3f 0000 0080 d832 ba3f
000005a0: 0000 00a0 be01 b03f 0000 00a0 23fb 913f
000005b0: 0000 0080 0c25 a53f 0000 00c0 591b afbf
000005c0: 0000 0080 2976 8cbf 0000 0020 42c8 5cbf
000005d0: 0000 0040 d554 953f 0000 0020 6bd6 8bbf
000005e0: 0000 0000 748d b63f 0000 0080 149e 603f
000005f0: 0000 00a0 b996 b03f 0000 0000 294b b9bf
00000600: 0000 0060 3157 95bf 0000 0020 6c82 8d3f
00000610: 0000 0020 3035 babf 0000 00c0 d6c2 9e3f
00000620: 0000 00e0 0f26 abbf 0000 0080 d52c a4bf
00000630: 0000 00a0 f7ff a23f 0000 00e0 862d b3bf
00000640: 0000 0040 5dce b6bf 0000 0080 6b88 b63f
00000650: 0000 00c0 7678 b2bf 0000 0040 ec48 a4bf
00000660: 0000 0040 ee67 b2bf 0000 00e0 05f7 aa3f
00000670: 0000 0020 8c17 71bf 0000 00c0 768d b23f
00000680: 0000 0040 c2b7 b2bf 0000 0020 48a1 ae3f
00000690: 0000 00c0 8c0a b83f 0000 0060 f805 b6bf
000006a0: 0000 0000 77cf 89bf 0000 0000 0c5e a73f
000006b0: 0000 0000 ace4 a4bf 0000 0040 f72c b0bf
000006c0: 0000 0060 436f b3bf 0000 00e0 831d b83f
000006d0: 0000 00a0 9a70 a0bf 0000 0040 a76a b7bf
000006e0: 0000 0040 8df2 b03f 0000 0040 f55b b3bf
000006f0: 0000 00c0 d49d 903f 0000 0040 0c90 a83f
00000700: 0000 0020 9e20 b43f 0000 00c0 8f46 b33f
00000710: 0000 00e0 82ac b4bf 0000 0020 c530 b63f
00000720: 0000 0000 e922 66bf 0000 0060 c7ce b43f
00000730: 0000 00a0 b4d1 a93f 0000 0000 70ae b1bf
00000740: 0000 0020 89d2 b53f 0000 0080 db7b a5bf
00000750: 0000 0060 fc2f a93f 0000 00e0 e054 a03f
00000760: 0000 0000 a697 a8bf 0000 00e0 5f5d ad3f
00000770: 0000 00c0 0e9c b2bf 0000 0000 3f09 b3bf
00000780: 0000 0020 0a93 993f 0000 0060 0987 a33f
00000790: 0000 0000 7ee6 b23f 0000 00c0 3a1a b5bf
000007a0: 0000 0060 42d6 8dbf 0000 0040 68a3 403f
000007b0: 0000 00c0 60ae 93bf 0000 0020 3017 b7bf
000007c0: 0000 00c0 4c1a 703f 0000 00a0 95ca b63f
000007d0: 0000 00a0 daf7 b3bf 0000 0060 7b16 b2bf
000007e0: 0000 00a0 159f b93f 0000 0060 2264 a1bf
000007f0: 0000 00e0 dc4e b83f 0000 0060 ddd8 aebf

fuse_a.weight f8 [1, 112, 3, 3]
-0.007878090254962444 -0.009458485059440136 -0.004637452308088541 -0.004089284688234329 -0.005928758531808853 -0.0020824852399528027 0.0004618277889676392 -0.0018299517687410116
0.00016949068231042475 -0.0019516210304573178 -0.00014524666767101735 -0.0032602755818516016 -0.004066993482410908 -0.0020461061503738165 -0.004698188975453377 -0.007201207336038351
-0.0049439347349107265 -0.006660448387265205 -0.0036785246338695288 -0.0032709152437746525 -0.0026843450032174587 -0.0034979558549821377 -0.002854221500456333 -0.0019105894025415182
-0.003871734719723463 -0.0032499583903700113 -0.0023429126013070345 -0.006704943720251322 -0.006640178617089987 -0.007146710529923439 -0.007272256072610617 -0.006960252299904823
-0.0076535786502063274 -0.008388594724237919 -0.00792043749243021 -0.008551702834665775 0.006974301766604185 0.010714299976825714 0.007715198677033186 0.003755504498258233
0.007351532578468323 0.005058798473328352 -0.0003093140257988125 0.0032748468220233917 0.002367237349972129 2.7710682843462564e-05 -0.00235005677677691 -0.0029024339746683836
0.0004774654807988554 -0.0017235984560102224 -0.0020769203547388315 0.0006980016478337348 -0.001059127040207386 -0.0013073076261207461 0.006757205817848444 0.004927260801196098
0.004277662839740515 0.007165626622736454 0.005918644368648529 0.005924373399466276 0.008047306910157204 0.007399462163448334 0.007816435769200325 -0.001992396777495742
-0.00036623189225792885 -0.0036669080145657063 -0.004829984623938799 -0.00304715009406209 -0.00575780775398016 -0.00826091319322586 -0.006215414498001337 -0.007782727479934692
-0.0021607978269457817 -0.004534625913947821 -0.00229173107072711 -3.5977918741991743e-05 -0.002703921403735876 -0.0013189755845814943 0.001675449195317924 -0.0012950622476637363
-0.001104395603761077 0.006765815429389477 0.009351061657071114 0.007800091989338398 0.004945280496031046 0.007421726360917091 0.0061620078049600124 0.0021656942553818226
0.004558205604553223 0.004217363428324461 0.009852468967437744 0.007855166681110859 0.008204956538975239 0.011125950142741203 0.009529361501336098 0.009775851853191853
0.012198016047477722 0.010931143537163734 0.010997528210282326 0.0010768716456368566 0.004045938607305288 0.0019210948375985026 -0.0018665269017219543 0.0010588064324110746
-0.00036162068136036396 -0.006043967325240374 -0.0030498020350933075 -0.003446107031777501 -0.0033992300741374493 -0.006532581057399511 -0.004404112696647644 -0.0002612036478240043
-0.003313549794256687 -0.001758293597958982 0.0033081122674047947 0.0002968506596516818 0.0006958929589018226 -0.0069983419962227345 -0.007422554772347212 -0.006441900506615639
-0.006608732044696808 -0.007226321846246719 -0.006531829945743084 -0.005664704833179712 -0.006435723509639502 -0.006161336787045002 -0.0055084433406591415 -0.005464609712362289
-0.005687258671969175 -0.007084040902554989 -0.007148209027945995 -0.007290005683898926 -0.008525136858224869 -0.008610953576862812 -0.008516849018633366 0.0004922245861962438
-0.0019430866232141852 -0.0007765315822325647 0.004135100170969963 0.0014259907184168696 0.0019103592494502664 0.007711637299507856 0.004884050693362951 0.004187396727502346
-0.013399585150182247 -0.02371201477944851 -0.03458970785140991 -0.007838132791221142 -0.017392702400684357 -0.02762577310204506 -0.0038212507497519255 -0.012820973061025143
-0.022364642471075058 0.00910901464521885 0.006969562731683254 0.004290497396141291 0.007839255966246128 0.007050687912851572 0.005694438703358173 0.006492689251899719
0.006993147078901529 0.007017748896032572 0.00238973181694746 0.00908299908041954 0.018031874671578407 -0.0005416443455033004 0.006341191940009594 0.014798999764025211
-0.0025165225379168987 0.00467449938878417 0.012767822481691837 0.0009901013690978289 0.010387908667325974 0.022357124835252762 -0.0013198873493820429 0.007405486423522234
0.01800462417304516 -0.0020085202995687723 0.006181168369948864 0.015342638827860355 -0.006190402898937464 -0.016101807355880737 -0.02731279656291008 -0.0014169570058584213
-0.010971395298838615 -0.021610919386148453 0.0016677980311214924 -0.0075150057673454285 -0.017439167946577072 0.005838874727487564 0.010722856968641281 0.016951847821474075
0.0032922772224992514 0.008604597300291061 0.014637951739132404 0.0009662058437243104 0.006933819968253374 0.013058199547231197 0.0016165294218808413 -0.005811541341245174
-0.014104887843132019 0.004414308350533247 -0.0021374160423874855 -0.00968724675476551 0.005472451448440552 -0.00015680037904530764 -0.0067705619148910046 0.005310224834829569
0.015519395470619202 0.026289498433470726 0.003048122860491276 0.011852627620100975 0.021100766956806183 0.002717353170737624 0.010244825854897499 0.017879897728562355
-0.009029803797602654 -0.008040611632168293 -0.0057495697401463985 -0.008473693393170834 -0.008707374334335327 -0.008145872503519058 -0.007241781800985336 -0.00835180189460516
-0.009207312949001789 0.00877666100859642 0.012228293344378471 0.01353812962770462 0.005917195230722427 0.010307397693395615 0.01265659462660551 0.002930654911324382
0.008181699551641941 0.011834770441055298 -0.00473819300532341 -0.015592728741466999 -0.025662831962108612 -0.0017197435954585671 -0.010568461380898952 -0.018991602584719658
-0.0003041386662516743 -0.007250587455928326 -0.013907319866120815 0.009662835858762264 0.019550809636712074 0.028431762009859085 0.0054609631188213825 0.01474066823720932
0.023055315017700195 0.0029630304779857397 0.011528932489454746 0.019216295331716537 0.0015990976244211197 0.004419100936502218 0.0067528956569731236 -0.0012450087815523148
00000000: 0000 0060 6322 80bf 0000 0060 f85e 83bf
00000010: 0000 00a0 b8fe 72bf 0000 0000 edbf 70bf
00000020: 0000 0000 c148 78bf 0000 00c0 490f 61bf
00000030: 0000 0040 2f44 3e3f 0000 00c0 5ffb 5dbf
00000040: 0000 00e0 2937 263f 0000 0020 b1f9 5fbf
00000050: 0000 0060 ab09 23bf 0000 0020 4bb5 6abf
00000060: 0000 0040 8da8 70bf 0000 00e0 fec2 60bf
00000070: 0000 0080 683e 73bf 0000 0060 037f 7dbf
00000080: 0000 0060 1740 74bf 0000 0080 fc47 7bbf
00000090: 0000 00e0 6c22 6ebf 0000 0040 9bcb 6abf
000000a0: 0000 00c0 7afd 65bf 0000 00c0 bea7 6cbf
000000b0: 0000 0080 bc61 67bf 0000 00c0 974d 5fbf
000000c0: 0000 00c0 9db7 6fbf 0000 0020 a89f 6abf
000000d0: 0000 00a0 7131 63bf 0000 00a0 a476 7bbf
000000e0: 0000 0060 bb32 7bbf 0000 0080 de45 7dbf
000000f0: 0000 0060 83c9 7dbf 0000 0080 5a82 7cbf
00000100: 0000 00e0 5b59 7fbf 0000 0020 0a2e 81bf
00000110: 0000 0020 9738 80bf 0000 0020 8e83 81bf
00000120: 0000 00e0 1591 7c3f 0000 0000 61f1 853f
00000130: 0000 00e0 f899 7f3f 0000 0020 ddc3 6e3f
00000140: 0000 0000 a41c 7e3f 0000 00e0 88b8 743f
00000150: 0000 00a0 6d45 34bf 0000 0000 dad3 6a3f
00000160: 0000 00e0 7464 633f 0000 00a0 870e fd3e
00000170: 0000 0020 6d40 63bf 0000 0060 d8c6 67bf
00000180: 0000 00a0 8a4a 3f3f 0000 00c0 4b3d 5cbf
00000190: 0000 0020 9e03 61bf 0000 0020 43df 463f
000001a0: 0000 0000 4d5a 51bf 0000 00e0 3e6b 55bf
000001b0: 0000 00a0 71ad 7b3f 0000 0080 9b2e 743f
000001c0: 0000 0060 7485 713f 0000 0040 b459 7d3f
000001d0: 0000 0000 263e 783f 0000 00e0 2744 783f
000001e0: 0000 0040 1b7b 803f 0000 0000 e64e 7e3f
000001f0: 0000 0040 1002 803f 0000 00e0 5b52 60bf
00000200: 0000 0000 5a00 38bf 0000 0040 100a 6ebf
00000210: 0000 0020 9bc8 73bf 0000 0040 56f6 68bf
00000220: 0000 00c0 7f95 77bf 0000 0000 19eb 80bf
00000230: 0000 00a0 5575 79bf 0000 0000 c8e0 7fbf
00000240: 0000 0080 85b3 61bf 0000 0060 e692 72bf
00000250: 0000 00c0 1bc6 62bf 0000 00e0 dfdc 02bf
00000260: 0000 00c0 8826 66bf 0000 0040 2f9c 55bf
00000270: 0000 00e0 5773 5b3f 0000 0080 e237 55bf
00000280: 0000 00c0 2b18 52bf 0000 00c0 78b6 7b3f
00000290: 0000 0040 a626 833f 0000 0040 fdf2 7f3f
000002a0: 0000 00a0 8041 743f 0000 0080 3e66 7e3f
000002b0: 0000 0060 553d 793f 0000 0040 cabd 613f
000002c0: 0000 0000 a0ab 723f 0000 00e0 3946 713f
000002d0: 0000 0000 882d 843f 0000 00a0 5e16 803f
000002e0: 0000 00a0 c2cd 803f 0000 00c0 33c9 863f
000002f0: 0000 0040 2184 833f 0000 00a0 5c05 843f
00000300: 0000 0000 46fb 883f 0000 0040 1163 863f
00000310: 0000 0040 df85 863f 0000 0020 baa4 513f
00000320: 0000 0060 7992 703f 0000 00e0 a779 5f3f
00000330: 0000 0000 c894 5ebf 0000 00c0 f458 513f
00000340: 0000 0000 fdb2 37bf 0000 0020 8fc1 78bf
00000350: 0000 0000 e6fb 68bf 0000 00a0 023b 6cbf
00000360: 0000 00c0 b3d8 6bbf 0000 0060 e8c1 7abf
00000370: 0000 0000 0c0a 72bf 0000 0020 451e 31bf
00000380: 0000 0080 0425 6bbf 0000 0060 d1ce 5cbf
00000390: 0000 0040 9d19 6b3f 0000 00e0 5374 333f
000003a0: 0000 00c0 92cd 463f 0000 0020 4baa 7cbf
000003b0: 0000 00e0 1c67 7ebf 0000 0080 d262 7abf
000003c0: 0000 0000 c211 7bbf 0000 0000 5999 7dbf
000003d0: 0000 00c0 1ec1 7abf 0000 00a0 df33 77bf
000003e0: 0000 0060 585c 7abf 0000 0040 a13c 79bf
000003f0: 0000 0080 0590 76bf 0000 0000 0f62 76bf
00000400: 0000 00e0 854b 77bf 0000 00c0 2704 7dbf
00000410: 0000 00c0 7047 7dbf 0000 0000 20dc 7dbf
00000420: 0000 0080 a075 81bf 0000 00a0 9ea2 81bf
00000430: 0000 0020 4871 81bf 0000 0040 1421 403f
00000440: 0000 0060 e5d5 5fbf 0000 00e0 0472 49bf
00000450: 0000 0080 f7ef 703f 0000 00e0 095d 573f
00000460: 0000 00a0 a04c 5f3f 0000 00e0 3c96 7f3f
00000470: 0000 0060 4c01 743f 0000 00c0 cd26 713f
00000480: 0000 00e0 3d71 8bbf 0000 0060 f647 98bf
00000490: 0000 0000 beb5 a1bf 0000 0060 700d 80bf
000004a0: 0000 0080 64cf 91bf 0000 0040 ee49 9cbf
000004b0: 0000 0060 be4d 6fbf 0000 00e0 e141 8abf
000004c0: 0000 00c0 c1e6 96bf 0000 0040 bfa7 823f
000004d0: 0000 00c0 1d8c 7c3f 0000 00a0 e992 713f
000004e0: 0000 0020 070e 803f 0000 00a0 2ee1 7c3f
000004f0: 0000 0040 0d53 773f 0000 0000 1498 7a3f
00000500: 0000 00a0 d8a4 7c3f 0000 00a0 a4be 7c3f
00000510: 0000 0080 a193 633f 0000 0080 1b9a 823f
00000520: 0000 00a0 f276 923f 0000 0060 a4bf 41bf
00000530: 0000 00c0 38f9 793f 0000 0020 f04e 8e3f
00000540: 0000 00c0 879d 64bf 0000 0060 9125 733f
00000550: 0000 0020 0426 8a3f 0000 0040 c938 503f
00000560: 0000 0080 4146 853f 0000 0040 c9e4 963f
00000570: 0000 0040 02a0 55bf 0000 0020 3755 7e3f
00000580: 0000 00e0 cd6f 923f 0000 0020 2c74 60bf
00000590: 0000 00c0 6c51 793f 0000 0020 f66b 8f3f
000005a0: 0000 00a0 1b5b 79bf 0000 0000 fe7c 90bf
000005b0: 0000 00c0 e2f7 9bbf 0000 0000 2637 57bf
000005c0: 0000 00c0 2b78 86bf 0000 0040 2c21 96bf
000005d0: 0000 0080 4053 5b3f 0000 0000 0ec8 7ebf
000005e0: 0000 00c0 92db 91bf 0000 0000 81ea 773f
000005f0: 0000 0080 ddf5 853f 0000 0040 d35b 913f
00000600: 0000 00e0 67f8 6a3f 0000 0080 499f 813f
00000610: 0000 00a0 80fa 8d3f 0000 0040 1fa9 4f3f
00000620: 0000 0020 a366 7c3f 0000 00e0 41be 8a3f
00000630: 0000 0040 377c 5a3f 0000 00c0 d7cd 77bf
00000640: 0000 0000 06e3 8cbf 0000 00e0 bc14 723f
00000650: 0000 0080 7c82 61bf 0000 0040 e8d6 83bf
00000660: 0000 0000 486a 763f 0000 0000 598d 24bf
00000670: 0000 00e0 72bb 7bbf 0000 00a0 2cc0 753f
00000680: 0000 0000 a2c8 8f3f 0000 0060 a2eb 9a3f
00000690: 0000 0080 60f8 683f 0000 00c0 3046 883f
000006a0: 0000 0080 709b 953f 0000 00e0 b342 663f
000006b0: 0000 0040 3dfb 843f 0000 00a0 1b4f 923f
000006c0: 0000 00c0 377e 82bf 0000 00a0 9877 80bf
000006d0: 0000 0060 dc8c 77bf 0000 00e0 a75a 81bf
000006e0: 0000 0000 2cd5 81bf 0000 0080 c8ae 80bf
000006f0: 0000 0000 8fa9 7dbf 0000 00e0 bf1a 81bf
00000700: 0000 00a0 48db 82bf 0000 0080 7ff9 813f
00000710: 0000 00c0 250b 893f 0000 0000 e1b9 8b3f
00000720: 0000 0000 a13c 783f 0000 0080 0b1c 853f
00000730: 0000 0060 b3eb 893f 0000 0060 0702 683f
00000740: 0000 0020 91c1 803f 0000 0000 d43c 883f
00000750: 0000 0000 5b68 73bf 0000 00a0 14ef 8fbf
00000760: 0000 0080 5b47 9abf 0000 00a0 202d 5cbf
00000770: 0000 00e0 eaa4 85bf 0000 00e0 8872 93bf
00000780: 0000 00a0 99ee 33bf 0000 00c0 cab2 7dbf
00000790: 0000 00e0 707b 8cbf 0000 00e0 1bca 833f
000007a0: 0000 00a0 2005 943f 0000 0040 371d 9d3f
000007b0: 0000 0020 3c5e 763f 0000 0000 5b30 8e3f
000007c0: 0000 0000 d09b 973f 0000 00e0 ec45 683f
000007d0: 0000 0020 7b9c 873f 0000 00c0 6fad 933f
000007e0: 0000 0000 1a33 5a3f 0000 0060 c319 723f
000007f0: 0000 00a0 eca8 7b3f 0000 0000 f265 54bf
