models/UniNet_WVU_MaskNet.pth (torch_old, 785668 bytes, 14 tensors)

m_conv1.m_conv1_a.weight f8 [16, 1, 5, 5]
-0.0795794427394867 0.008293895982205868 -0.038908086717128754 -0.03264883905649185 -0.009962804615497589 -0.09138930588960648 -0.06075289472937584 -0.054372888058423996
0.009164898656308651 0.0034827820491045713 -0.06535051763057709 0.010824437253177166 -0.1079229936003685 -0.10576142370700836 0.02577205002307892 0.05874704569578171
-0.03427613526582718 -0.11310217529535294 -0.005142309702932835 -0.08983133733272552 0.07456088066101074 -0.0910368487238884 -0.041669826954603195 -0.0816350057721138
-0.055368512868881226 -0.19699101150035858 -0.09811230003833771 -0.167435422539711 -0.04517175257205963 -0.033350151032209396 -0.10276473313570023 -0.08452468365430832
0.006520858965814114 -0.03545718640089035 0.024640530347824097 0.04369788244366646 -0.02431396022439003 0.1107349693775177 0.14679351449012756 0.068884938955307
0.019598085433244705 0.17017948627471924 0.14443817734718323 0.1468501091003418 0.21930044889450073 0.15266084671020508 0.17473149299621582 0.1688498705625534
0.22059783339500427 0.2185787856578827 -0.1347581297159195 -0.061553288251161575 -0.0760183185338974 -0.004014223348349333 0.03364291414618492 -0.01296596322208643
-0.0772319957613945 -0.008615157566964626 -0.029389893636107445 0.15472149848937988 -0.17293524742126465 -0.10102980583906174 -0.07482866942882538 0.13497401773929596
0.16557475924491882 -0.1410200446844101 -0.11269579827785492 -0.061515867710113525 0.15052105486392975 0.20278717577457428 0.001992255449295044 -0.022295190021395683
-0.052687037736177444 0.04854724556207657 0.18460768461227417 -0.22203198075294495 -0.08960501849651337 -0.0759827047586441 -0.08475017547607422 0.04483913630247116
-0.18485236167907715 -0.07087647914886475 0.033159784972667694 0.1749945729970932 0.21584387123584747 -0.1864551454782486 -0.10039495676755905 -0.02561851404607296
0.15999378263950348 0.11750121414661407 -0.12748882174491882 0.00921629834920168 0.1042545884847641 0.22197791934013367 0.28846749663352966 -0.19890441000461578
-0.12415376305580139 -0.07562939822673798 0.09621264040470123 0.14348408579826355 -0.307500422000885 -0.28133028745651245 -0.43176406621932983 -0.4416647255420685
-0.3747236132621765 -0.07219833135604858 -0.15285731852054596 -0.2115350365638733 -0.25249552726745605 -0.33208414912223816 0.16233327984809875 0.20584724843502045
0.12543365359306335 0.061165157705545425 -0.02658674865961075 0.31366753578186035 0.3715987205505371 0.33644899725914 0.24364900588989258 0.09592337906360626
0.4982220530509949 0.42475029826164246 0.4494946300983429 0.3315068483352661 0.27446454763412476 0.08362341672182083 0.3104448914527893 0.2872266471385956
0.2746869921684265 0.1952778697013855 0.3330160975456238 0.38936951756477356 0.4265729784965515 0.49616739153862 0.28286129236221313 0.29680320620536804
0.3310040235519409 0.4460156559944153 0.4605361223220825 0.36856088042259216 0.2516205608844757 0.4421911835670471 0.4423903524875641 0.31770244240760803
0.28016409277915955 0.025487059727311134 0.22035342454910278 0.08221832662820816 0.20347201824188232 0.11502274870872498 -0.06666309386491776 -0.06698009371757507
0.13206928968429565 0.18730096518993378 0.2427772879600525 -0.1107739508152008 0.02813063934445381 0.1250532865524292 0.17206834256649017 0.24756769835948944
-0.07750505954027176 0.06483257561922073 0.10080855339765549 0.12145339697599411 0.2580704987049103 -0.13960973918437958 -0.1054062470793724 -0.056401774287223816
0.12152719497680664 0.09928219020366669 -0.18108108639717102 -0.1701032966375351 -0.0993584468960762 0.0791509747505188 0.10454674810171127 -0.10596903413534164
-0.01011231355369091 -0.03465205058455467 0.05900181084871292 0.06315817683935165 0.07140438258647919 0.06194034591317177 0.23236198723316193 0.13064710795879364
0.18741554021835327 0.08804420381784439 0.22969777882099152 0.2776064872741699 0.17753912508487701 0.292557954788208 0.06200634315609932 0.24663028120994568
0.29207226634025574 0.28768470883369446 0.28681427240371704 -0.010160334408283234 0.14126303791999817 0.1505274921655655 0.15413926541805267 0.20578140020370483
-0.02874249592423439 -0.07298361510038376 -0.04916767030954361 -0.024317879229784012 0.012791530229151249 0.029474131762981415 -0.020167969167232513 -0.13251885771751404
-0.047059815376996994 0.010717550292611122 -0.015487059950828552 -0.08668714016675949 -0.07972438633441925 -0.042599234730005264 -0.08019622415304184 -0.13702797889709473
-0.13736668229103088 -0.2030271291732788 -0.06361287832260132 -0.10875772684812546 -0.18708990514278412 -0.19727785885334015 -0.2105010449886322 -0.18716001510620117
-0.14138537645339966 -0.18466831743717194 -0.29502755403518677 -0.20362535119056702 -0.20901928842067719 -0.23624417185783386 -0.2848215103149414 -0.19357548654079437
-0.08059518784284592 -0.12489862740039825 0.038039106875658035 -0.04450378566980362 -0.05826815590262413 0.03731565922498703 0.04790959879755974 0.1303178369998932
-0.07750542461872101 0.13035178184509277 0.08211827278137207 0.18024256825447083 0.24846628308296204 0.07883425056934357 0.2276357114315033 0.2716423571109772
0.21790097653865814 0.29052096605300903 0.005634943023324013 -0.09482403844594955 -0.0011172335362061858 -0.06576310843229294 -0.01847672089934349 -0.05612294748425484
00000000: 0000 0080 515f b4bf 0000 00e0 63fc 803f
00000010: 0000 00c0 c2eb a3bf 0000 0040 59b7 a0bf
00000020: 0000 0000 6167 84bf 0000 0020 4a65 b7bf
00000030: 0000 00e0 001b afbf 0000 0060 c3d6 abbf
00000040: 0000 00e0 0bc5 823f 0000 0060 ec87 6c3f
00000050: 0000 00c0 cfba b0bf 0000 0060 1f2b 863f
00000060: 0000 0060 d7a0 bbbf 0000 0040 2e13 bbbf
00000070: 0000 0000 fd63 9a3f 0000 00c0 1714 ae3f
00000080: 0000 0040 a48c a1bf 0000 00a0 43f4 bcbf
00000090: 0000 0040 1a10 75bf 0000 00c0 2fff b6bf
000000a0: 0000 0000 6c16 b33f 0000 00e0 304e b7bf
000000b0: 0000 0060 bf55 a5bf 0000 0020 08e6 b4bf
000000c0: 0000 0000 4359 acbf 0000 0060 0037 c9bf
000000d0: 0000 0040 e31d b9bf 0000 0020 866e c5bf
000000e0: 0000 0080 c020 a7bf 0000 0060 4513 a1bf
000000f0: 0000 0020 ca4e babf 0000 00e0 68a3 b5bf
00000100: 0000 00c0 9db5 7a3f 0000 00c0 7127 a2bf
00000110: 0000 0000 5e3b 993f 0000 00a0 915f a63f
00000120: 0000 0040 c2e5 98bf 0000 0080 2059 bc3f
00000130: 0000 0040 21ca c23f 0000 0080 71a2 b13f
00000140: 0000 0040 8511 943f 0000 0000 71c8 c53f
00000150: 0000 0040 f37c c23f 0000 0000 fccb c23f
00000160: 0000 0080 0912 cc3f 0000 0000 648a c33f
00000170: 0000 0000 9a5d c63f 0000 0060 df9c c53f
00000180: 0000 00c0 8c3c cc3f 0000 00c0 63fa cb3f
00000190: 0000 0020 c13f c1bf 0000 00a0 e983 afbf
000001a0: 0000 00c0 ef75 b3bf 0000 00e0 3771 70bf
000001b0: 0000 00e0 a439 a13f 0000 0020 e68d 8abf
000001c0: 0000 00e0 79c5 b3bf 0000 00e0 d2a4 81bf
000001d0: 0000 0060 6218 9ebf 0000 0000 eacd c33f
000001e0: 0000 0000 be22 c6bf 0000 00e0 16dd b9bf
000001f0: 0000 00c0 f827 b3bf 0000 0020 d446 c13f
00000200: 0000 00c0 8d31 c53f 0000 00e0 f10c c2bf
00000210: 0000 00c0 a1d9 bcbf 0000 0000 027f afbf
00000220: 0000 0020 4644 c33f 0000 0020 eef4 c93f
00000230: 0000 0000 1052 603f 0000 00e0 8cd4 96bf
00000240: 0000 00a0 cbf9 aabf 0000 0040 2fdb a83f
00000250: 0000 0080 39a1 c73f 0000 0040 8b6b ccbf
00000260: 0000 00c0 5af0 b6bf 0000 0040 9a73 b3bf
00000270: 0000 0000 30b2 b5bf 0000 00c0 27f5 a63f
00000280: 0000 0000 3ea9 c7bf 0000 0000 f624 b2bf
00000290: 0000 00c0 51fa a03f 0000 00e0 3866 c63f
000002a0: 0000 00a0 c5a0 cb3f 0000 0020 c3dd c7bf
000002b0: 0000 00e0 7bb3 b9bf 0000 0060 bd3b 9abf
000002c0: 0000 0020 ad7a c43f 0000 0040 8f14 be3f
000002d0: 0000 00c0 8d51 c0bf 0000 00a0 fedf 823f
000002e0: 0000 00c0 6db0 ba3f 0000 00c0 c569 cc3f
000002f0: 0000 0060 4076 d23f 0000 0020 b375 c9bf
00000300: 0000 0080 8ac8 bfbf 0000 00c0 725c b3bf
00000310: 0000 0040 64a1 b83f 0000 00c0 af5d c23f
00000320: 0000 0040 16ae d3bf 0000 00c0 5001 d2bf
00000330: 0000 00c0 05a2 dbbf 0000 0020 3c44 dcbf
00000340: 0000 00c0 78fb d7bf 0000 0000 977b b2bf
00000350: 0000 0020 d490 c3bf 0000 0080 9413 cbbf
00000360: 0000 0000 e328 d0bf 0000 00e0 dd40 d5bf
00000370: 0000 0040 56c7 c43f 0000 00e0 3359 ca3f
00000380: 0000 00c0 350e c03f 0000 0020 0a51 af3f
00000390: 0000 0080 8e39 9bbf 0000 0000 2113 d43f
000003a0: 0000 0000 46c8 d73f 0000 0060 6188 d53f
000003b0: 0000 0000 e42f cf3f 0000 0040 6f8e b83f
000003c0: 0000 00c0 dee2 df3f 0000 00e0 1b2f db3f
000003d0: 0000 0020 85c4 dc3f 0000 0080 6837 d53f
000003e0: 0000 00c0 d390 d13f 0000 0020 5868 b53f
000003f0: 0000 0040 54de d33f 0000 00e0 eb61 d23f
00000400: 0000 00c0 7894 d13f 0000 0080 ddfe c83f
00000410: 0000 00c0 2250 d53f 0000 0020 6eeb d83f
00000420: 0000 00c0 f84c db3f 0000 00e0 34c1 df3f
00000430: 0000 0040 661a d23f 0000 00e0 d2fe d23f
00000440: 0000 0080 2b2f d53f 0000 0040 858b dc3f
00000450: 0000 0080 6c79 dd3f 0000 0060 8096 d73f
00000460: 0000 0020 8d1a d03f 0000 0040 dc4c dc3f
00000470: 0000 00a0 1f50 dc3f 0000 00a0 3c55 d43f
00000480: 0000 0060 35ee d13f 0000 00a0 4719 9a3f
00000490: 0000 0080 8a34 cc3f 0000 00a0 420c b53f
000004a0: 0000 0000 5f0b ca3f 0000 0080 2172 bd3f
000004b0: 0000 0020 d510 b1bf 0000 0080 9b25 b1bf
000004c0: 0000 0080 a5e7 c03f 0000 0060 7af9 c73f
000004d0: 0000 0080 5313 cf3f 0000 0080 ae5b bcbf
000004e0: 0000 0040 47ce 9c3f 0000 0000 bf01 c03f
000004f0: 0000 00e0 5506 c63f 0000 0060 4cb0 cf3f
00000500: 0000 0020 5fd7 b3bf 0000 0020 de98 b03f
00000510: 0000 00e0 96ce b93f 0000 00e0 9117 bf3f
00000520: 0000 0020 3a84 d03f 0000 0060 bbde c1bf
00000530: 0000 0060 e7fb babf 0000 0080 b1e0 acbf
00000540: 0000 0000 681c bf3f 0000 00c0 8e6a b93f
00000550: 0000 0040 aa2d c7bf 0000 00e0 f1c5 c5bf
00000560: 0000 0020 8e6f b9bf 0000 0000 3d43 b43f
00000570: 0000 0060 93c3 ba3f 0000 0060 c920 bbbf
00000580: 0000 00c0 c3b5 84bf 0000 00e0 e9bd a1bf
00000590: 0000 0040 7c35 ae3f 0000 0060 222b b03f
000005a0: 0000 00c0 8e47 b23f 0000 0020 a5b6 af3f
000005b0: 0000 00a0 09be cd3f 0000 0060 0bb9 c03f
000005c0: 0000 0080 3bfd c73f 0000 00a0 108a b63f
000005d0: 0000 00a0 bc66 cd3f 0000 0000 4ec4 d13f
000005e0: 0000 0020 9ab9 c63f 0000 0000 45b9 d23f
000005f0: 0000 00a0 4bbf af3f 0000 00c0 9491 cf3f
00000600: 0000 00e0 4fb1 d23f 0000 0020 6d69 d23f
00000610: 0000 0040 2a5b d23f 0000 0000 f1ce 84bf
00000620: 0000 0040 e814 c23f 0000 0020 7c44 c33f
00000630: 0000 00e0 d5ba c33f 0000 0080 0b57 ca3f
00000640: 0000 0040 ac6e 9dbf 0000 00e0 0daf b2bf
00000650: 0000 0040 812c a9bf 0000 0040 c9e6 98bf
00000660: 0000 0020 7232 8a3f 0000 0080 772e 9e3f
00000670: 0000 0080 e9a6 94bf 0000 00c0 60f6 c0bf
00000680: 0000 0060 3918 a8bf 0000 0040 15f3 853f
00000690: 0000 0000 aeb7 8fbf 0000 00e0 2031 b6bf
000006a0: 0000 0040 d168 b4bf 0000 0020 91cf a5bf
000006b0: 0000 0060 bd87 b4bf 0000 0000 228a c1bf
000006c0: 0000 0040 3b95 c1bf 0000 0000 cbfc c9bf
000006d0: 0000 0000 ef48 b0bf 0000 00e0 8bd7 bbbf
000006e0: 0000 00e0 8ff2 c7bf 0000 00a0 6640 c9bf
000006f0: 0000 00c0 b2f1 cabf 0000 0000 dcf4 c7bf
00000700: 0000 0080 ea18 c2bf 0000 0020 36a3 c7bf
00000710: 0000 0040 bbe1 d2bf 0000 0040 6510 cabf
00000720: 0000 00e0 24c1 cabf 0000 00c0 3f3d cebf
00000730: 0000 0000 843a d2bf 0000 00e0 14c7 c8bf
00000740: 0000 00e0 e2a1 b4bf 0000 0040 5bf9 bfbf
00000750: 0000 00a0 dc79 a33f 0000 0040 33c9 a6bf
00000760: 0000 00e0 52d5 adbf 0000 00c0 091b a33f
00000770: 0000 0060 9b87 a83f 0000 0040 41ae c03f
00000780: 0000 0040 65d7 b3bf 0000 0000 5eaf c03f
00000790: 0000 0000 b405 b53f 0000 0040 3012 c73f
000007a0: 0000 0040 becd cf3f 0000 0040 7b2e b43f
000007b0: 0000 00c0 2a23 cd3f 0000 00a0 9662 d13f
000007c0: 0000 00e0 2de4 cb3f 0000 0040 e597 d23f
000007d0: 0000 0080 aa14 773f 0000 0060 6346 b8bf
000007e0: 0000 0060 044e 52bf 0000 00e0 d9d5 b0bf
000007f0: 0000 00c0 8feb 92bf 0000 00a0 25bc acbf

m_conv1.m_conv1_a.bias f8 [16]
0.19537675380706787 -0.459704726934433 0.14583012461662292 0.3099881112575531 -0.12314238399267197 -8.096363671938889e-06 -0.269072026014328 -0.7648953199386597
0.5649883151054382 0.3158442974090576 0.52779620885849 0.539389431476593 0.08106210082769394 -0.0017370746936649084 1.1244748830795288 -0.22025257349014282
00000000: 0000 0000 1b02 c93f 0000 0060 cd6b ddbf
00000010: 0000 00c0 8faa c23f 0000 0060 d8d6 d33f
00000020: 0000 0060 4286 bfbf 0000 00c0 b3fa e0be
00000030: 0000 00e0 7938 d1bf 0000 00c0 057a e8bf
00000040: 0000 0060 6214 e23f 0000 0000 cb36 d43f
00000050: 0000 00e0 b4e3 e03f 0000 00a0 ad42 e13f
00000060: 0000 0060 7cc0 b43f 0000 00c0 d175 5cbf
00000070: 0000 0060 d9fd f13f 0000 0080 3c31 ccbf

m_conv2.m_conv2_a.weight f8 [32, 16, 3, 3]
0.007154758553951979 0.007158499676734209 -0.007774974685162306 0.03674853965640068 -0.007364485878497362 0.01614864356815815 -0.028562970459461212 -0.030649492517113686
0.02826445922255516 0.05994611233472824 0.14177027344703674 0.16284409165382385 0.08786465972661972 0.12859292328357697 0.09554857760667801 0.037243325263261795
0.0686538815498352 0.09200310707092285 0.0579189658164978 0.05710509046912193 0.05034439638257027 0.024939892813563347 0.07292488217353821 0.02596830017864704
0.013370886445045471 0.07399237900972366 0.033065468072891235 0.04871107637882233 0.07355263084173203 0.05636126175522804 -0.0010289627825841308 0.093681201338768
0.06879254430532455 0.014867223799228668 0.013854164630174637 0.006664840504527092 -0.0389968678355217 0.020083492621779442 0.03893953561782837 0.05336323752999306
0.03829928860068321 0.02834794856607914 -0.05665608495473862 -0.03458096459507942 -0.06425590068101883 -0.212647944688797 -0.027828875929117203 0.14476411044597626
-0.1884922981262207 -0.007707558106631041 0.18828877806663513 -0.1441471129655838 -0.0028586138505488634 0.10113529115915298 0.08164874464273453 0.16787298023700714
0.13393498957157135 0.0957411378622055 0.10735016316175461 0.16925492882728577 0.06661364436149597 0.15139451622962952 0.13761013746261597 0.019284477457404137
0.13227064907550812 0.2057725489139557 -0.011353104375302792 0.11954411119222641 0.15235628187656403 -0.002881543477997184 0.08897444605827332 0.0862329974770546
-0.003939296584576368 -0.005474375560879707 0.02820253185927868 0.021813148632645607 -0.00711474334821105 -0.02040245197713375 0.02230587601661682 -0.02495291270315647
-0.03548891097307205 -0.041576486080884933 0.012690224684774876 0.017362352460622787 -0.003327444428578019 0.024368682876229286 -0.01618236117064953 0.01907784678041935
0.023806488141417503 -0.020951924845576286 0.0014091198099777102 0.030450396239757538 0.014787382446229458 0.03628016263246536 -0.007082126569002867 -0.025660915300250053
-0.009519452229142189 -0.010042828507721424 0.023028971627354622 0.0246585663408041 0.0015661594225093722 0.018270185217261314 0.03035617433488369 0.006668450310826302
0.003561038291081786 -0.01033810991793871 0.03363219276070595 0.016866009682416916 0.000334596581524238 0.1121751070022583 0.11127164214849472 -0.005594535265117884
0.10320502519607544 0.14722584187984467 0.031216613948345184 0.06639714539051056 0.15689459443092346 0.034118302166461945 0.04236691817641258 0.007453901693224907
0.03565506637096405 0.02369498647749424 0.010703062638640404 -0.01294013299047947 -0.009039439260959625 0.010190715081989765 -0.13298775255680084 -0.1440238207578659
-0.13540883362293243 -0.16457583010196686 -0.14174216985702515 -0.06770619004964828 -0.09398403018712997 -0.04953834414482117 -0.005849054548889399 -0.08216878026723862
-0.026346847414970398 0.09571164846420288 -0.007387770339846611 -0.03376956656575203 0.08550936728715897 -0.08851287513971329 -0.046694565564394 -0.0654619112610817
-0.018895436078310013 -0.0018656273605301976 0.0063757458701729774 0.027599835768342018 0.025200815871357918 0.02802569977939129 -0.022049469873309135 0.03570839390158653
-0.018251853063702583 -0.014329628087580204 -0.06450476497411728 -0.02655293047428131 -0.0147381741553545 -0.05248699709773064 0.002068591769784689 -0.009770226664841175
-0.017965711653232574 -0.009856089949607849 0.011753915809094906 -0.009280814789235592 -0.06045587360858917 -0.01991697959601879 0.029104016721248627 -0.00979942549020052
-0.029027992859482765 -0.01422842126339674 0.009476695209741592 0.022323960438370705 -0.0019881881307810545 -0.012612503953278065 0.03157574683427811 0.02723444625735283
-0.05785621330142021 0.09625466912984848 0.07314256578683853 0.01551476027816534 -0.1471226066350937 -0.17761395871639252 -0.16691544651985168 -0.10817291587591171
-0.06058584526181221 -0.08428254723548889 -0.0035876829642802477 -0.039247483015060425 -0.04088154807686806 0.005771453958004713 0.07850275188684464 -0.032225351780653
-0.022736310958862305 -0.028058592230081558 -0.08788741379976273 0.02985169179737568 0.08197616040706635 -0.0027725915424525738 0.030753837898373604 -0.03789917752146721
-0.0017991706263273954 -0.018963724374771118 -0.053235143423080444 -0.0431208573281765 0.008757740259170532 -0.036425959318876266 -0.051812250167131424 0.011502031236886978
0.024465283378958702 -0.06622304767370224 -0.04039612039923668 -0.06969250738620758 -0.055442456156015396 0.005223735701292753 -0.05285712331533432 -0.11678659170866013
0.004728726111352444 -0.026948129758238792 -0.03635057806968689 -0.04561919346451759 0.020326372236013412 -0.039813004434108734 0.017804013565182686 0.013831318356096745
0.0053546433337032795 -0.0989815816283226 -0.07652554661035538 -0.10857927799224854 0.011698964051902294 0.03891294077038765 0.025511186569929123 0.05278772488236427
0.00028000204474665225 0.003505431115627289 -0.0008408956928178668 -0.03307472541928291 -0.028370743617415428 -0.028622815385460854 0.036126602441072464 -0.018531663343310356
0.0007998804794624448 -0.0024973805993795395 -0.025064947083592415 -0.0294649600982666 -0.007952106185257435 -0.03860204294323921 -0.02126917988061905 -0.028632117435336113
0.003791484283283353 0.05635610595345497 0.08204437047243118 0.018751567229628563 0.07603556662797928 0.0547642819583416 -0.05385632440447807 0.011811862699687481
00000000: 0000 00e0 4e4e 7d3f 0000 0020 3b52 7d3f
00000010: 0000 00e0 a6d8 7fbf 0000 0060 b4d0 a23f
00000020: 0000 0020 392a 7ebf 0000 0020 4589 903f
00000030: 0000 0080 9c3f 9dbf 0000 00a0 9462 9fbf
00000040: 0000 00c0 5bf1 9c3f 0000 00c0 41b1 ae3f
00000050: 0000 0040 8725 c23f 0000 0040 13d8 c43f
00000060: 0000 0060 4c7e b63f 0000 00a0 bb75 c03f
00000070: 0000 0020 df75 b83f 0000 00a0 8e11 a33f
00000080: 0000 0000 4d93 b13f 0000 0000 848d b73f
00000090: 0000 0000 8ea7 ad3f 0000 00e0 e03c ad3f
000000a0: 0000 00a0 bdc6 a93f 0000 00e0 d789 993f
000000b0: 0000 0080 34ab b23f 0000 0020 6f97 9a3f
000000c0: 0000 0000 3262 8b3f 0000 0020 2af1 b23f
000000d0: 0000 0000 f5ed a03f 0000 0080 a8f0 a83f
000000e0: 0000 0060 58d4 b23f 0000 0020 62db ac3f
000000f0: 0000 0060 c8db 50bf 0000 00c0 7dfb b73f
00000100: 0000 0060 639c b13f 0000 0000 b572 8e3f
00000110: 0000 0080 925f 8c3f 0000 0080 974c 7b3f
00000120: 0000 00c0 65f7 a3bf 0000 0060 c490 943f
00000130: 0000 0000 e2ef a33f 0000 0020 6d52 ab3f
00000140: 0000 00e0 f69b a33f 0000 00a0 3e07 9d3f
00000150: 0000 00c0 0602 adbf 0000 00a0 98b4 a1bf
00000160: 0000 0020 1373 b0bf 0000 0040 0c38 cbbf
00000170: 0000 0040 2c7f 9cbf 0000 0060 a187 c23f
00000180: 0000 0000 8420 c8bf 0000 00e0 f591 7fbf
00000190: 0000 00c0 d819 c83f 0000 00a0 6973 c2bf
000001a0: 0000 00a0 f26a 67bf 0000 00a0 00e4 b93f
000001b0: 0000 00a0 eee6 b43f 0000 00a0 dc7c c53f
000001c0: 0000 0020 c824 c13f 0000 00c0 7d82 b83f
000001d0: 0000 00e0 4c7b bb3f 0000 0040 25aa c53f
000001e0: 0000 0080 970d b13f 0000 0040 e560 c33f
000001f0: 0000 0080 359d c13f 0000 0060 4fbf 933f
00000200: 0000 00a0 3eee c03f 0000 0040 c156 ca3f
00000210: 0000 00e0 4b40 87bf 0000 0060 719a be3f
00000220: 0000 0020 6980 c33f 0000 00e0 089b 67bf
00000230: 0000 0080 07c7 b63f 0000 00a0 5d13 b63f
00000240: 0000 00e0 a622 70bf 0000 0080 4c6c 76bf
00000250: 0000 00e0 1fe1 9c3f 0000 00a0 2f56 963f
00000260: 0000 0060 5924 7dbf 0000 0060 61e4 94bf
00000270: 0000 0000 5ad7 963f 0000 00a0 418d 99bf
00000280: 0000 0040 9a2b a2bf 0000 0060 8349 a5bf
00000290: 0000 0020 55fd 893f 0000 00c0 6fc7 913f
000002a0: 0000 0020 2842 6bbf 0000 00a0 1af4 983f
000002b0: 0000 00e0 1b92 90bf 0000 00a0 2489 933f
000002c0: 0000 0060 ba60 983f 0000 00e0 6b74 95bf
000002d0: 0000 00e0 4616 573f 0000 0080 632e 9f3f
000002e0: 0000 00e0 d848 8e3f 0000 0040 5093 a23f
000002f0: 0000 00e0 2502 7dbf 0000 00e0 da46 9abf
00000300: 0000 0040 ef7e 83bf 0000 00a0 5591 84bf
00000310: 0000 0020 e894 973f 0000 0060 1840 993f
00000320: 0000 00e0 f2a8 593f 0000 0060 6bb5 923f
00000330: 0000 0060 b015 9f3f 0000 0080 6050 7b3f
00000340: 0000 00e0 092c 6d3f 0000 00a0 252c 85bf
00000350: 0000 0020 3d38 a13f 0000 00c0 5245 913f
00000360: 0000 0060 99ed 353f 0000 0000 82b7 bc3f
00000370: 0000 0060 4c7c bc3f 0000 00a0 4bea 76bf
00000380: 0000 0000 a56b ba3f 0000 00e0 4bd8 c23f
00000390: 0000 0080 3ff7 9f3f 0000 0040 67ff b03f
000003a0: 0000 0040 1f15 c43f 0000 0040 f477 a13f
000003b0: 0000 00e0 1db1 a53f 0000 0080 fb87 7e3f
000003c0: 0000 0080 6141 a23f 0000 00a0 7f43 983f
000003d0: 0000 00c0 7ceb 853f 0000 0040 5b80 8abf
000003e0: 0000 0000 4583 82bf 0000 00a0 dede 843f
000003f0: 0000 0020 be05 c1bf 0000 0060 5f6f c2bf
00000400: 0000 00a0 1355 c1bf 0000 0020 d210 c5bf
00000410: 0000 0080 9b24 c2bf 0000 0060 3155 b1bf
00000420: 0000 0060 560f b8bf 0000 0000 175d a9bf
00000430: 0000 00a0 2df5 77bf 0000 0060 0309 b5bf
00000440: 0000 0000 abfa 9abf 0000 0000 8f80 b83f
00000450: 0000 0080 a342 7ebf 0000 00a0 3e4a a1bf
00000460: 0000 0020 f1e3 b53f 0000 00a0 c7a8 b6bf
00000470: 0000 00a0 59e8 a7bf 0000 00a0 1cc2 b0bf
00000480: 0000 0040 5359 93bf 0000 0020 0291 5ebf
00000490: 0000 0040 741d 7a3f 0000 00a0 2143 9c3f
000004a0: 0000 0020 3ece 993f 0000 00e0 c4b2 9c3f
000004b0: 0000 00e0 2294 96bf 0000 00e0 5e48 a23f
000004c0: 0000 0020 9db0 92bf 0000 0020 da58 8dbf
000004d0: 0000 0060 6283 b0bf 0000 0000 b130 9bbf
000004e0: 0000 0040 0c2f 8ebf 0000 0060 93df aabf
000004f0: 0000 00c0 26f2 603f 0000 00a0 6902 84bf
00000500: 0000 0080 9a65 92bf 0000 0000 6e2f 84bf
00000510: 0000 00e0 6f12 883f 0000 00e0 d101 83bf
00000520: 0000 0080 12f4 aebf 0000 00e0 1d65 94bf
00000530: 0000 0080 71cd 9d3f 0000 00a0 b811 84bf
00000540: 0000 00a0 83b9 9dbf 0000 0060 ca23 8dbf
00000550: 0000 0080 8468 833f 0000 00a0 17dc 963f
00000560: 0000 0060 8849 60bf 0000 00a0 95d4 89bf
00000570: 0000 0040 b22a a03f 0000 00c0 58e3 9b3f
00000580: 0000 0060 549f adbf 0000 0060 25a4 b83f
00000590: 0000 00a0 78b9 b23f 0000 00e0 33c6 8f3f
000005a0: 0000 00e0 e9d4 c2bf 0000 00e0 0dbc c6bf
000005b0: 0000 0040 7c5d c5bf 0000 0060 38b1 bbbf
000005c0: 0000 00a0 1b05 afbf 0000 0080 8a93 b5bf
000005d0: 0000 00a0 ea63 6dbf 0000 0000 3f18 a4bf
000005e0: 0000 0020 6dee a4bf 0000 00e0 cea3 773f
000005f0: 0000 00a0 c118 b43f 0000 0060 d77f a0bf
00000600: 0000 0000 3048 97bf 0000 0040 64bb 9cbf
00000610: 0000 0020 ca7f b6bf 0000 0020 7191 9e3f
00000620: 0000 00c0 63fc b43f 0000 00c0 8bb6 66bf
00000630: 0000 0020 ef7d 9f3f 0000 0060 8567 a3bf
00000640: 0000 00c0 447a 5dbf 0000 0000 3a6b 93bf
00000650: 0000 0000 a341 abbf 0000 00e0 ef13 a6bf
00000660: 0000 0000 94ef 813f 0000 0060 6ca6 a2bf
00000670: 0000 00a0 2287 aabf 0000 0080 608e 873f
00000680: 0000 0060 6d0d 993f 0000 0060 fef3 b0bf
00000690: 0000 00e0 ccae a4bf 0000 0040 5ed7 b1bf
000006a0: 0000 0020 f462 acbf 0000 00e0 7b65 753f
000006b0: 0000 00c0 1610 abbf 0000 00e0 b9e5 bdbf
000006c0: 0000 00c0 6d5e 733f 0000 0060 4a98 9bbf
000006d0: 0000 0000 8b9c a2bf 0000 0020 665b a7bf
000006e0: 0000 00c0 6fd0 943f 0000 00c0 5e62 a4bf
000006f0: 0000 0020 373b 923f 0000 0020 9853 8c3f
00000700: 0000 0020 c0ee 753f 0000 0060 db56 b9bf
00000710: 0000 00a0 2d97 b3bf 0000 0000 dacb bbbf
00000720: 0000 0060 a0f5 873f 0000 00a0 65ec a33f
00000730: 0000 00c0 9a1f 9a3f 0000 0020 fe06 ab3f
00000740: 0000 00a0 a759 323f 0000 0000 6cb7 6c3f
00000750: 0000 00c0 f18d 4bbf 0000 00a0 2bef a0bf
00000760: 0000 0060 380d 9dbf 0000 00a0 4c4f 9dbf
00000770: 0000 00a0 2f7f a23f 0000 00e0 f6f9 92bf
00000780: 0000 0040 e235 4a3f 0000 0000 6375 64bf
00000790: 0000 0020 a0aa 99bf 0000 0000 102c 9ebf
000007a0: 0000 00a0 3149 80bf 0000 00a0 a5c3 a3bf
000007b0: 0000 0080 96c7 95bf 0000 00e0 bc51 9dbf
000007c0: 0000 00a0 510f 6f3f 0000 0020 b5da ac3f
000007d0: 0000 0020 dc00 b53f 0000 0060 9c33 933f
000007e0: 0000 0020 1177 b33f 0000 0060 100a ac3f
000007f0: 0000 0060 0e93 abbf 0000 0060 d130 883f

m_conv2.m_conv2_a.bias f8 [32]
-0.18875780701637268 0.19401679933071136 -0.05219340696930885 0.1382148712873459 0.03421097248792648 -0.010997860692441463 -0.026842396706342697 0.16707167029380798
-0.02590230479836464 0.08852314949035645 -0.016935860738158226 0.025589710101485252 0.009619999676942825 0.0663449764251709 -0.07278639823198318 0.1213025152683258
-0.040641285479068756 -0.07856684178113937 -0.0011734036961570382 -0.2539733052253723 -0.07837994396686554 0.14881360530853271 -0.009735707193613052 0.09955283999443054
-0.06830313056707382 0.0020096180960536003 0.046481903642416 0.10489628463983536 -0.02736336551606655 0.006430099718272686 0.15243902802467346 -0.11379073560237885
00000000: 0000 0040 3729 c8bf 0000 00e0 8ad5 c83f
00000010: 0000 0020 18b9 aabf 0000 0060 06b1 c13f
00000020: 0000 00c0 1984 a13f 0000 00e0 0b86 86bf
00000030: 0000 00c0 927c 9bbf 0000 00c0 9a62 c53f
00000040: 0000 0040 2286 9abf 0000 0000 74a9 b63f
00000050: 0000 0060 a257 91bf 0000 0060 3034 9a3f
00000060: 0000 0080 a6b3 833f 0000 0000 fcfb b03f
00000070: 0000 0020 21a2 b2bf 0000 0080 ae0d bf3f
00000080: 0000 0040 efce a4bf 0000 00e0 f41c b4bf
00000090: 0000 00a0 9c39 53bf 0000 0040 1941 d0bf
000000a0: 0000 0040 b510 b4bf 0000 0000 530c c33f
000000b0: 0000 0080 50f0 83bf 0000 0080 4b7c b93f
000000c0: 0000 0060 507c b1bf 0000 0080 7976 603f
000000d0: 0000 00e0 79cc a73f 0000 00a0 7bda ba3f
000000e0: 0000 0060 2405 9cbf 0000 00c0 7256 7a3f
000000f0: 0000 0040 1f83 c33f 0000 00c0 6321 bdbf

m_score2_a.m_score2_a.weight f8 [2, 32, 1, 1]
0.08682101964950562 -0.2025979906320572 0.11163415014743805 -0.10169006884098053 0.007145985495299101 -0.06311172991991043 0.004219582304358482 -0.13397614657878876
0.10100986808538437 -0.13167248666286469 0.07658080011606216 -0.005827521905303001 -0.0164930559694767 0.1498711109161377 0.009151298552751541 -0.1650690883398056
-0.09513542056083679 0.06366775929927826 0.007266391534358263 0.0917477235198021 0.09046468138694763 -0.18770332634449005 0.05837058648467064 0.08804578334093094
0.08477386832237244 -0.05848103016614914 0.04956144839525223 0.005463654175400734 0.05768683925271034 -0.059649452567100525 0.035082049667835236 0.12742139399051666
-0.03717063367366791 0.25442346930503845 -0.10187944769859314 0.14339549839496613 0.03922257199883461 0.0855977013707161 0.046055641025304794 0.06032020226120949
-0.09241393953561783 0.18613997101783752 -0.08480125665664673 -0.07653526216745377 0.030057892203330994 -0.13438311219215393 -0.03736092895269394 0.09142828732728958
0.06577295809984207 -0.053794946521520615 -0.01869300752878189 -0.08573736250400543 -0.08526787161827087 0.09610279649496078 0.005269456654787064 0.032650426030159
-0.029138725250959396 0.08785557746887207 -0.006896821316331625 0.07121387124061584 -0.041201308369636536 0.1014435738325119 -0.08729112148284912 -0.10769115388393402
00000000: 0000 0000 e739 b63f 0000 0020 bbee c9bf
00000010: 0000 0040 0e94 bc3f 0000 0040 5c08 babf
00000020: 0000 00e0 1b45 7d3f 0000 0020 1728 b0bf
00000030: 0000 0080 8d48 713f 0000 0060 2126 c1bf
00000040: 0000 0060 c8db b93f 0000 00e0 a4da c0bf
00000050: 0000 00a0 cc9a b33f 0000 0080 99de 77bf
00000060: 0000 0040 8ee3 90bf 0000 0000 fa2e c33f
00000070: 0000 0080 eabd 823f 0000 00e0 fb20 c5bf
00000080: 0000 0080 cb5a b8bf 0000 00c0 874c b03f
00000090: 0000 0020 5dc3 7d3f 0000 0060 c77c b73f
000000a0: 0000 0080 b128 b73f 0000 00a0 a906 c8bf
000000b0: 0000 00e0 bfe2 ad3f 0000 0020 2b8a b63f
000000c0: 0000 0080 bdb3 b53f 0000 00c0 39f1 adbf
000000d0: 0000 0040 1e60 a93f 0000 0080 0e61 763f
000000e0: 0000 0020 2189 ad3f 0000 0080 5f8a aebf
000000f0: 0000 0040 46f6 a13f 0000 0020 584f c03f
00000100: 0000 0080 0708 a3bf 0000 0060 7948 d03f
00000110: 0000 0080 c514 babf 0000 00a0 c85a c23f
00000120: 0000 0020 fb14 a43f 0000 0020 bbe9 b53f
00000130: 0000 00e0 9a94 a73f 0000 0020 4ae2 ae3f
00000140: 0000 00a0 70a8 b7bf 0000 0040 6fd3 c73f
00000150: 0000 0000 89b5 b5bf 0000 00a0 d097 b3bf
00000160: 0000 0000 7fc7 9e3f 0000 0040 7733 c1bf
00000170: 0000 00c0 f820 a3bf 0000 0020 d867 b73f
00000180: 0000 0020 7fd6 b03f 0000 00e0 028b abbf
00000190: 0000 0080 4224 93bf 0000 0040 e2f2 b5bf
000001a0: 0000 0080 1dd4 b5bf 0000 0060 319a b83f
000001b0: 0000 0000 6d95 753f 0000 0080 8eb7 a03f
000001c0: 0000 00c0 8ad6 9dbf 0000 0000 b47d b63f
000001d0: 0000 0060 d73f 7cbf 0000 0080 123b b23f
000001e0: 0000 0080 5618 a5bf 0000 00c0 34f8 b93f
000001f0: 0000 0000 b658 b6bf 0000 00c0 a591 bbbf

m_score2_a.m_score2_a.bias f8 [2]
-0.1939692199230194 0.1939696967601776
00000000: 0000 00c0 fbd3 c8bf 0000 00c0 ffd3 c83f

m_conv3.m_conv3_a.weight f8 [64, 32, 3, 3]
0.07795530557632446 0.11002103984355927 0.045450929552316666 -0.049445364624261856 0.06966613233089447 0.029052479192614555 -0.13554304838180542 -0.012332528829574585
-0.056450583040714264 -0.046424053609371185 -0.023921798914670944 -0.026755718514323235 -0.003750663250684738 -0.0519133098423481 -0.009167617186903954 0.0798136368393898
0.021692698821425438 0.05155978351831436 0.10722891241312027 0.12074726074934006 0.046309392899274826 -0.06625515222549438 -0.033276233822107315 -0.06412011384963989
0.020384157076478004 -0.03613019734621048 -0.08966828882694244 0.04475472494959831 -0.13562744855880737 -0.02169712819159031 0.08636324107646942 -0.0018267673440277576
-0.016659406945109367 -0.02058912254869938 -0.06612353026866913 -0.09656225889921188 -0.1053561344742775 -0.014699499122798443 -0.02190389297902584 -0.04197993874549866
-0.006162391975522041 0.017794547602534294 -0.06667599081993103 -0.06085007265210152 -0.0460657998919487 -0.016415683552622795 -0.05688364803791046 -0.03390973061323166
-0.005145121365785599 0.0334092453122139 0.029414193704724312 -0.1492784321308136 -0.08292116224765778 0.03935571759939194 -0.006731527391821146 -0.06355633586645126
-0.006032061763107777 -0.09683215618133545 -0.030398689210414886 -0.0560830682516098 -0.06451987475156784 -0.03807162120938301 -0.12900033593177795 0.02780384011566639
-0.03504630923271179 0.016152992844581604 -0.045485809445381165 0.07844774425029755 0.08419962227344513 -0.02982790395617485 0.05346410721540451 -0.033475227653980255
0.047081489115953445 0.04444393143057823 0.03180287778377533 -0.02939419634640217 0.0015250786673277617 0.05549992620944977 0.03064544126391411 0.04469708353281021
-0.014269249513745308 0.010421223938465118 -0.039749447256326675 -0.03653242066502571 0.06679635494947433 -0.001102770445868373 0.05769669637084007 0.1338537335395813
0.08636356890201569 0.08962064981460571 -0.018007272854447365 -0.02764957956969738 0.0745086595416069 -0.11456412822008133 -0.09210099279880524 -0.0600891187787056
-0.14914216101169586 -0.049908269196748734 -0.06296677142381668 0.029434477910399437 0.014191455207765102 -0.015165873803198338 0.014216654933989048 -0.006947105284780264
0.02302907407283783 -0.0037122198846191168 -0.003720249515026808 -0.030203722417354584 -0.013498105108737946 0.0025446689687669277 -0.009410443715751171 0.005929810460656881
0.021328812465071678 -0.010959549807012081 0.00841552298516035 0.0030309422872960567 -0.025614170357584953 0.00034966497332789004 -0.004497125279158354 -0.06614957749843597
-0.07270780950784683 -0.050465621054172516 -0.037002116441726685 0.02164429798722267 0.03292461112141609 0.03229279816150665 -0.09038180857896805 -0.08655784279108047
-0.04722616821527481 -0.019478069618344307 0.04371628537774086 0.03238825127482414 -0.011734130792319775 -0.027362609282135963 -0.1604759246110916 -0.005803084000945091
-0.005757288541644812 0.04525632783770561 0.07928275316953659 0.09126569330692291 0.062209758907556534 0.10653792321681976 0.07396131008863449 -0.07600381225347519
0.03514739125967026 0.05232169106602669 0.03335107862949371 0.00810178741812706 0.016739897429943085 0.058202262967824936 -0.003392618615180254 0.03456931561231613
0.026445047929883003 0.05241650342941284 0.09406287968158722 0.13087724149227142 -0.045215412974357605 0.04050895944237709 0.06475188583135605 -0.0392644964158535
0.005227559711784124 -0.038357898592948914 0.03185885027050972 0.002412977162748575 0.02210777811706066 0.010722504928708076 0.02471451833844185 0.01602768898010254
0.009482201188802719 -0.005197345279157162 0.011566202156245708 0.018102455884218216 0.01087890099734068 0.00024310989829245955 -0.060457780957221985 -0.05164051428437233
-0.024116994813084602 -0.061183586716651917 -0.05208267271518707 -0.06472033262252808 -0.022665465250611305 -0.022772954776883125 0.0629776194691658 -0.06741254031658173
-0.03406394645571709 -0.051366765052080154 -0.14091727137565613 -0.05693972110748291 -0.038559455424547195 -0.007161570712924004 -0.06231382116675377 -0.021120550110936165
-0.034764233976602554 -0.022749949246644974 0.021526627242565155 0.01593843288719654 0.022035101428627968 0.071610227227211 -0.023079007863998413 -0.042750924825668335
-0.05455431342124939 0.008082371205091476 0.0020299158059060574 -0.0015711424639448524 0.022401077672839165 -0.01833447627723217 -0.04961347579956055 -0.1143627017736435
-0.06586895883083344 -0.06263387948274612 0.011112361215054989 -0.076659195125103 -0.042191192507743835 0.12941914796829224 0.02993328869342804 0.09303368628025055
-0.016634011641144753 -0.04500432685017586 -0.05695198476314545 -0.04733269661664963 -0.04896928369998932 -0.08050799369812012 -0.031679362058639526 -0.055410467088222504
-0.08801792562007904 -0.020430464297533035 -0.017682837322354317 -0.0002645892382133752 -0.01761726662516594 -0.01119522750377655 0.025696704164147377 -0.0489843524992466
-0.007224248256534338 0.0095265107229352 0.07522183656692505 -0.0089873643592 -0.04580577090382576 0.10921834409236908 0.026877352967858315 -0.09585016220808029
-0.08189152926206589 -0.0403270423412323 -0.08208734542131424 -0.03962462395429611 -0.03366488590836525 -0.05776644125580788 -0.014078321866691113 -0.028965650126338005
-0.010208042338490486 0.04813599959015846 0.04034268483519554 0.09796798229217529 0.04682718962430954 0.05644262582063675 0.04883890971541405 0.0017766171367838979
00000000: 0000 0000 e1f4 b33f 0000 00c0 562a bc3f
00000010: 0000 0020 5845 a73f 0000 0020 e750 a9bf
00000020: 0000 00c0 a3d5 b13f 0000 00e0 eebf 9d3f
00000030: 0000 0080 7959 c1bf 0000 0000 cc41 89bf
00000040: 0000 0040 17e7 acbf 0000 00c0 e4c4 a7bf
00000050: 0000 00c0 f47e 98bf 0000 00e0 d965 9bbf
00000060: 0000 0000 b6b9 6ebf 0000 00a0 6194 aabf
00000070: 0000 00c0 78c6 82bf 0000 00a0 aa6e b43f
00000080: 0000 0060 9c36 963f 0000 0040 0b66 aa3f
00000090: 0000 00a0 5a73 bb3f 0000 00e0 4ae9 be3f
000000a0: 0000 0060 ddb5 a73f 0000 0000 19f6 b0bf
000000b0: 0000 0020 9509 a1bf 0000 0000 2d6a b0bf
000000c0: 0000 00a0 95df 943f 0000 0040 a87f a2bf
000000d0: 0000 0040 80f4 b6bf 0000 0060 17ea a63f
000000e0: 0000 0080 3d5c c1bf 0000 00a0 c537 96bf
000000f0: 0000 00c0 e61b b63f 0000 0080 04ee 5dbf
00000100: 0000 00e0 290f 91bf 0000 00a0 5015 95bf
00000110: 0000 00c0 78ed b0bf 0000 00e0 4db8 b8bf
00000120: 0000 00a0 9ef8 babf 0000 0060 c51a 8ebf
00000130: 0000 0060 f96d 96bf 0000 0000 657e a5bf
00000140: 0000 0080 bc3d 79bf 0000 00e0 bb38 923f
00000150: 0000 0080 ad11 b1bf 0000 00a0 bd27 afbf
00000160: 0000 00c0 ef95 a7bf 0000 00e0 45cf 90bf
00000170: 0000 0080 da1f adbf 0000 00c0 9d5c a1bf
00000180: 0000 0000 0d13 75bf 0000 0040 041b a13f
00000190: 0000 0020 c11e 9e3f 0000 0040 8e1b c3bf
000001a0: 0000 0040 523a b5bf 0000 00c0 6e26 a43f
000001b0: 0000 00a0 8492 7bbf 0000 0060 3a45 b0bf
000001c0: 0000 0040 13b5 78bf 0000 0000 fec9 b8bf
000001d0: 0000 0080 d520 9fbf 0000 0080 ebb6 acbf
000001e0: 0000 00e0 5f84 b0bf 0000 00a0 1f7e a3bf
000001f0: 0000 0040 1583 c0bf 0000 0020 9c78 9c3f
00000200: 0000 0000 97f1 a1bf 0000 0000 698a 903f
00000210: 0000 0080 ea49 a7bf 0000 00c0 2615 b43f
00000220: 0000 0040 1b8e b53f 0000 00c0 348b 9ebf
00000230: 0000 00c0 a55f ab3f 0000 0040 aa23 a1bf
00000240: 0000 00a0 101b a83f 0000 00e0 5ac1 a63f
00000250: 0000 0080 7748 a03f 0000 0020 8319 9ebf
00000260: 0000 00c0 a4fc 583f 0000 0080 7c6a ac3f
00000270: 0000 00c0 8461 9f3f 0000 0040 89e2 a63f
00000280: 0000 0040 3239 8dbf 0000 0000 b957 853f
00000290: 0000 0020 0a5a a4bf 0000 00a0 60b4 a2bf
000002a0: 0000 00e0 9019 b13f 0000 00c0 5a11 52bf
000002b0: 0000 00e0 6b8a ad3f 0000 0080 1e22 c13f
000002c0: 0000 0040 ec1b b63f 0000 0000 61f1 b63f
000002d0: 0000 00a0 7f70 92bf 0000 00e0 2b50 9cbf
000002e0: 0000 00e0 ff12 b33f 0000 0020 1354 bdbf
000002f0: 0000 0040 ee93 b7bf 0000 0040 00c4 aebf
00000300: 0000 0020 1717 c3bf 0000 00a0 938d a9bf
00000310: 0000 0020 971e b0bf 0000 0060 1224 9e3f
00000320: 0000 00e0 6810 8d3f 0000 0020 490f 8fbf
00000330: 0000 0020 9f1d 8d3f 0000 0060 9174 7cbf
00000340: 0000 0000 ef94 973f 0000 00e0 1669 6ebf
00000350: 0000 00c0 ed79 6ebf 0000 0080 b9ed 9ebf
00000360: 0000 0000 e5a4 8bbf 0000 00c0 8ed8 643f
00000370: 0000 0060 c845 83bf 0000 0060 db49 783f
00000380: 0000 0060 38d7 953f 0000 00e0 f571 86bf
00000390: 0000 0060 283c 813f 0000 00c0 58d4 683f
000003a0: 0000 00e0 993a 9abf 0000 00a0 67ea 363f
000003b0: 0000 00e0 936b 72bf 0000 00c0 2def b0bf
000003c0: 0000 00a0 fa9c b2bf 0000 0040 a1d6 a9bf
000003d0: 0000 0000 f1f1 a2bf 0000 0040 ec29 963f
000003e0: 0000 00a0 7edb a03f 0000 0080 ae88 a03f
000003f0: 0000 0020 4323 b7bf 0000 00a0 a728 b6bf
00000400: 0000 0040 072e a8bf 0000 0020 0ff2 93bf
00000410: 0000 0020 fb61 a63f 0000 0060 3195 a03f
00000420: 0000 0060 1008 88bf 0000 00a0 f104 9cbf
00000430: 0000 00a0 798a c4bf 0000 0080 f9c4 77bf
00000440: 0000 0060 f494 77bf 0000 0060 d62b a73f
00000450: 0000 00e0 df4b b43f 0000 0040 305d b73f
00000460: 0000 0020 f5d9 af3f 0000 00c0 1146 bb3f
00000470: 0000 00e0 20ef b23f 0000 0060 fc74 b3bf
00000480: 0000 00c0 d6fe a13f 0000 00a0 e8c9 aa3f
00000490: 0000 0080 6413 a13f 0000 0080 ab97 803f
000004a0: 0000 0080 4324 913f 0000 00e0 afcc ad3f
000004b0: 0000 0040 d6ca 6bbf 0000 00c0 11b3 a13f
000004c0: 0000 0020 6914 9b3f 0000 0000 56d6 aa3f
000004d0: 0000 0040 8114 b83f 0000 00e0 95c0 c03f
000004e0: 0000 0080 7926 a7bf 0000 0020 97bd a43f
000004f0: 0000 0060 9493 b03f 0000 00e0 791a a4bf
00000500: 0000 0060 7e69 753f 0000 0080 a5a3 a3bf
00000510: 0000 00a0 cd4f a03f 0000 0040 61c4 633f
00000520: 0000 00e0 6ba3 963f 0000 0040 aef5 853f
00000530: 0000 0040 c34e 993f 0000 0000 9069 903f
00000540: 0000 0080 676b 833f 0000 00c0 cf49 75bf
00000550: 0000 0060 05b0 873f 0000 0040 7389 923f
00000560: 0000 0060 ad47 863f 0000 0020 6add 2f3f
00000570: 0000 0080 52f4 aebf 0000 0020 a070 aabf
00000580: 0000 0020 20b2 98bf 0000 0080 7453 afbf
00000590: 0000 0080 94aa aabf 0000 0000 8391 b0bf
000005a0: 0000 00a0 9d35 97bf 0000 0020 cb51 97bf
000005b0: 0000 0020 4d1f b03f 0000 00c0 f241 b1bf
000005c0: 0000 0060 d470 a1bf 0000 00a0 be4c aabf
000005d0: 0000 00c0 9309 c2bf 0000 0000 3427 adbf
000005e0: 0000 00a0 10be a3bf 0000 0080 7355 7dbf
000005f0: 0000 00e0 98e7 afbf 0000 0020 a0a0 95bf
00000600: 0000 0020 9ecc a1bf 0000 0040 c34b 97bf
00000610: 0000 0080 130b 963f 0000 0020 2a52 903f
00000620: 0000 00a0 5e90 963f 0000 0040 0c55 b23f
00000630: 0000 0000 06a2 97bf 0000 0000 73e3 a5bf
00000640: 0000 0000 8bee abbf 0000 0080 7d8d 803f
00000650: 0000 00c0 0aa1 603f 0000 0060 d9bd 59bf
00000660: 0000 00e0 4ef0 963f 0000 00e0 45c6 92bf
00000670: 0000 0000 f066 a9bf 0000 00c0 df46 bdbf
00000680: 0000 00c0 c9dc b0bf 0000 0020 c608 b0bf
00000690: 0000 00e0 13c2 863f 0000 00e0 ef9f b3bf
000006a0: 0000 0080 159a a5bf 0000 0080 ce90 c03f
000006b0: 0000 0000 d5a6 9e3f 0000 0040 0ed1 b73f
000006c0: 0000 00a0 8108 91bf 0000 00a0 ce0a a7bf
000006d0: 0000 0080 cf28 adbf 0000 00c0 fd3b a8bf
000006e0: 0000 0080 8012 a9bf 0000 0000 2c9c b4bf
000006f0: 0000 0000 4738 a0bf 0000 00c0 c25e acbf
00000700: 0000 00c0 5788 b6bf 0000 0040 b9eb 94bf
00000710: 0000 0020 731b 92bf 0000 0020 1257 31bf
00000720: 0000 00c0 420a 92bf 0000 0000 86ed 86bf
00000730: 0000 00a0 3c50 9a3f 0000 0020 7a14 a9bf
00000740: 0000 0060 2c97 7dbf 0000 00a0 a282 833f
00000750: 0000 0000 bd41 b33f 0000 00a0 f767 82bf
00000760: 0000 00a0 da73 a7bf 0000 00c0 bbf5 bb3f
00000770: 0000 00a0 bc85 9b3f 0000 00e0 a289 b8bf
00000780: 0000 00e0 d7f6 b4bf 0000 0000 bfa5 a4bf
00000790: 0000 0020 ad03 b5bf 0000 00c0 ad49 a4bf
000007a0: 0000 0020 863c a1bf 0000 0020 9093 adbf
000007b0: 0000 0060 18d5 8cbf 0000 00e0 2ba9 9dbf
000007c0: 0000 0040 f4e7 84bf 0000 0020 48a5 a83f
000007d0: 0000 00e0 cba7 a43f 0000 0000 6e14 b93f
000007e0: 0000 00c0 bbf9 a73f 0000 0040 0ce6 ac3f
000007f0: 0000 00e0 6901 a93f 0000 0020 ac1b 5d3f

m_conv3.m_conv3_a.bias f8 [64]
0.08708608895540237 -0.05832967907190323 -0.07664193212985992 -0.17631062865257263 -0.04423139616847038 -0.004709228873252869 -0.022115139290690422 -0.06066907197237015
0.10178468376398087 0.08434264361858368 0.026014767587184906 -0.011678379960358143 0.051046229898929596 -0.026058534160256386 -0.031536828726530075 -0.006527461111545563
0.004699165932834148 0.04024212807416916 -0.0032919603399932384 0.08255422860383987 -0.05244898051023483 -0.00031049156677909195 -0.05365040898323059 -0.02464967779815197
-0.02312808856368065 -0.045468613505363464 -0.012671024538576603 -0.08206506073474884 0.042807262390851974 -0.017126861959695816 -0.09089110046625137 -0.08326443284749985
0.04831523820757866 -0.023176012560725212 -0.030909141525626183 0.13240547478199005 -0.038049645721912384 0.05765142664313316 -0.0335351824760437 -0.087821826338768
-0.09228208661079407 0.013197588734328747 -0.026914628222584724 0.04031065106391907 -0.029298802837729454 0.021632913500070572 0.07487194985151291 0.08086784183979034
0.016131363809108734 -0.08190256357192993 -0.025731947273015976 -0.0012543402845039964 -0.06643011420965195 0.10142681002616882 -0.019844697788357735 0.028779929503798485
0.00018866395112127066 -0.049273330718278885 0.026302389800548553 -0.04438454285264015 0.04748132452368736 -0.04592093825340271 -0.03900531306862831 -0.0907125249505043
00000000: 0000 0020 464b b63f 0000 0040 63dd adbf
00000010: 0000 0040 ce9e b3bf 0000 00c0 5891 c6bf
00000020: 0000 0060 7fa5 a6bf 0000 0000 fc49 73bf
00000030: 0000 00e0 59a5 96bf 0000 0040 0410 afbf
00000040: 0000 00a0 8f0e ba3f 0000 00c0 7a97 b53f
00000050: 0000 0080 9da3 9a3f 0000 00a0 d5ea 87bf
00000060: 0000 0040 bb22 aa3f 0000 00a0 16af 9abf
00000070: 0000 0060 9825 a0bf 0000 0000 8abc 7abf
00000080: 0000 00c0 6e3f 733f 0000 00c0 9d9a a43f
00000090: 0000 00c0 bdf7 6abf 0000 0020 4622 b53f
000000a0: 0000 00c0 97da aabf 0000 0020 2f59 34bf
000000b0: 0000 0000 1178 abbf 0000 00e0 c33d 99bf
000000c0: 0000 00c0 e3ae 97bf 0000 0080 a947 a7bf
000000d0: 0000 0020 44f3 89bf 0000 0040 3702 b5bf
000000e0: 0000 0060 d5ea a53f 0000 0040 b489 91bf
000000f0: 0000 00a0 a344 b7bf 0000 0060 d150 b5bf
00000100: 0000 0060 c6bc a83f 0000 00e0 73bb 97bf
00000110: 0000 0060 a5a6 9fbf 0000 00a0 a9f2 c03f
00000120: 0000 0040 3e7b a3bf 0000 00e0 7c84 ad3f
00000130: 0000 0000 862b a1bf 0000 00c0 7d7b b6bf
00000140: 0000 0080 cc9f b7bf 0000 0060 5607 8b3f
00000150: 0000 0020 828f 9bbf 0000 0000 99a3 a43f
00000160: 0000 0060 8100 9ebf 0000 0040 f026 963f
00000170: 0000 00e0 ce2a b33f 0000 0040 c1b3 b43f
00000180: 0000 0080 bd84 903f 0000 0000 91f7 b4bf
00000190: 0000 00c0 7959 9abf 0000 00a0 158d 54bf
000001a0: 0000 0060 9001 b1bf 0000 0080 1bf7 b93f
000001b0: 0000 0020 2b52 94bf 0000 0060 7c78 9d3f
000001c0: 0000 0000 83ba 283f 0000 00a0 5a3a a9bf
000001d0: 0000 0080 03ef 9a3f 0000 0020 92b9 a6bf
000001e0: 0000 00e0 784f a83f 0000 0000 f382 a7bf
000001f0: 0000 0020 81f8 a3bf 0000 00a0 ef38 b7bf

m_score3_a.m_score3_a.weight f8 [2, 64, 1, 1]
0.0566253699362278 -0.10919150710105896 -0.08733060210943222 0.03411118686199188 0.03902191296219826 0.0201856829226017 -0.04497688636183739 0.08200163394212723
0.05525964871048927 -0.02079508639872074 -0.04618452116847038 -0.1412620097398758 -0.04898311570286751 0.007360411342233419 0.009247547946870327 -0.11432342231273651
0.19810090959072113 -0.06258726865053177 0.09629365056753159 0.10287775099277496 -0.017583495005965233 0.19196541607379913 0.05377909913659096 0.03695664927363396
0.10018017143011093 -0.05815083160996437 0.0339524932205677 0.017284320667386055 -0.05611426755785942 -0.06026292219758034 0.0007079902570694685 -0.009019960649311543
-0.0862710252404213 -0.08120480924844742 0.11033815145492554 0.05295189842581749 -0.11388612538576126 -0.06856797635555267 -0.04180673882365227 -0.025913331657648087
-0.05403165891766548 0.13972917199134827 0.01836424507200718 0.09936760365962982 0.07559271901845932 0.10975001752376556 0.11501327157020569 0.03311804309487343
-0.021379172801971436 -0.024075210094451904 -0.03509901836514473 -0.09449248760938644 -0.0945936068892479 0.10861923545598984 0.03717084601521492 -0.05173730105161667
-0.0489463247358799 -0.046564824879169464 -0.09127228707075119 -0.034150805324316025 -0.22233743965625763 -0.0008532519568689167 0.004200155846774578 0.07001806050539017
-0.12405183166265488 0.09608590602874756 0.10305771231651306 -0.00606823805719614 0.03313516825437546 0.05854468792676926 0.08858014643192291 -0.056812483817338943
-0.03234538808465004 0.001103423535823822 -0.018253399059176445 0.1747812032699585 0.048682477325201035 0.039808809757232666 -0.02658787928521633 0.08141471445560455
-0.21273578703403473 0.023727135732769966 -0.10259564220905304 -0.03609519824385643 0.028567977249622345 -0.18834668397903442 -0.053946495056152344 -0.05518209934234619
-0.16398189961910248 0.005872918758541346 -0.029462400823831558 -0.037475161254405975 0.07363355904817581 0.12984851002693176 0.03331990912556648 0.044383447617292404
0.13564497232437134 0.06638296693563461 -0.06738489866256714 0.03224759176373482 0.15435610711574554 0.07794135063886642 0.021817859262228012 0.015682635828852654
0.03611813485622406 -0.06991115212440491 -0.04066495597362518 -0.15067023038864136 -0.017259059473872185 -0.06246142089366913 -0.1535809338092804 -0.03502873703837395
0.08077854663133621 0.09526249021291733 -0.04912172257900238 0.1104896143078804 0.07725118845701218 -0.029801635071635246 0.02945990115404129 0.012341158464550972
-0.0016913253348320723 0.03337370231747627 0.1183079406619072 0.07596079260110855 0.19200275838375092 -0.08116869628429413 -0.04111495241522789 -0.07138126343488693
00000000: 0000 0020 00fe ac3f 0000 0080 f9f3 bbbf
00000010: 0000 0060 4c5b b6bf 0000 0080 0577 a13f
00000020: 0000 0020 aefa a33f 0000 0040 8eab 943f
00000030: 0000 00e0 3507 a7bf 0000 0020 0ffe b43f
00000040: 0000 0020 fe4a ac3f 0000 00a0 4e4b 95bf
00000050: 0000 0060 7fa5 a7bf 0000 00a0 df14 c2bf
00000060: 0000 00a0 5014 a9bf 0000 0060 f325 7e3f
00000070: 0000 00e0 60f0 823f 0000 00c0 4c44 bdbf
00000080: 0000 00e0 5e5b c93f 0000 0020 b805 b0bf
00000090: 0000 0060 b3a6 b83f 0000 0040 3256 ba3f
000000a0: 0000 0060 6801 92bf 0000 00a0 5292 c83f
000000b0: 0000 0020 ef88 ab3f 0000 0060 fbeb a23f
000000c0: 0000 0060 68a5 b93f 0000 0020 f2c5 adbf
000000d0: 0000 00a0 3862 a13f 0000 0020 fbb2 913f
000000e0: 0000 0060 02bb acbf 0000 0020 c8da aebf
000000f0: 0000 0080 0d33 473f 0000 00a0 0e79 82bf
00000100: 0000 00a0 db15 b6bf 0000 00a0 d6c9 b4bf
00000110: 0000 0000 1f3f bc3f 0000 00e0 821c ab3f
00000120: 0000 0020 a427 bdbf 0000 00c0 ab8d b1bf
00000130: 0000 0060 b167 a5bf 0000 0040 0689 9abf
00000140: 0000 00a0 09aa abbf 0000 0040 a5e2 c13f
00000150: 0000 00a0 13ce 923f 0000 00c0 2770 b93f
00000160: 0000 0060 0b5a b33f 0000 00c0 9318 bc3f
00000170: 0000 0080 8271 bd3f 0000 0020 d9f4 a03f
00000180: 0000 0000 6ce4 95bf 0000 0000 2ca7 98bf
00000190: 0000 00a0 7ff8 a1bf 0000 00e0 a830 b8bf
000001a0: 0000 0060 4937 b8bf 0000 0060 78ce bb3f
000001b0: 0000 00a0 0e08 a33f 0000 00c0 4f7d aabf
000001c0: 0000 0020 7e0f a9bf 0000 0040 58d7 a7bf
000001d0: 0000 00e0 9e5d b7bf 0000 00e0 367c a1bf
000001e0: 0000 00a0 8d75 ccbf 0000 00a0 98f5 4bbf
000001f0: 0000 00c0 2e34 713f 0000 0020 b4ec b13f
00000200: 0000 0060 dcc1 bfbf 0000 0000 1699 b83f
00000210: 0000 0080 fd61 ba3f 0000 0040 02db 78bf
00000220: 0000 00c0 17f7 a03f 0000 00c0 91f9 ad3f
00000230: 0000 0040 30ad b63f 0000 00a0 8616 adbf
00000240: 0000 0020 938f a0bf 0000 0000 1814 523f
00000250: 0000 00e0 04b1 92bf 0000 0000 3b5f c63f
00000260: 0000 00e0 e8ec a83f 0000 0000 d261 a43f
00000270: 0000 0060 da39 9bbf 0000 0040 98d7 b43f
00000280: 0000 0020 ed3a cbbf 0000 0020 ed4b 983f
00000290: 0000 0040 b543 babf 0000 00e0 117b a2bf
000002a0: 0000 0080 ec40 9d3f 0000 0080 be1b c8bf
000002b0: 0000 0000 e09e abbf 0000 0000 d440 acbf
000002c0: 0000 00e0 5bfd c4bf 0000 00a0 330e 783f
000002d0: 0000 0040 642b 9ebf 0000 00c0 f12f a3bf
000002e0: 0000 0020 a6d9 b23f 0000 0040 e09e c03f
000002f0: 0000 00a0 4e0f a13f 0000 0060 6db9 a63f
00000300: 0000 0080 d05c c13f 0000 0060 79fe b03f
00000310: 0000 0000 2340 b1bf 0000 00a0 c182 a03f
00000320: 0000 00e0 f0c1 c33f 0000 00e0 f6f3 b33f
00000330: 0000 00c0 6b57 963f 0000 00e0 1b0f 903f
00000340: 0000 0080 137e a23f 0000 0080 b2e5 b1bf
00000350: 0000 0080 09d2 a4bf 0000 0080 2949 c3bf
00000360: 0000 00e0 5bac 91bf 0000 0080 f1fa afbf
00000370: 0000 0040 8aa8 c3bf 0000 0060 49ef a1bf
00000380: 0000 0020 e7ad b43f 0000 0060 1f63 b83f
00000390: 0000 0080 7b26 a9bf 0000 0020 0c49 bc3f
000003a0: 0000 00e0 bbc6 b33f 0000 00e0 5184 9ebf
000003b0: 0000 0080 bc2a 9e3f 0000 0040 5246 893f
000003c0: 0000 00c0 eeb5 5bbf 0000 00a0 5b16 a13f
000003d0: 0000 00e0 6d49 be3f 0000 00a0 2a72 b33f
000003e0: 0000 00e0 8b93 c83f 0000 00c0 78c7 b4bf
000003f0: 0000 00e0 040d a5bf 0000 00e0 0a46 b2bf

m_score3_a.m_score3_a.bias f8 [2]
-0.18298132717609406 0.18298186361789703
00000000: 0000 00a0 ee6b c7bf 0000 0020 f36b c73f
