models/UniNet_ND_FeatNet.pth (torch_old, 220792 bytes, 4 tensors)

conv1.conv1_a.weight f8 [16, 1, 3, 7]
-0.681495189666748 -0.5507937669754028 0.0432136133313179 0.23892375826835632 -0.057735003530979156 0.2145972102880478 0.7824525237083435 -0.317388653755188
-0.10584370791912079 -0.3552611172199249 -0.2974931001663208 0.07109036296606064 0.46095484495162964 0.4527888298034668 -0.7238394618034363 -0.235763818025589
-0.18866337835788727 -0.40115979313850403 0.3783755600452423 0.3726840615272522 0.5414596796035767 0.09710937738418579 0.25149068236351013 -0.0943649634718895
0.21139465272426605 -0.35209140181541443 -0.27667343616485596 -0.4598507881164551 0.15414555370807648 0.2149016112089157 0.31427690386772156 0.1539539247751236
-0.28727179765701294 -0.23466750979423523 0.10313936322927475 -0.20475128293037415 0.14458809792995453 0.16770485043525696 -0.1279977709054947 0.23921968042850494
-0.2582602798938751 -0.26140376925468445 0.17871543765068054 -0.15554139018058777 -0.37527763843536377 -0.2989844083786011 -0.044323187321424484 -0.32318902015686035
0.2165040820837021 -0.18672044575214386 0.2903233766555786 -0.23105168342590332 0.26969847083091736 0.12136361747980118 -0.3130500018596649 0.40702930092811584
-0.16569040715694427 -0.18000324070453644 0.3031977713108063 0.05199864134192467 0.34232425689697266 -0.22212059795856476 -0.12383035570383072 0.2756294906139374
0.38235169649124146 0.036061592400074005 -0.3008668124675751 -0.2320423275232315 -0.19802597165107727 -0.2740575671195984 -0.03811217099428177 -0.15567141771316528
-0.010286981239914894 -0.012033051811158657 0.014856966212391853 0.2789665758609772 -0.10439524054527283 -0.27628839015960693 -0.22991715371608734 -0.2440473735332489
0.4520014524459839 0.07419773936271667 -0.26957404613494873 0.08636338263750076 0.4050747752189636 0.450577974319458 0.08187048882246017 -0.14554166793823242
-0.20089125633239746 -0.587568998336792 -0.35219159722328186 0.6253659725189209 0.26729246973991394 -0.1923193335533142 0.25947922468185425 -0.104529969394207
-0.2833118140697479 -0.5327874422073364 0.7388420701026917 0.5943588018417358 0.520100474357605 -0.13651739060878754 -0.4627772867679596 0.013803319074213505
-0.5518814325332642 0.29643720388412476 -0.17668743431568146 -0.38483095169067383 0.32614049315452576 -0.16289456188678741 -0.24619846045970917 -0.15414248406887054
-0.24190650880336761 -0.14873874187469482 -0.3120325803756714 0.18268358707427979 0.37257862091064453 -0.011442158371210098 -0.335083544254303 0.15088827908039093
-0.04946252703666687 0.325895220041275 0.05379638820886612 0.19174803793430328 0.2430627942085266 -0.050255436450242996 0.041058264672756195 -0.1912418156862259
-0.11220359802246094 -0.039513908326625824 0.23476018011569977 0.27547529339790344 0.3058208227157593 -0.20790839195251465 0.03838556259870529 0.035979531705379486
0.05776890367269516 0.2658824622631073 0.08515042066574097 0.012276916764676571 -0.20476925373077393 -0.016857432201504707 0.3099301755428314 0.293554425239563
-0.17812174558639526 -0.20631296932697296 -0.10192481428384781 0.15944747626781464 0.17556427419185638 0.21606436371803284 -0.18808870017528534 0.11578261852264404
-0.4011692702770233 -0.458254873752594 0.3782796859741211 0.4883023798465729 -0.11368639767169952 -0.18931280076503754 0.2957361340522766 -0.3111531734466553
-0.3205149471759796 -0.12477720528841019 -0.01665559411048889 0.26474228501319885 0.2516968548297882 -0.3125499188899994 -0.15910282731056213 -0.2678413689136505
0.057222720235586166 -0.29841214418411255 -0.15982303023338318 0.07240390032529831 0.018356146290898323 0.06473927944898605 -0.18866589665412903 0.04983979091048241
-0.35012322664260864 0.05484555661678314 0.24880152940750122 -0.06990183144807816 0.39754965901374817 0.2053360641002655 -0.061244282871484756 -0.4498978555202484
-0.2604343891143799 -0.11765113472938538 0.21027791500091553 0.06396745145320892 0.36370769143104553 0.11465736478567123 0.44622451066970825 -0.2924695312976837
0.04583027586340904 -0.26189151406288147 -0.10271386057138443 -0.5279708504676819 0.571036159992218 0.3581702411174774 0.2803616523742676 0.13501571118831635
0.004491879139095545 -0.3795590400695801 -0.501134991645813 0.5410779118537903 0.16875368356704712 0.06440684199333191 -0.29648900032043457 -0.03698461875319481
0.15762051939964294 0.027328120544552803 0.1929941475391388 0.07143738120794296 -0.08150533586740494 0.27998557686805725 -0.1554519087076187 0.057388532906770706
0.13386131823062897 0.11181862652301788 -0.3777528703212738 0.29805251955986023 0.27050092816352844 -0.19545820355415344 0.017680738121271133 0.3241432011127472
-0.4008599519729614 -0.01737234927713871 -0.36470505595207214 0.29254958033561707 0.14267998933792114 0.05160590633749962 0.08864115923643112 0.6500617265701294
-0.19938793778419495 0.13100838661193848 -0.3656535744667053 -0.39093875885009766 -0.38111695647239685 -0.600806713104248 0.3698204457759857 0.4472731947898865
-0.2623116374015808 0.2968278229236603 -0.17100296914577484 -0.402161568403244 0.03489752858877182 0.47570282220840454 0.28035545349121094 0.3759482800960541
-0.0422896184027195 0.2731146216392517 -0.38983210921287537 -0.4693395793437958 -0.30116385221481323 -0.5302460789680481 0.18445247411727905 0.08969402313232422
00000000: 0000 0000 cfce e5bf 0000 0040 1aa0 e1bf
00000010: 0000 0040 1820 a63f 0000 00c0 0d95 ce3f
00000020: 0000 0040 718f adbf 0000 00e0 eb77 cb3f
00000030: 0000 00e0 d909 e93f 0000 0080 1850 d4bf
00000040: 0000 00c0 9218 bbbf 0000 0020 99bc d6bf
00000050: 0000 0080 200a d3bf 0000 0060 fa32 b23f
00000060: 0000 00c0 4880 dd3f 0000 0000 7efa dc3f
00000070: 0000 0060 b129 e7bf 0000 0040 822d cebf
00000080: 0000 0020 1f26 c8bf 0000 0020 9aac d9bf
00000090: 0000 0020 4e37 d83f 0000 0040 0eda d73f
000000a0: 0000 0040 a353 e13f 0000 0000 29dc b83f
000000b0: 0000 0060 6c18 d03f 0000 0060 4d28 b8bf
000000c0: 0000 00e0 fa0e cb3f 0000 0060 aa88 d6bf
000000d0: 0000 0080 04b5 d1bf 0000 0000 326e ddbf
000000e0: 0000 00a0 0abb c33f 0000 0060 e581 cb3f
000000f0: 0000 00e0 1c1d d43f 0000 0020 c3b4 c33f
00000100: 0000 0040 a962 d2bf 0000 00c0 9509 cebf
00000110: 0000 0060 5767 ba3f 0000 0040 4a35 cabf
00000120: 0000 00e0 dc81 c23f 0000 0040 5a77 c53f
00000130: 0000 0020 3b62 c0bf 0000 0020 c09e ce3f
00000140: 0000 0020 5687 d0bf 0000 00e0 d6ba d0bf
00000150: 0000 00c0 25e0 c63f 0000 00c0 c7e8 c3bf
00000160: 0000 0080 8c04 d8bf 0000 0080 8f22 d3bf
00000170: 0000 0060 87b1 a6bf 0000 0000 21af d4bf
00000180: 0000 00e0 67b6 cb3f 0000 00a0 74e6 c7bf
00000190: 0000 0080 a894 d23f 0000 0000 1a93 cdbf
000001a0: 0000 0060 bd42 d13f 0000 00a0 af11 bf3f
000001b0: 0000 00e0 0209 d4bf 0000 00a0 c40c da3f
000001c0: 0000 00e0 5735 c5bf 0000 00a0 580a c7bf
000001d0: 0000 00a0 9767 d33f 0000 00e0 909f aa3f
000001e0: 0000 0000 a4e8 d53f 0000 00a0 726e ccbf
000001f0: 0000 00a0 58b3 bfbf 0000 00e0 e9a3 d13f
00000200: 0000 0040 7378 d83f 0000 0040 aa76 a23f
00000210: 0000 00e0 6641 d3bf 0000 0020 90b3 cdbf
00000220: 0000 0040 ea58 c9bf 0000 00c0 288a d1bf
00000230: 0000 0040 7083 a3bf 0000 0080 0aed c3bf
00000240: 0000 0040 5711 85bf 0000 00e0 c8a4 88bf
00000250: 0000 0040 546d 8e3f 0000 00a0 96da d13f
00000260: 0000 0080 a5b9 babf 0000 0080 b5ae d1bf
00000270: 0000 00e0 ec6d cdbf 0000 00c0 f13c cfbf
00000280: 0000 0080 97ed dc3f 0000 0080 9ffe b23f
00000290: 0000 0080 b340 d1bf 0000 0020 e91b b63f
000002a0: 0000 00c0 beec d93f 0000 0000 45d6 dc3f
000002b0: 0000 00e0 76f5 b43f 0000 0000 1ca1 c2bf
000002c0: 0000 0000 ceb6 c9bf 0000 0080 5dcd e2bf
000002d0: 0000 00a0 4e8a d6bf 0000 0080 ff02 e43f
000002e0: 0000 00e0 511b d13f 0000 0080 eb9d c8bf
000002f0: 0000 00c0 4e9b d03f 0000 00e0 79c2 babf
00000300: 0000 00e0 c721 d2bf 0000 0040 980c e1bf
00000310: 0000 0020 98a4 e73f 0000 00c0 fc04 e33f
00000320: 0000 00c0 a9a4 e03f 0000 00e0 6679 c1bf
00000330: 0000 00a0 249e ddbf 0000 0020 ea44 8c3f
00000340: 0000 0040 03a9 e1bf 0000 00c0 d3f8 d23f
00000350: 0000 00a0 b19d c6bf 0000 0000 12a1 d8bf
00000360: 0000 0060 7cdf d43f 0000 00a0 bad9 c4bf
00000370: 0000 0060 6e83 cfbf 0000 00e0 f0ba c3bf
00000380: 0000 00e0 caf6 cebf 0000 0000 df09 c3bf
00000390: 0000 0080 57f8 d3bf 0000 0000 2d62 c73f
000003a0: 0000 0000 54d8 d73f 0000 0080 fc6e 87bf
000003b0: 0000 0040 0272 d5bf 0000 00a0 4e50 c33f
000003c0: 0000 0000 2753 a9bf 0000 00a0 77db d43f
000003d0: 0000 0040 338b ab3f 0000 0020 338b c83f
000003e0: 0000 0080 ae1c cf3f 0000 00a0 14bb a9bf
000003f0: 0000 00c0 9605 a53f 0000 00a0 9c7a c8bf
00000400: 0000 0000 60b9 bcbf 0000 00c0 2a3b a4bf
00000410: 0000 0020 9f0c ce3f 0000 0020 63a1 d13f
00000420: 0000 0080 9192 d33f 0000 0000 be9c cabf
00000430: 0000 00c0 45a7 a33f 0000 00c0 e86b a23f
00000440: 0000 00c0 e293 ad3f 0000 00e0 3704 d13f
00000450: 0000 0000 6bcc b53f 0000 00e0 a324 893f
00000460: 0000 0000 e135 cabf 0000 0020 1343 91bf
00000470: 0000 0060 e5d5 d33f 0000 0080 98c9 d23f
00000480: 0000 0080 b1cc c6bf 0000 00a0 7668 cabf
00000490: 0000 00a0 be17 babf 0000 0060 c668 c43f
000004a0: 0000 00e0 e378 c63f 0000 0040 ffa7 cb3f
000004b0: 0000 0060 4a13 c8bf 0000 0000 eea3 bd3f
000004c0: 0000 00e0 c1ac d9bf 0000 0040 0c54 ddbf
000004d0: 0000 0000 bc35 d83f 0000 00a0 5840 df3f
000004e0: 0000 0040 8d1a bdbf 0000 00e0 663b c8bf
000004f0: 0000 0040 57ed d23f 0000 0000 efe9 d3bf
00000500: 0000 0020 5183 d4bf 0000 0020 66f1 bfbf
00000510: 0000 0000 2a0e 91bf 0000 00a0 89f1 d03f
00000520: 0000 0020 cd1b d03f 0000 0060 d100 d4bf
00000530: 0000 0040 7b5d c4bf 0000 0020 5024 d1bf
00000540: 0000 00e0 4b4c ad3f 0000 0040 2f19 d3bf
00000550: 0000 00c0 1475 c4bf 0000 00e0 0f89 b23f
00000560: 0000 0020 f4cb 923f 0000 00e0 c092 b03f
00000570: 0000 0040 3426 c8bf 0000 00e0 9984 a93f
00000580: 0000 0040 6b68 d6bf 0000 0080 b714 ac3f
00000590: 0000 0080 bad8 cf3f 0000 0020 16e5 b1bf
000005a0: 0000 0020 7471 d93f 0000 00c0 7348 ca3f
000005b0: 0000 0020 695b afbf 0000 0060 20cb dcbf
000005c0: 0000 0000 f5aa d0bf 0000 0080 621e bebf
000005d0: 0000 0000 63ea ca3f 0000 00c0 2b60 b03f
000005e0: 0000 00a0 fc46 d73f 0000 0060 2f5a bd3f
000005f0: 0000 0040 f18e dc3f 0000 0020 d2b7 d2bf
00000600: 0000 00e0 1077 a73f 0000 00a0 d4c2 d0bf
00000610: 0000 00a0 744b babf 0000 0020 23e5 e0bf
00000620: 0000 00a0 ed45 e23f 0000 00e0 42ec d63f
00000630: 0000 0000 72f1 d13f 0000 00e0 3148 c13f
00000640: 0000 00a0 1366 723f 0000 0000 b24a d8bf
00000650: 0000 0040 4c09 e0bf 0000 00a0 8250 e13f
00000660: 0000 0080 b899 c53f 0000 0080 f77c b03f
00000670: 0000 0000 adf9 d2bf 0000 00e0 a5ef a2bf
00000680: 0000 00c0 e82c c43f 0000 0020 e7fb 9b3f
00000690: 0000 0040 08b4 c83f 0000 0060 b849 b23f
000006a0: 0000 00a0 88dd b4bf 0000 00a0 48eb d13f
000006b0: 0000 0020 d9e5 c3bf 0000 00a0 0762 ad3f
000006c0: 0000 0020 5e22 c13f 0000 0040 25a0 bc3f
000006d0: 0000 0060 1a2d d8bf 0000 00e0 4a13 d33f
000006e0: 0000 0020 e34f d13f 0000 0040 c604 c9bf
000006f0: 0000 0040 e61a 923f 0000 0020 c3be d43f
00000700: 0000 0080 b0a7 d9bf 0000 00a0 0eca 91bf
00000710: 0000 00e0 5357 d7bf 0000 00e0 21b9 d23f
00000720: 0000 0080 5643 c23f 0000 00e0 166c aa3f
00000730: 0000 00e0 2fb1 b63f 0000 0040 4ecd e43f
00000740: 0000 0040 8b85 c9bf 0000 0000 e2c4 c03f
00000750: 0000 0040 de66 d7bf 0000 0000 2405 d9bf
00000760: 0000 0060 3864 d8bf 0000 0000 cf39 e3bf
00000770: 0000 0060 23ab d73f 0000 00c0 1fa0 dc3f
00000780: 0000 00c0 b6c9 d0bf 0000 0020 3aff d23f
00000790: 0000 00e0 6ce3 c5bf 0000 00e0 03bd d9bf
000007a0: 0000 00c0 16de a13f 0000 0040 ea71 de3f
000007b0: 0000 0000 58f1 d13f 0000 0060 890f d83f
000007c0: 0000 0020 fca6 a5bf 0000 00c0 b57a d13f
000007d0: 0000 0060 02f3 d8bf 0000 00e0 a809 debf
000007e0: 0000 00c0 4446 d3bf 0000 00a0 c6f7 e0bf
000007f0: 0000 0080 239c c73f 0000 0000 30f6 b63f

conv2.conv2_a.weight f8 [32, 16, 3, 5]
0.07809451222419739 0.022733883932232857 0.12452279776334763 0.08769363164901733 0.11443917453289032 0.18789876997470856 0.14290036261081696 -0.0655212551355362
0.12378109991550446 0.12192734330892563 0.07012714445590973 0.12086805701255798 0.08118977397680283 -0.07426119595766068 0.0906643271446228 -0.07056346535682678
0.10793103277683258 -0.042477741837501526 -0.11740405112504959 -0.08855938166379929 -0.08378907293081284 0.09965654462575912 0.008843849413096905 -0.04047754034399986
-0.058454159647226334 0.061434004455804825 -0.027501890435814857 0.02664124220609665 -0.11403553932905197 -0.158417746424675 -0.049123525619506836 0.08722902834415436
0.03189994394779205 0.08757642656564713 0.04065150395035744 -0.05546712130308151 0.07177520543336868 0.08585671335458755 -0.07827824354171753 -0.08405715972185135
0.04555449262261391 0.003678049659356475 -0.06531291455030441 0.030560169368982315 0.007548893801867962 -0.05279190465807915 0.056947190314531326 0.0418347604572773
0.03300036862492561 -0.060396499931812286 0.11632133275270462 0.034564971923828125 -0.10110683739185333 0.0128931300714612 0.009973366744816303 -0.02795761451125145
0.05542513728141785 -0.014273294247686863 0.03802506998181343 0.02038995735347271 -0.05206406116485596 0.01269029825925827 -0.024474559351801872 -0.09669990092515945
-0.036450523883104324 -0.050395481288433075 0.021252337843179703 0.03804270178079605 0.06088417395949364 -0.1377779245376587 -0.10866217315196991 -0.08412867784500122
-0.07149750739336014 -0.059218667447566986 -0.01984836533665657 -0.09588873386383057 -0.006559311877936125 -0.010522814467549324 -0.09374648332595825 0.09899595379829407
0.05299319699406624 0.0095217889174819 0.04001935198903084 0.033271074295043945 -0.025893209502100945 0.011046919040381908 -0.011705405078828335 -0.10518858581781387
0.08466216176748276 -0.08737193048000336 0.004240949638187885 0.031652603298425674 0.006240996532142162 0.10374919325113297 0.12760524451732635 0.07724887877702713
-0.06159963086247444 -0.07853347063064575 0.11048216372728348 -0.045268189162015915 -0.14196142554283142 0.04095523804426193 0.007278904784470797 0.11233296245336533
-0.0026417779736220837 0.03409523516893387 0.10103403776884079 -0.02433379553258419 -0.0750250369310379 -0.18058356642723083 -0.0026221254374831915 0.019488193094730377
-0.08466123789548874 0.03435996174812317 -0.07378805428743362 0.047324128448963165 0.0485832504928112 -0.10512152314186096 -0.07223755121231079 -0.1469314694404602
0.11798467487096786 0.08113305270671844 0.08981650322675705 -0.0711221843957901 0.1086125373840332 0.10304652154445648 0.09657835215330124 0.022889910265803337
-0.04141184687614441 0.09259290248155594 -0.08816654980182648 -0.0002808926219586283 -0.0448811836540699 0.04117494076490402 0.09078443795442581 -0.004522889386862516
-0.1426486372947693 0.04986404627561569 -0.015331760980188847 0.028824033215641975 0.005275022238492966 0.04409486800432205 -0.07805027067661285 -0.03586279973387718
0.07610467821359634 -0.17607639729976654 -0.007367113139480352 -0.08797939866781235 0.01045845728367567 0.02866377867758274 -0.006970446556806564 -0.12995685636997223
0.07808124274015427 0.1378052681684494 0.15289965271949768 0.04480637609958649 0.030930304899811745 0.011697625741362572 0.09176354855298996 -0.04709145054221153
0.05766266584396362 -0.13117870688438416 -0.00507358368486166 0.07600516080856323 0.09227260947227478 0.04872075468301773 0.06254907697439194 -0.11345741897821426
-0.009214246645569801 -0.12380003184080124 0.03530767932534218 0.010035214945673943 -0.1328631490468979 0.040320783853530884 -0.20337612926959991 -0.012108635157346725
-0.07408614456653595 -0.05695796012878418 0.004079761914908886 -0.03264473378658295 0.07549282163381577 -0.029642121866345406 0.11289071291685104 0.1010821983218193
0.1290067434310913 0.11645590513944626 0.07356982678174973 0.0031668939627707005 -0.058428097516298294 0.12559829652309418 0.12570039927959442 -0.0009959260933101177
0.020587638020515442 -0.022641267627477646 0.033045753836631775 0.015118222683668137 0.1558190882205963 0.10835078358650208 -0.06334750354290009 -0.09284643083810806
0.15171001851558685 0.0747152641415596 0.09458306431770325 -0.03070240654051304 -0.09344751387834549 0.03714821860194206 0.030270123854279518 -0.017062919214367867
-0.04943745955824852 0.027747388929128647 0.09056039899587631 -0.09324571490287781 0.02317705750465393 -0.100250244140625 -0.14760197699069977 0.08065620064735413
-0.1060272678732872 -0.09345366805791855 -0.11070720106363297 -0.13279719650745392 -0.07199167460203171 0.018552841618657112 0.08208975940942764 -0.04994222894310951
-0.04557398334145546 0.0929722711443901 0.019037261605262756 0.03523730859160423 -0.014886965043842793 0.10603209584951401 -0.03915850445628166 -0.027198024094104767
0.08113682270050049 0.12849566340446472 0.0980178639292717 0.0015162989730015397 -0.0975450724363327 0.06847888231277466 0.0002897917293012142 -0.016366716474294662
0.0894828513264656 0.04591512307524681 0.02449735812842846 0.02455388382077217 0.018494196236133575 0.06978268176317215 0.07049816846847534 -0.0008997097611427307
0.020693864673376083 -0.11514393240213394 0.09782633930444717 -0.07839231193065643 0.04228271543979645 -0.05451812222599983 0.012521971017122269 0.02384226582944393
00000000: 0000 0080 00fe b33f 0000 0020 8d47 973f
00000010: 0000 00e0 b9e0 bf3f 0000 0000 1773 b63f
00000020: 0000 00c0 e24b bd3f 0000 0020 110d c83f
00000030: 0000 0020 8f4a c23f 0000 0040 00c6 b0bf
00000040: 0000 0040 1eb0 bf3f 0000 0060 a136 bf3f
00000050: 0000 0040 daf3 b13f 0000 0080 35f1 be3f
00000060: 0000 0060 dac8 b43f 0000 0020 c802 b3bf
00000070: 0000 0000 c735 b73f 0000 0080 7210 b2bf
00000080: 0000 0040 5ea1 bb3f 0000 0080 a4bf a5bf
00000090: 0000 0020 310e bebf 0000 00e0 d3ab b6bf
000000a0: 0000 0060 3373 b5bf 0000 0060 1783 b93f
000000b0: 0000 0060 b91c 823f 0000 00e0 78b9 a4bf
000000c0: 0000 0020 b4ed adbf 0000 0020 4774 af3f
000000d0: 0000 00a0 7429 9cbf 0000 0080 d747 9b3f
000000e0: 0000 00e0 6e31 bdbf 0000 0060 0847 c4bf
000000f0: 0000 0000 b826 a9bf 0000 0040 a454 b63f
00000100: 0000 0080 3055 a03f 0000 00a0 686b b63f
00000110: 0000 0020 46d0 a43f 0000 00c0 2f66 acbf
00000120: 0000 0020 dc5f b23f 0000 00a0 b4fa b53f
00000130: 0000 0000 0b0a b4bf 0000 0020 c584 b5bf
00000140: 0000 0020 eb52 a73f 0000 00e0 6d21 6e3f
00000150: 0000 00e0 58b8 b0bf 0000 0040 2a4b 9f3f
00000160: 0000 00c0 96eb 7e3f 0000 0060 8a07 abbf
00000170: 0000 00a0 2e28 ad3f 0000 00a0 5d6b a53f
00000180: 0000 00a0 6ce5 a03f 0000 0040 4aec aebf
00000190: 0000 0020 3cc7 bd3f 0000 0000 80b2 a13f
000001a0: 0000 0040 23e2 b9bf 0000 00a0 b667 8a3f
000001b0: 0000 00a0 ea6c 843f 0000 00c0 eba0 9cbf
000001c0: 0000 0000 af60 ac3f 0000 0020 513b 8dbf
000001d0: 0000 00a0 0578 a33f 0000 00e0 1ae1 943f
000001e0: 0000 0000 24a8 aabf 0000 0000 5ffd 893f
000001f0: 0000 00e0 db0f 99bf 0000 0020 53c1 b8bf
00000200: 0000 00a0 a4a9 a2bf 0000 00c0 6fcd a9bf
00000210: 0000 0040 2cc3 953f 0000 0040 557a a33f
00000220: 0000 00e0 352c af3f 0000 0000 b5a2 c1bf
00000230: 0000 00c0 48d1 bbbf 0000 0000 7589 b5bf
00000240: 0000 0020 a94d b2bf 0000 00c0 e851 aebf
00000250: 0000 0040 2153 94bf 0000 0000 2a8c b8bf
00000260: 0000 00e0 efdd 7abf 0000 0040 fc8c 85bf
00000270: 0000 0000 c5ff b7bf 0000 0080 cc57 b93f
00000280: 0000 00a0 ec21 ab3f 0000 00e0 2880 833f
00000290: 0000 00a0 6a7d a43f 0000 0000 e808 a13f
000002a0: 0000 00e0 bf83 9abf 0000 0060 c49f 863f
000002b0: 0000 00e0 00f9 87bf 0000 00a0 a3ed babf
000002c0: 0000 0060 6bac b53f 0000 00c0 015e b6bf
000002d0: 0000 0040 f55e 713f 0000 0020 c534 a03f
000002e0: 0000 00c0 2890 793f 0000 00a0 4e8f ba3f
000002f0: 0000 0060 5e55 c03f 0000 0020 95c6 b33f
00000300: 0000 00a0 fc89 afbf 0000 0000 c51a b4bf
00000310: 0000 0020 8f48 bc3f 0000 0060 642d a7bf
00000320: 0000 00c0 ca2b c2bf 0000 00c0 15f8 a43f
00000330: 0000 0020 7cd0 7d3f 0000 0060 dac1 bc3f
00000340: 0000 00c0 35a4 65bf 0000 0040 ee74 a13f
00000350: 0000 00e0 5ddd b93f 0000 0060 f5ea 98bf
00000360: 0000 0040 d734 b3bf 0000 00c0 5c1d c7bf
00000370: 0000 00e0 fe7a 65bf 0000 0080 b6f4 933f
00000380: 0000 00e0 5bac b5bf 0000 0000 a197 a13f
00000390: 0000 0020 c6e3 b2bf 0000 0040 de3a a83f
000003a0: 0000 0060 e7df a83f 0000 0080 3ee9 babf
000003b0: 0000 0000 297e b2bf 0000 0080 a6ce c2bf
000003c0: 0000 0060 3e34 be3f 0000 00c0 22c5 b43f
000003d0: 0000 00e0 36fe b63f 0000 0040 1035 b2bf
000003e0: 0000 0000 08ce bb3f 0000 00c0 4161 ba3f
000003f0: 0000 00e0 5bb9 b83f 0000 00e0 7370 973f
00000400: 0000 0000 ef33 a5bf 0000 0020 2bb4 b73f
00000410: 0000 0040 1592 b6bf 0000 00a0 9868 32bf
00000420: 0000 00a0 aafa a6bf 0000 00c0 e114 a53f
00000430: 0000 0020 a63d b73f 0000 00e0 9786 72bf
00000440: 0000 0080 4f42 c2bf 0000 00c0 c787 a93f
00000450: 0000 0020 4266 8fbf 0000 0020 0c84 9d3f
00000460: 0000 0000 439b 753f 0000 0040 9a93 a63f
00000470: 0000 0040 1afb b3bf 0000 00e0 9b5c a2bf
00000480: 0000 00a0 987b b33f 0000 00e0 ab89 c6bf
00000490: 0000 0060 fa2c 7ebf 0000 0060 d185 b6bf
000004a0: 0000 0060 3e6b 853f 0000 00a0 095a 9d3f
000004b0: 0000 0000 0b8d 7cbf 0000 0020 6da2 c0bf
000004c0: 0000 00e0 21fd b33f 0000 0060 9aa3 c13f
000004d0: 0000 0040 3792 c33f 0000 0080 dcf0 a63f
000004e0: 0000 00a0 31ac 9f3f 0000 00c0 ecf4 873f
000004f0: 0000 00e0 d07d b73f 0000 00e0 5e1c a8bf
00000500: 0000 0000 f685 ad3f 0000 00c0 76ca c0bf
00000510: 0000 00c0 09c8 74bf 0000 0000 1375 b33f
00000520: 0000 0080 2d9f b73f 0000 0040 edf1 a83f
00000530: 0000 0060 3703 b03f 0000 00a0 8b0b bdbf
00000540: 0000 0040 ebde 82bf 0000 00e0 5bb1 bfbf
00000550: 0000 0020 d913 a23f 0000 00c0 578d 843f
00000560: 0000 00e0 a801 c1bf 0000 0000 eda4 a43f
00000570: 0000 00a0 3a08 cabf 0000 0080 69cc 88bf
00000580: 0000 0040 4ff7 b2bf 0000 0000 9829 adbf
00000590: 0000 00c0 f0b5 703f 0000 0080 cfb6 a0bf
000005a0: 0000 0060 7f53 b33f 0000 0020 815a 9ebf
000005b0: 0000 00e0 67e6 bc3f 0000 00e0 85e0 b93f
000005c0: 0000 0000 4b83 c03f 0000 00e0 0dd0 bd3f
000005d0: 0000 00e0 78d5 b23f 0000 0040 75f1 693f
000005e0: 0000 00a0 49ea adbf 0000 00e0 9a13 c03f
000005f0: 0000 0060 f316 c03f 0000 0080 3751 50bf
00000600: 0000 0000 ed14 953f 0000 00c0 452f 97bf
00000610: 0000 0080 5feb a03f 0000 0080 4df6 8e3f
00000620: 0000 0040 e1f1 c33f 0000 0080 e0bc bb3f
00000630: 0000 00c0 8a37 b0bf 0000 00a0 c8c4 b7bf
00000640: 0000 00e0 3b6b c33f 0000 0020 8a20 b33f
00000650: 0000 0080 9836 b83f 0000 00a0 7370 9fbf
00000660: 0000 0020 2dec b7bf 0000 0060 1705 a33f
00000670: 0000 00a0 21ff 9e3f 0000 0020 f178 91bf
00000680: 0000 00e0 dd4f a9bf 0000 00c0 cf69 9c3f
00000690: 0000 0060 f72e b73f 0000 0080 f3de b7bf
000006a0: 0000 0000 babb 973f 0000 0000 00aa b9bf
000006b0: 0000 0020 9fe4 c2bf 0000 0080 e2a5 b43f
000006c0: 0000 0060 9a24 bbbf 0000 0060 94ec b7bf
000006d0: 0000 00a0 4e57 bcbf 0000 00a0 7fff c0bf
000006e0: 0000 00e0 0b6e b2bf 0000 0020 84ff 923f
000006f0: 0000 00a0 d503 b53f 0000 0020 0792 a9bf
00000700: 0000 0020 7955 a7bf 0000 00e0 07cd b73f
00000710: 0000 0000 817e 933f 0000 00e0 9f0a a23f
00000720: 0000 00a0 0e7d 8ebf 0000 0060 eb24 bb3f
00000730: 0000 0060 950c a4bf 0000 0080 ccd9 9bbf
00000740: 0000 0000 62c5 b43f 0000 00c0 8b72 c03f
00000750: 0000 00e0 b217 b93f 0000 00a0 d1d7 583f
00000760: 0000 00c0 b6f8 b8bf 0000 0000 d587 b13f
00000770: 0000 0000 e6fd 323f 0000 00c0 6fc2 90bf
00000780: 0000 0020 59e8 b63f 0000 00e0 2f82 a73f
00000790: 0000 00e0 d515 993f 0000 0040 a724 993f
000007a0: 0000 0080 24f0 923f 0000 0020 47dd b13f
000007b0: 0000 0000 2b0c b23f 0000 0000 507b 4dbf
000007c0: 0000 00c0 c530 953f 0000 00a0 127a bdbf
000007d0: 0000 00a0 250b b93f 0000 00c0 8411 b4bf
000007e0: 0000 0080 14a6 a53f 0000 00a0 cce9 abbf
000007f0: 0000 0080 1ea5 893f 0000 0060 1b6a 983f

conv3.conv3_a.weight f8 [64, 32, 3, 3]
0.03889642283320427 -0.10170809179544449 0.08085443824529648 0.06995205581188202 -0.0077152131125330925 0.09254283457994461 -0.08171436935663223 0.06304988265037537
-0.06665509939193726 -0.04499104619026184 0.08879928290843964 0.08296069502830505 0.05761301890015602 -0.0006509236409328878 -0.05807686597108841 -0.07964794337749481
-0.019952643662691116 -0.014047934673726559 -0.007200338877737522 0.014326153323054314 0.035959016531705856 0.056061096489429474 0.024860799312591553 -0.07760026305913925
0.01621422916650772 -0.08473940938711166 0.029280608519911766 0.06576520949602127 0.038017451763153076 -0.07389594614505768 0.08943533152341843 0.005703282076865435
0.10565759986639023 -0.024778546765446663 -0.04987877979874611 -0.002939242636784911 0.04337536171078682 0.06528151035308838 -0.07475461810827255 -0.05838652700185776
-0.09084910899400711 -0.10748564451932907 0.027287079021334648 0.018228601664304733 0.024015892297029495 -0.03814501687884331 -0.008970002643764019 0.017147937789559364
-0.002870128257200122 0.026752054691314697 -0.08078780770301819 0.054008420556783676 0.07512770593166351 0.030427251011133194 0.09523005038499832 0.04926517605781555
-0.0506824366748333 0.015582999214529991 0.018316322937607765 0.018869614228606224 -0.06984667479991913 0.021943029016256332 0.09156276285648346 -0.09902339428663254
-0.009121919982135296 -0.043493255972862244 -0.03174643963575363 0.0994061827659607 0.09534870088100433 0.02793973870575428 -0.09269615262746811 -0.0710877850651741
-0.07335764914751053 0.08274980634450912 0.052957914769649506 -0.08436492830514908 0.040539275854825974 0.026300949975848198 0.04281581938266754 -0.09847217798233032
-0.08054850995540619 -0.09423413872718811 0.018336221575737 0.050649773329496384 0.07845351099967957 -0.037489913403987885 0.08595774322748184 0.056488048285245895
0.009192158468067646 -0.051453690975904465 -0.08672259002923965 0.01300814002752304 0.06106147915124893 0.07012126594781876 -0.09506054222583771 0.049876801669597626
-0.007272742222994566 -0.09649158269166946 0.0518561527132988 0.003983322996646166 -0.00539506645873189 -0.02017204463481903 -0.05438902601599693 0.01845109649002552
-0.042209986597299576 -0.048740409314632416 -0.062400635331869125 -0.03717504069209099 -0.034315578639507294 -0.09986182302236557 -0.09517727047204971 -0.02169136516749859
-0.0033682570792734623 -0.016516078263521194 0.03262440487742424 -0.004797746427357197 -0.07569942623376846 -0.03246083855628967 0.0005625362391583622 0.0011349174892529845
-0.07506930083036423 -0.0898350402712822 0.07966405153274536 0.01762242428958416 -0.016898494213819504 0.0645083487033844 -0.09813220053911209 -0.05360857769846916
-0.09887229651212692 0.044462818652391434 -0.001536583062261343 -0.015171694569289684 -0.01626226119697094 -0.0004666282038670033 -0.09808216989040375 0.01934928074479103
-0.029200265184044838 -0.039514049887657166 0.03863979130983353 0.07798853516578674 -0.07433870434761047 -0.07227077335119247 -0.002145877806469798 0.06370735168457031
0.09792187064886093 -0.07066293060779572 -0.0013616495998576283 -0.07127659022808075 -0.032546188682317734 -0.04631383344531059 -0.06002261862158775 0.08400674164295197
0.08393625915050507 -0.09041296690702438 -0.10007737576961517 0.03244521841406822 -0.08571849763393402 -0.0013503669761121273 0.08854043483734131 -0.018223460763692856
-0.01605176366865635 0.09343339502811432 0.03456350043416023 -0.011914871633052826 -0.051724981516599655 -0.07502331584692001 -0.0006284474511630833 -0.03697505220770836
-0.01267425250262022 0.0673564076423645 0.06279021501541138 -0.0733397901058197 0.09683005511760712 -0.060318995267152786 0.08327013999223709 0.09036603569984436
-0.020302260294556618 0.021059174090623856 0.10308761894702911 0.10237577557563782 0.06218314915895462 0.016866834834218025 0.04049130901694298 -0.06097995117306709
-0.01408015564084053 -0.0021433751098811626 0.020160239189863205 -0.013620449230074883 0.08835221827030182 0.0014899749075993896 0.06442155689001083 -0.09915337711572647
-0.021070068702101707 0.014143615961074829 -0.10291644185781479 0.030012929812073708 -0.053051725029945374 -0.03980188071727753 0.03764432296156883 -0.07456378638744354
-0.08877197653055191 0.08816701918840408 -0.07195018976926804 -0.0390235111117363 -0.07198644429445267 0.052386704832315445 -0.0037355399690568447 0.07259498536586761
-0.07304318249225616 0.059900570660829544 0.09390924870967865 -0.08598754554986954 -0.012429545633494854 0.04555976018309593 -0.04088946431875229 -0.06304913014173508
-0.0769151821732521 0.09301880747079849 -0.033360134810209274 -0.09221642464399338 0.06581038981676102 -0.07634219527244568 0.015188705176115036 0.048010263592004776
0.07884877175092697 0.07525456696748734 -0.08090640604496002 0.08642590790987015 -0.002825191244482994 0.08128009736537933 0.05023699998855591 -0.06944561004638672
0.08527439832687378 -0.041916340589523315 0.04871494695544243 0.03141656517982483 -0.0486200749874115 0.057199347764253616 -0.07287698984146118 -0.07498659938573837
0.024807505309581757 0.03830905258655548 0.07357167452573776 -0.08218179643154144 -0.014479996636509895 0.0005056738737039268 -0.019171738997101784 -0.09004699438810349
0.004215266089886427 0.08876115828752518 -0.07814405858516693 -0.07031367719173431 0.10003583878278732 -0.033823683857917786 0.09523796290159225 -0.06020703166723251
00000000: 0000 0060 3bea a33f 0000 00a0 8a09 babf
00000010: 0000 0060 e0b2 b43f 0000 00c0 60e8 b13f
00000020: 0000 00c0 fc99 7fbf 0000 0020 e3b0 b73f
00000030: 0000 00a0 3beb b4bf 0000 0080 0924 b03f
00000040: 0000 0000 4f10 b1bf 0000 0000 1109 a7bf
00000050: 0000 00c0 8cbb b63f 0000 0080 e93c b53f
00000060: 0000 0020 747f ad3f 0000 00e0 5754 45bf
00000070: 0000 0040 40bc adbf 0000 00c0 ce63 b4bf
00000080: 0000 0040 776e 94bf 0000 00e0 29c5 8cbf
00000090: 0000 0040 1a7e 7dbf 0000 00c0 0757 8d3f
000000a0: 0000 0060 3869 a23f 0000 0040 0ab4 ac3f
000000b0: 0000 0000 1c75 993f 0000 0060 9cdd b3bf
000000c0: 0000 0080 769a 903f 0000 0060 7bb1 b5bf
000000d0: 0000 0060 bcfb 9d3f 0000 0020 fdd5 b03f
000000e0: 0000 0000 0677 a33f 0000 0040 d8ea b2bf
000000f0: 0000 00e0 3be5 b63f 0000 0020 535c 773f
00000100: 0000 0060 600c bb3f 0000 0020 8c5f 99bf
00000110: 0000 0020 b689 a9bf 0000 00e0 0914 68bf
00000120: 0000 00a0 4b35 a63f 0000 0000 4ab6 b03f
00000130: 0000 0060 1e23 b3bf 0000 00c0 d6e4 adbf
00000140: 0000 0020 e341 b7bf 0000 00e0 2d84 bbbf
00000150: 0000 00e0 24f1 9b3f 0000 00c0 84aa 923f
00000160: 0000 0040 9f97 983f 0000 0060 be87 a3bf
00000170: 0000 0060 dd5e 82bf 0000 00a0 3a8f 913f
00000180: 0000 0060 1883 67bf 0000 0000 e464 9b3f
00000190: 0000 0080 82ae b4bf 0000 00e0 fda6 ab3f
000001a0: 0000 00c0 913b b33f 0000 0040 5228 9f3f
000001b0: 0000 0020 ff60 b83f 0000 0000 4939 a93f
000001c0: 0000 0060 0cf3 a9bf 0000 00c0 fae9 8f3f
000001d0: 0000 00a0 83c1 923f 0000 0060 8e52 933f
000001e0: 0000 00c0 78e1 b1bf 0000 00c0 3b78 963f
000001f0: 0000 0040 a870 b73f 0000 00e0 9859 b9bf
00000200: 0000 0060 83ae 82bf 0000 0080 bf44 a6bf
00000210: 0000 00c0 1141 a0bf 0000 0000 af72 b93f
00000220: 0000 00c0 c568 b83f 0000 0020 3c9c 9c3f
00000230: 0000 0060 efba b7bf 0000 0020 cf32 b2bf
00000240: 0000 0020 91c7 b2bf 0000 0060 172f b53f
00000250: 0000 00c0 4c1d ab3f 0000 00a0 f098 b5bf
00000260: 0000 0060 90c1 a43f 0000 00e0 a2ee 9a3f
00000270: 0000 0080 f4eb a53f 0000 0000 7935 b9bf
00000280: 0000 00c0 d39e b4bf 0000 0080 ba1f b8bf
00000290: 0000 0000 bbc6 923f 0000 0060 c4ee a93f
000002a0: 0000 0080 8715 b43f 0000 00c0 e031 a3bf
000002b0: 0000 00a0 5301 b63f 0000 0060 00ec ac3f
000002c0: 0000 00a0 56d3 823f 0000 0060 2358 aabf
000002d0: 0000 00a0 7333 b6bf 0000 0000 03a4 8a3f
000002e0: 0000 0040 7343 af3f 0000 00a0 77f3 b13f
000002f0: 0000 0040 e355 b8bf 0000 00c0 7389 a93f
00000300: 0000 00e0 05ca 7dbf 0000 0020 acb3 b8bf
00000310: 0000 00c0 e38c aa3f 0000 0020 d150 703f
00000320: 0000 0020 2319 76bf 0000 0000 fba7 94bf
00000330: 0000 00e0 e0d8 abbf 0000 0020 d8e4 923f
00000340: 0000 0020 8c9c a5bf 0000 00c0 80f4 a8bf
00000350: 0000 00e0 f9f2 afbf 0000 0060 9b08 a3bf
00000360: 0000 00c0 cf91 a1bf 0000 0060 8b90 b9bf
00000370: 0000 00a0 895d b8bf 0000 00e0 4236 96bf
00000380: 0000 0040 bf97 6bbf 0000 0040 97e9 90bf
00000390: 0000 0060 25b4 a03f 0000 0040 cda6 73bf
000003a0: 0000 00a0 0961 b3bf 0000 0000 b59e a0bf
000003b0: 0000 0060 e56e 423f 0000 0060 3098 523f
000003c0: 0000 00e0 bd37 b3bf 0000 00e0 6dff b6bf
000003d0: 0000 0000 dd64 b43f 0000 00e0 9c0b 923f
000003e0: 0000 00c0 d64d 91bf 0000 0080 9e83 b03f
000003f0: 0000 0020 311f b9bf 0000 0060 9572 abbf
00000400: 0000 00e0 b14f b9bf 0000 00a0 d4c3 a63f
00000410: 0000 0080 e52c 59bf 0000 0060 5612 8fbf
00000420: 0000 00e0 0da7 90bf 0000 00e0 b894 3ebf
00000430: 0000 00c0 e91b b9bf 0000 0040 4cd0 933f
00000440: 0000 00a0 ace6 9dbf 0000 0080 2f3b a4bf
00000450: 0000 0040 98c8 a33f 0000 0080 0ef7 b33f
00000460: 0000 0080 dc07 b3bf 0000 0060 5680 b2bf
00000470: 0000 0060 3b94 61bf 0000 0000 204f b03f
00000480: 0000 0060 6811 b93f 0000 0040 f716 b2bf
00000490: 0000 0020 2c4f 56bf 0000 00c0 2e3f b2bf
000004a0: 0000 00e0 e4a9 a0bf 0000 0060 72b6 a7bf
000004b0: 0000 00e0 48bb aebf 0000 0040 7781 b53f
000004c0: 0000 00c0 d87c b53f 0000 00e0 4d25 b7bf
000004d0: 0000 00c0 ab9e b9bf 0000 00e0 a89c a03f
000004e0: 0000 00c0 a5f1 b5bf 0000 0080 d91f 56bf
000004f0: 0000 0000 96aa b63f 0000 00c0 2ba9 92bf
00000500: 0000 00a0 df6f 90bf 0000 0040 40eb b73f
00000510: 0000 00a0 4eb2 a13f 0000 0000 d366 88bf
00000520: 0000 0060 b27b aabf 0000 0060 ba34 b3bf
00000530: 0000 00a0 cc97 44bf 0000 00e0 64ee a2bf
00000540: 0000 0060 f5f4 89bf 0000 0000 453e b13f
00000550: 0000 0000 0513 b03f 0000 0080 65c6 b2bf
00000560: 0000 00c0 dac9 b83f 0000 00a0 21e2 aebf
00000570: 0000 0020 3151 b53f 0000 0080 3a22 b73f
00000580: 0000 00a0 1dca 94bf 0000 0040 8990 953f
00000590: 0000 0040 f363 ba3f 0000 0080 4c35 ba3f
000005a0: 0000 0040 78d6 af3f 0000 0020 8a45 913f
000005b0: 0000 00e0 46bb a43f 0000 00a0 c338 afbf
000005c0: 0000 0080 0ed6 8cbf 0000 00c0 fb8e 61bf
000005d0: 0000 00c0 e2a4 943f 0000 00c0 09e5 8bbf
000005e0: 0000 0040 409e b63f 0000 0060 6869 583f
000005f0: 0000 0060 ee7d b03f 0000 00a0 1d62 b9bf
00000600: 0000 0060 6493 95bf 0000 0000 54f7 8c3f
00000610: 0000 0060 bb58 babf 0000 00a0 b5bb 9e3f
00000620: 0000 0080 9829 abbf 0000 0080 e960 a4bf
00000630: 0000 00e0 1d46 a33f 0000 00c0 9c16 b3bf
00000640: 0000 00a0 c2b9 b6bf 0000 0020 1d92 b63f
00000650: 0000 00e0 536b b2bf 0000 00c0 e3fa a3bf
00000660: 0000 0020 b46d b2bf 0000 0020 6ed2 aa3f
00000670: 0000 00c0 fe99 6ebf 0000 00c0 9595 b23f
00000680: 0000 0040 f5b2 b2bf 0000 00a0 49ab ae3f
00000690: 0000 00c0 6f0a b83f 0000 00a0 4703 b6bf
000006a0: 0000 0060 a974 89bf 0000 00e0 9b53 a73f
000006b0: 0000 00c0 76ef a4bf 0000 00e0 fc23 b0bf
000006c0: 0000 00a0 b6b0 b3bf 0000 00a0 14d0 b73f
000006d0: 0000 0060 9414 a1bf 0000 00e0 7e9b b7bf
000006e0: 0000 0020 f3d8 b03f 0000 0080 298b b3bf
000006f0: 0000 0080 411b 8f3f 0000 0020 cd94 a83f
00000700: 0000 00e0 6e2f b43f 0000 0020 e243 b33f
00000710: 0000 0040 48b6 b4bf 0000 0020 0220 b63f
00000720: 0000 0000 db24 67bf 0000 00c0 c5ce b43f
00000730: 0000 0000 aab8 a93f 0000 0000 30c7 b1bf
00000740: 0000 0000 8bd4 b53f 0000 0000 0f76 a5bf
00000750: 0000 0060 2af1 a83f 0000 0000 d515 a03f
00000760: 0000 0000 bbe4 a8bf 0000 00a0 3b49 ad3f
00000770: 0000 0000 11a8 b2bf 0000 0060 5232 b3bf
00000780: 0000 0080 2367 993f 0000 0080 3e9d a33f
00000790: 0000 00e0 97d5 b23f 0000 00c0 dd09 b5bf
000007a0: 0000 0040 b0a7 8dbf 0000 0060 e691 403f
000007b0: 0000 00a0 c1a1 93bf 0000 00e0 510d b7bf
000007c0: 0000 00e0 0644 713f 0000 0020 0db9 b63f
000007d0: 0000 00c0 3f01 b4bf 0000 00c0 1300 b2bf
000007e0: 0000 00e0 f29b b93f 0000 0080 5651 a1bf
000007f0: 0000 00e0 8361 b83f 0000 00c0 74d3 aebf

fuse_a.weight f8 [1, 112, 3, 3]
-0.0084396256133914 -0.010315709747374058 -0.007405117154121399 -0.007873491384088993 -0.010486842133104801 -0.007875016890466213 -0.006019854452461004 -0.009745074436068535
-0.008269655518233776 -0.008043074049055576 -0.007137432228773832 -0.009279834106564522 -0.008399417623877525 -0.0072976755909621716 -0.009499394334852695 -0.009761632420122623
-0.008219529874622822 -0.010083249770104885 -0.007193116005510092 -0.00703402841463685 -0.006864866707473993 -0.007006876636296511 -0.006748283747583628 -0.006439145654439926
-0.007978437468409538 -0.007757189217954874 -0.007483410649001598 -0.013871464878320694 -0.013468596152961254 -0.013377095572650433 -0.014283156022429466 -0.01395164243876934
-0.014228767715394497 -0.014668128453195095 -0.01436438225209713 -0.0146953659132123 0.009595802053809166 0.012500640004873276 0.009842664003372192 0.009168862365186214
0.012860815972089767 0.010748142376542091 0.006837157532572746 0.011568481102585793 0.010586190037429333 -0.003638430731371045 -0.004630696959793568 -0.0036294558085501194
-0.0029122205451130867 -0.00390781881287694 -0.002923680003732443 -0.0031672001350671053 -0.00418896833434701 -0.003297531045973301 0.011922499164938927 0.01004808396100998
0.01008228026330471 0.012469221837818623 0.010709358379244804 0.01090199500322342 0.013452769257128239 0.011646678671240807 0.011771813035011292 -0.008502447977662086
-0.006918647326529026 -0.009170654229819775 -0.009273407980799675 -0.007393461186438799 -0.009613128378987312 -0.010393788106739521 -0.008022117428481579 -0.009726089425384998
-0.004061270505189896 -0.005190843716263771 -0.002875503385439515 -0.0035536293871700764 -0.0050987000577151775 -0.003128764219582081 -0.0035568505991250277 -0.005673395935446024
-0.004245583899319172 0.011455475352704525 0.013414237648248672 0.011834719218313694 0.011832457967102528 0.01424341555684805 0.012876163236796856 0.00996867660433054
0.013084021396934986 0.01244464609771967 0.01426749024540186 0.011816229671239853 0.013050283305346966 0.01533454842865467 0.012737943790853024 0.013736790046095848
0.016278406605124474 0.013550618663430214 0.014273428358137608 -0.0032231053337454796 -0.0008148047490976751 -0.0028369068168103695 -0.003395604435354471 -0.0003702357935253531
-0.0020392814185470343 -0.006096158176660538 -0.002186848083510995 -0.003041618037968874 -0.00361818028613925 -0.006511790677905083 -0.004603142384439707 -0.003173491917550564
-0.006707916036248207 -0.005083063151687384 -0.0014128966722637415 -0.005896756425499916 -0.0051830606535077095 -0.01025400497019291 -0.010715872049331665 -0.010118803940713406
-0.011415798217058182 -0.012115164659917355 -0.01153630018234253 -0.010632422752678394 -0.011621164157986641 -0.011298248544335365 -0.010340854525566101 -0.00916276965290308
-0.008914482779800892 -0.011256849393248558 -0.009986690245568752 -0.009684356860816479 -0.011871119029819965 -0.010317075997591019 -0.009772437624633312 0.0023461526725441217
4.607541541190585e-06 0.001251883222721517 0.003848871449008584 0.0009576997254043818 0.0019018515013158321 0.004511770326644182 0.0008481145487166941 0.0008801922667771578
-0.006287020165473223 -0.016969196498394012 -0.024292754009366035 -0.003499370999634266 -0.013662714511156082 -0.02047950029373169 -0.002277075545862317 -0.011974737048149109
-0.018336769193410873 0.007172922138124704 0.0054861861281096935 0.0026335360016673803 0.007804006338119507 0.006362240295857191 0.003663515904918313 0.008502482436597347
0.007531669456511736 0.005078397691249847 -0.0008179998258128762 0.005408315919339657 0.01084496546536684 -0.0023262561298906803 0.0033548325300216675 0.008140701800584793
-0.0020727363880723715 0.0031698239035904408 0.007339844014495611 -0.0005684900679625571 0.008026503026485443 0.015608501620590687 -0.002117087598890066 0.005731692537665367
0.012567361816763878 -0.0018405421869829297 0.005311793647706509 0.011316420510411263 -0.0056998832151293755 -0.015061561018228531 -0.02139667049050331 -0.0035403119400143623
-0.012590920552611351 -0.01855752430856228 -0.0030909241177141666 -0.012044030241668224 -0.017781222239136696 0.0012316681677475572 0.0057875351049005985 0.008104485459625721
0.0007201111293397844 0.004945189226418734 0.006701392121613026 0.0010915385792031884 0.005211383569985628 0.00651839142665267 0.0013801680179312825 -0.0071539380587637424
-0.013106469064950943 0.002781358314678073 -0.005506411660462618 -0.011290335096418858 0.003241513855755329 -0.004752873443067074 -0.010325601324439049 0.0013776315608993173
0.011457039974629879 0.019186140969395638 0.0007955619948916137 0.010433128103613853 0.017774200066924095 0.0006917184800840914 0.009875239804387093 0.016771091148257256
-0.01073206402361393 -0.006497610360383987 -0.0020410101860761642 -0.011573206633329391 -0.007808707654476166 -0.003761467058211565 -0.011940081603825092 -0.008750095032155514
-0.005242982413619757 0.0055197132751345634 0.00907642487436533 0.009718739427626133 0.005954208318144083 0.009709366597235203 0.01028220821171999 0.0062895268201828
0.010690312832593918 0.011622166261076927 -0.004598874598741531 -0.015332027338445187 -0.02338249422609806 -0.0028436128050088882 -0.013191832229495049 -0.021011846140027046
-0.0018249343847855926 -0.011908511631190777 -0.019651273265480995 0.004269733093678951 0.012858339585363865 0.01918085105717182 0.0032507777214050293 0.011654696427285671
0.017723802477121353 0.002715606242418289 0.011050667613744736 0.016965990886092186 -0.00010294818639522418 0.004736699163913727 0.007469700183719397 -0.0018075545085594058
00000000: 0000 0060 cb48 81bf 0000 0020 6720 85bf
00000010: 0000 0000 d454 7ebf 0000 0020 fa1f 80bf
00000020: 0000 0020 207a 85bf 0000 00e0 c620 80bf
00000030: 0000 0060 46a8 78bf 0000 00c0 39f5 83bf
00000040: 0000 0060 aeef 80bf 0000 0020 e378 80bf
00000050: 0000 00e0 233c 7dbf 0000 0040 4e01 83bf
00000060: 0000 00c0 b633 81bf 0000 00e0 2ae4 7dbf
00000070: 0000 0020 6b74 83bf 0000 0020 e8fd 83bf
00000080: 0000 00a0 66d5 80bf 0000 00e0 86a6 84bf
00000090: 0000 0060 8776 7dbf 0000 00a0 b6cf 7cbf
000000a0: 0000 00a0 551e 7cbf 0000 0020 3eb3 7cbf
000000b0: 0000 00a0 16a4 7bbf 0000 0000 ef5f 7abf
000000c0: 0000 00c0 ff56 80bf 0000 00a0 00c6 7fbf
000000d0: 0000 00c0 eca6 7ebf 0000 0080 a468 8cbf
000000e0: 0000 0060 6c95 8bbf 0000 0060 7365 8bbf
000000f0: 0000 00c0 7c40 8dbf 0000 00c0 ad92 8cbf
00000100: 0000 00e0 f823 8dbf 0000 00e0 520a 8ebf
00000110: 0000 00c0 126b 8dbf 0000 00a0 9a18 8ebf
00000120: 0000 00c0 f6a6 833f 0000 0080 ef99 893f
00000130: 0000 0000 6428 843f 0000 00e0 1fc7 823f
00000140: 0000 0080 c556 8a3f 0000 0040 1f03 863f
00000150: 0000 0080 4701 7c3f 0000 0040 37b1 873f
00000160: 0000 0060 36ae 853f 0000 00a0 57ce 6dbf
00000170: 0000 0040 a3f7 72bf 0000 0040 85bb 6dbf
00000180: 0000 0080 5edb 67bf 0000 0020 a501 70bf
00000190: 0000 00c0 66f3 67bf 0000 00a0 19f2 69bf
000001a0: 0000 00a0 7328 71bf 0000 0080 6c03 6bbf
000001b0: 0000 00c0 d26a 883f 0000 0000 1794 843f
000001c0: 0000 00c0 04a6 843f 0000 00a0 7689 893f
000001d0: 0000 00c0 c9ee 853f 0000 0000 c953 863f
000001e0: 0000 0020 208d 8b3f 0000 00c0 36da 873f
000001f0: 0000 0000 d21b 883f 0000 0040 bb69 81bf
00000200: 0000 0040 ba56 7cbf 0000 0060 10c8 82bf
00000210: 0000 00c0 effd 82bf 0000 0020 9b48 7ebf
00000220: 0000 0040 0cb0 83bf 0000 00a0 5649 85bf
00000230: 0000 0060 e66d 80bf 0000 00a0 45eb 83bf
00000240: 0000 0000 8da2 70bf 0000 0080 fe42 75bf
00000250: 0000 0020 5e8e 67bf 0000 0040 801c 6dbf
00000260: 0000 00e0 5fe2 74bf 0000 0080 7ea1 69bf
00000270: 0000 00a0 4123 6dbf 0000 00a0 fc3c 77bf
00000280: 0000 0040 d163 71bf 0000 00e0 f775 873f
00000290: 0000 0080 ec78 8b3f 0000 0020 cd3c 883f
000002a0: 0000 00a0 9d3b 883f 0000 00e0 a62b 8d3f
000002b0: 0000 0060 d15e 8a3f 0000 0020 756a 843f
000002c0: 0000 00a0 cbcb 8a3f 0000 0020 947c 893f
000002d0: 0000 0020 4638 8d3f 0000 0080 1b33 883f
000002e0: 0000 0060 1bba 8a3f 0000 0040 b867 8f3f
000002f0: 0000 00e0 5916 8a3f 0000 00c0 0822 8c3f
00000300: 0000 0060 49ab 903f 0000 0040 6dc0 8b3f
00000310: 0000 0020 633b 8d3f 0000 0080 5767 6abf
00000320: 0000 00e0 13b3 4abf 0000 00c0 6c3d 67bf
00000330: 0000 0040 19d1 6bbf 0000 00a0 8643 38bf
00000340: 0000 00e0 aeb4 60bf 0000 0000 49f8 78bf
00000350: 0000 0020 27ea 61bf 0000 0040 bcea 68bf
00000360: 0000 00c0 dfa3 6dbf 0000 0080 1bac 7abf
00000370: 0000 00a0 beda 72bf 0000 0080 4bff 69bf
00000380: 0000 0080 c279 7bbf 0000 0060 fad1 74bf
00000390: 0000 0040 1e26 57bf 0000 0080 3227 78bf
000003a0: 0000 0040 d53a 75bf 0000 0040 0d00 85bf
000003b0: 0000 0000 34f2 85bf 0000 00e0 2ab9 84bf
000003c0: 0000 0080 2a61 87bf 0000 00e0 d5cf 88bf
000003d0: 0000 0000 58a0 87bf 0000 00a0 73c6 85bf
000003e0: 0000 0040 d6cc 87bf 0000 0040 8923 87bf
000003f0: 0000 0000 962d 85bf 0000 0020 eec3 82bf
00000400: 0000 00a0 c141 82bf 0000 00c0 d40d 87bf
00000410: 0000 00e0 e673 84bf 0000 0060 64d5 83bf
00000420: 0000 00a0 e24f 88bf 0000 0080 1e21 85bf
00000430: 0000 0060 9203 84bf 0000 0020 3d38 633f
00000440: 0000 0060 4f53 d33e 0000 0060 c782 543f
00000450: 0000 0020 ab87 6f3f 0000 0080 c461 4f3f
00000460: 0000 0080 f128 5f3f 0000 0020 ef7a 723f
00000470: 0000 0020 80ca 4b3f 0000 0080 96d7 4c3f
00000480: 0000 0020 6bc0 79bf 0000 0080 5f60 91bf
00000490: 0000 0020 33e0 98bf 0000 0080 b6aa 6cbf
000004a0: 0000 0080 32fb 8bbf 0000 0000 94f8 94bf
000004b0: 0000 00a0 5fa7 62bf 0000 0000 3686 88bf
000004c0: 0000 00c0 dfc6 92bf 0000 00a0 5a61 7d3f
000004d0: 0000 00e0 ae78 763f 0000 00e0 ec92 653f
000004e0: 0000 0000 18f7 7f3f 0000 00e0 4a0f 7a3f
000004f0: 0000 0020 f302 6e3f 0000 00e0 bf69 813f
00000500: 0000 0020 87d9 7e3f 0000 0000 16cd 743f
00000510: 0000 0040 e1cd 4abf 0000 00c0 0727 763f
00000520: 0000 00a0 e235 863f 0000 0040 830e 63bf
00000530: 0000 0000 987b 6b3f 0000 0080 12ac 803f
00000540: 0000 00e0 d7fa 60bf 0000 0040 9af7 693f
00000550: 0000 0060 6210 7e3f 0000 0020 d7a0 42bf
00000560: 0000 0000 3370 803f 0000 00a0 59f7 8f3f
00000570: 0000 00c0 da57 61bf 0000 0080 1d7a 773f
00000580: 0000 00c0 eabc 893f 0000 0020 cb27 5ebf
00000590: 0000 00c0 d1c1 753f 0000 0040 102d 873f
000005a0: 0000 00c0 c258 77bf 0000 0080 98d8 8ebf
000005b0: 0000 0040 02e9 95bf 0000 0080 9200 6dbf
000005c0: 0000 00c0 44c9 89bf 0000 0060 be00 93bf
000005d0: 0000 0040 2352 69bf 0000 0060 8aaa 88bf
000005e0: 0000 00a0 3d35 92bf 0000 00a0 fd2d 543f
000005f0: 0000 00a0 abb4 773f 0000 00a0 1599 803f
00000600: 0000 00e0 ba98 473f 0000 0020 6841 743f
00000610: 0000 0040 eb72 7b3f 0000 00a0 3ee2 513f
00000620: 0000 0020 8858 753f 0000 0060 07b3 7a3f
00000630: 0000 0020 d89c 563f 0000 00a0 724d 7dbf
00000640: 0000 0080 90d7 8abf 0000 0060 eec8 663f
00000650: 0000 0020 e48d 76bf 0000 0020 631f 87bf
00000660: 0000 0080 f28d 6a3f 0000 00c0 bf77 73bf
00000670: 0000 00c0 9625 85bf 0000 00a0 3492 563f
00000680: 0000 00e0 c976 873f 0000 0020 88a5 933f
00000690: 0000 0060 a811 4a3f 0000 00c0 f65d 853f
000006a0: 0000 0060 6633 923f 0000 0020 8eaa 463f
000006b0: 0000 0040 7839 843f 0000 00e0 702c 913f
000006c0: 0000 0040 b1fa 85bf 0000 0000 3d9d 7abf
000006d0: 0000 0000 4fb8 60bf 0000 0080 b1b3 87bf
000006e0: 0000 0000 06fc 7fbf 0000 0040 5ed0 6ebf
000006f0: 0000 00a0 0a74 88bf 0000 00e0 91eb 81bf
00000700: 0000 0060 aa79 75bf 0000 00c0 d69b 763f
00000710: 0000 0020 a996 823f 0000 0020 6be7 833f
00000720: 0000 00a0 7063 783f 0000 0020 81e2 833f
00000730: 0000 00a0 d60e 853f 0000 0000 0cc3 793f
00000740: 0000 0080 cde4 853f 0000 00c0 5ccd 873f
00000750: 0000 0000 45d6 72bf 0000 00e0 6566 8fbf
00000760: 0000 00a0 94f1 97bf 0000 0000 7d4b 67bf
00000770: 0000 00c0 5104 8bbf 0000 0020 2184 95bf
00000780: 0000 0060 54e6 5dbf 0000 0060 7d63 88bf
00000790: 0000 00a0 761f 94bf 0000 00c0 237d 713f
000007a0: 0000 0020 7955 8a3f 0000 0020 25a4 933f
000007b0: 0000 0000 60a1 6a3f 0000 00e0 6ade 873f
000007c0: 0000 0040 3026 923f 0000 0000 0a3f 663f
000007d0: 0000 0080 bba1 863f 0000 0060 885f 913f
000007e0: 0000 0060 bcfc 1abf 0000 0000 ca66 733f
000007f0: 0000 0060 8c98 7e3f 0000 00e0 6e9d 5dbf
